models/paddle_dqn_model_checkpoint_70000.pth (torch, 52785 bytes, 24 tensors)

network.0.weight f4 [64, 6]
-2.4954088 -2.8738031 -0.10894228 -0.2721774 0.08501512 -0.3808784 0.2499714 0.02072094
0.01672489 0.14930117 -0.10577404 -0.16840713 0.17513299 0.14234093 -0.24410564 -0.007001087
0.12565336 -0.26675755 -0.665411 -0.11003658 0.21019103 0.10887608 -0.22286278 0.064017445
-2.5854692 -5.2136164 -0.5335213 -2.0995848 -0.46246085 -0.6391935 -0.67034674 -0.43007568
0.22146125 -0.10278006 0.02500965 -0.33558342 -0.04054483 -0.74684346 -0.053728778 -0.11869893
0.04034348 -0.7867523 -0.6385181 -0.8460242 0.21071391 -0.057122618 -0.24447215 -0.39195555
-0.35496497 0.038459916 -0.08688177 0.0335792 0.2051083 -0.22018631 -0.8181329 -0.85647476
-0.10155048 -0.039614476 -0.10171561 -0.086304285 0.112957016 -0.42473975 0.20718615 -0.20414662
-0.029336205 -0.4596482 -0.0042173276 0.11727314 -0.041272245 0.07050664 0.06912135 0.12375388
-0.46053973 -0.031293526 -0.107637875 -0.042338848 0.068127215 -0.26980686 -0.030994456 -0.38792083
0.12183872 0.11829977 0.05177833 -0.4671692 -13.156202 -0.57613283 -0.85339236 -1.8265245
-0.7406138 0.75520635 -8.284553 -0.5164539 -0.31193924 -1.7814149 -0.30655453 0.07445146
0.10038913 -0.03134841 0.10277805 0.056420643 -0.21341337 0.12825567 -0.23836094 -0.6747125
0.24545655 0.01125428 0.082957216 -0.50857544 -4.459443 1.2957103 -0.019622529 -0.15464945
0.07172806 -1.2975112 -0.9843797 -0.29996377 -0.0838133 -0.08575115 0.12620647 -0.3033063
-0.7681146 -0.49323007 0.1191993 -0.09923165 0.39926544 -0.87584996 -0.30481648 0.39440265
0.08626555 0.023830522 -0.20053998 -0.4074568 -0.50753474 -0.1693629 0.0868746 -0.0993694
0.08357992 -0.64409345 -0.4025429 0.33541632 0.107354015 0.07359943 -0.15007712 -0.22934185
-0.29795983 0.07461424 0.16815276 -0.1051388 0.100600235 -0.47993624 -6.0172787 2.3310728
0.3558491 -2.8785408 0.37380219 -0.5717351 -1.0322621 -0.513671 0.020960415 -0.08806066
0.20734319 -0.9608954 0.1433031 -0.051661063 0.12149429 0.05939995 -0.098019145 -0.5006587
0.015618991 -0.045207046 -0.11660648 0.1026173 0.29264262 -0.0005932767 -0.065120675 -0.11466425
-0.052543733 0.09381986 -0.08693477 -0.40765142 -8.550341 0.33159673 -0.32672864 -2.6241362
-0.097830206 1.5058713 -0.16090254 -0.46255916 0.03752303 -0.058241487 0.27945268 -0.27353418
0.31139183 -0.49547052 -0.103213556 -0.10215574 0.2391029 -0.3230187 -0.066703774 0.08552445
0.25850525 0.041148767 -0.2473686 -0.174586 -0.33972293 -0.19920117 0.136712 0.07636683
0.12912403 -0.50897604 0.051008496 -0.03372758 0.21151528 0.018406065 -0.33150274 -0.0125710005
-0.5922215 -0.53135914 -0.025043117 0.2058027 0.09597686 -0.12712371 -0.3494626 0.046572022
-0.3434231 -0.012641417 0.26844835 -0.17260933 -0.04678803 -0.06861979 0.23503044 0.14140087
-0.28220627 -0.2161646 0.030351073 -0.8169147 0.36708274 -0.044764005 -0.06891824 -0.56517524
-0.22880018 -1.0308592 -0.20323454 -0.07256646 0.24706298 -0.49817914 -0.4258416 -0.4912484
-0.10619684 0.025714729 0.25572857 -0.37361684 -0.67536885 -0.8767614 0.052982584 -0.1264185
00000000: c7b4 1fc0 64ec 37c0 211d dfbd d65a 8bbe
00000010: 681c ae3d 7e02 c3be 81f8 7f3e f6be a93c
00000020: a302 893c 68e2 183e 0fa0 d8bd eb72 2cbe
00000030: 1056 333e d2c1 113e d4f6 79be 6069 e5bb
00000040: 46ab 003e 7294 88be 6058 2abf dc5a e1bd
00000050: 513c 573e 6cfa de3d 2436 64be 941b 833d
00000060: 5478 25c0 f2d5 a6c0 da94 08bf 995f 06c0
00000070: abc7 ecbe 2fa2 23bf d89b 2bbf e132 dcbe
00000080: bdc6 623e 5a7e d2bd 0ae1 cc3c 97d1 abbe
00000090: 5612 26bd 2231 3fbf b512 5cbd 6d18 f3bd
000000a0: 343f 253d 9968 49bf ec75 23bf 0b95 58bf
000000b0: 63c5 573e 68f9 69bd e856 7abe 66ae c8be
000000c0: f8bd b5be 2588 1d3d 12ef b1bd 588a 093d
000000d0: e907 523e 8578 61be 2871 51bf ee41 5bbf
000000e0: b3f9 cfbd ca42 22bd 4650 d0bd 4dc0 b0bd
000000f0: 0256 e73d 7d77 d9be 9b28 543e d00b 51be
00000100: 7b52 f0bc 0257 ebbe 8231 8abb e62c f03d
00000110: 160d 29bd c965 903d 7f8f 8d3d ad72 fd3d
00000120: ddcb ebbe a42d 00bd 3f71 dcbd 806b 2dbd
00000130: 4886 8b3d 2024 8abe 16e8 fdbc 8f9d c6be
00000140: 9486 f93d 2647 f23d 8415 543d cd30 efbe
00000150: ce7f 52c1 717d 13bf ec77 5abf 8ecb e9bf
00000160: de98 3dbf 3455 413f 878d 04c1 5336 04bf
00000170: 80b6 9fbe 6705 e4bf b7f4 9cbe 027a 983d
00000180: d198 cd3d 3167 00bd 4c7d d23d 5519 673d
00000190: 0989 5abe 7455 033e e414 74be f5b9 2cbf
000001a0: f658 7b3e df63 383c 79e5 a93d 0032 02bf
000001b0: c2b3 8ec0 d6d9 a53f 6dbf a0bc 6d5c 1ebe
000001c0: 29e6 923d d914 a6bf 4f00 7cbf da94 99be
000001d0: 4fa6 abbd 4d9e afbd 453c 013e f74a 9bbe
000001e0: 29a3 44bf a788 fcbe c31e f43d f739 cbbd
000001f0: 856c cc3e b437 60bf e810 9cbe 25ef c93e
00000200: feab b03d 3a38 c33c 5a5a 4dbe 2d9e d0be
00000210: cced 01bf 786d 2dbe 4feb b13d 2f82 cbbd
00000220: f32b ab3d 4fe3 24bf 1a1a cebe b0bb ab3e
00000230: 6cdc db3d 4cbb 963d d1ad 19be 97d8 6abe
00000240: 318e 98be 5acf 983d 3d30 2c3e 0353 d7bd
00000250: 7f07 ce3d 34ba f5be 8c8d c0c0 4c30 1540
00000260: da31 b63e 033a 38c0 0063 bf3e 3b5d 12bf
00000270: 2a21 84bf f17f 03bf 2db5 ab3c 2659 b4bd
00000280: c651 543e 3efd 75bf 0cbe 123e 8d9a 53bd
00000290: 00d2 f83d 5d4d 733d 43be c8bd 2b2b 00bf
000002a0: cce6 7f3c 062b 39bd 61cf eebd 0529 d23d
000002b0: 41d5 953e 2086 1bba fd5d 85bd 17d5 eabd
000002c0: 1938 57bd a024 c03d db0a b2bd b0b7 d0be
000002d0: 32ce 08c1 0cc7 a93e fa48 a7be d9f1 27c0
000002e0: 345b c8bd 64c0 c03f a3c3 24be 8ed4 ecbe
000002f0: c0b1 193d a08e 6ebd 6c14 8f3e ac0c 8cbe
00000300: c06e 9f3e 50ae fdbe a161 d3bd 0737 d1bd
00000310: 64d7 743e b562 a5be fd9b 88bd 7127 af3d
00000320: cd5a 843e 9c8b 283d 324e 7dbe acc6 32be
00000330: 2af0 adbe 64fb 4bbe 3bfe 0b3e 3666 9c3d
00000340: 1739 043e 414c 02bf 49ee 503d ee25 0abd
00000350: 7697 583e 51c8 963c baba a9be 99f6 4dbc
00000360: d49b 17bf 2707 08bf 3927 cdbc f1bd 523e
00000370: 848f c43d b82c 02be c3ec b2be 4ec2 3e3d
00000380: 27d5 afbe f21d 4fbc 1072 893e 80c0 30be
00000390: cea4 3fbd 8888 8cbd d2ab 703e 64cb 103e
000003a0: 577d 90be 415a 5dbe d0a2 f83c 5221 51bf
000003b0: 45f2 bb3e 765a 37bd 0225 8dbd 53af 10bf
000003c0: 984a 6abe 32f3 83bf b71c 50be b99d 94bd
000003d0: 14fe 7c3e 5611 ffbe e907 dabe e984 fbbe
000003e0: bb7d d9bd b2a7 d23c dbee 823e b54a bfbe
000003f0: f9e4 2cbf 6f73 60bf 4404 593d da73 01be

network.0.bias f4 [64]
-0.4374805 -0.60209996 -0.38203627 -0.4780016 -0.44350237 -0.34645262 -0.88557535 -0.45833954
0.03534479 -0.7645624 -0.48121604 -0.5110005 -0.086431086 -0.12120865 0.8230947 0.5813763
-0.42842478 -0.7381799 -1.2301823 -0.6586013 -0.2658757 -0.18150252 -0.40378976 -0.27748463
-0.34992567 -0.80020016 -0.27721527 -0.20036395 -0.65378886 -0.2349727 1.3645971 -0.28910992
-0.1570901 -0.4551917 -0.1912034 -0.32195106 -0.3461539 -0.38224977 -0.34304395 -0.43072143
-0.72245675 -0.09181371 -0.56176454 -0.7031872 -0.23981093 1.2400384 -0.7264198 -0.22393316
-0.30559057 -0.64497274 -0.0802673 -0.3489479 -0.40289333 -0.32304466 -0.14006115 -0.40295166
-0.099340424 -0.4180724 -0.18934685 -0.46192712 -0.6297718 -0.11896633 -0.8464935 -0.5127665
00000000: 72fd dfbe 3923 1abf 429a c3be a0bc f4be
00000010: be12 e3be 3d62 b1be 11b5 62bf 7bab eabe
00000020: b3c5 103d 5dba 43bf f361 f6be eed0 02bf
00000030: c802 b1bd 3e3c f8bd 56b6 523f 14d5 143f
00000040: 7e5a dbbe 5cf9 3cbf 9d76 9dbf 189a 28bf
00000050: dc20 88be ccdb 39be 88bd cebe 7712 8ebe
00000060: 7529 b3be ebd9 4cbf 29ef 8dbe 352c 4dbe
00000070: b55e 27bf af9c 70be 1eab ae3f 3706 94be
00000080: 3adc 20be e30e e9be d3ca 43be c5d6 a4be
00000090: 153b b1be 3eb6 c3be 75a3 afbe 8587 dcbe
000000a0: edf2 38bf d408 bcbd cdcf 0fbf 1404 34bf
000000b0: ff90 75be 94b9 9e3f a6f6 39bf bc4e 65be
000000c0: 5e76 9cbe ef1c 25bf 2f63 a4bd 4da9 b2be
000000d0: 0948 cebe 1c66 a5be 316c 0fbe ae4f cebe
000000e0: fe72 cbbd 960d d6be 24e4 41be b681 ecbe
000000f0: ba38 21bf 9fa4 f3bd ccb3 58bf aa44 03bf

network.2.weight f4 [32, 64]
-0.22526555 0.004673311 -0.073710576 -0.09060293 -0.12288103 0.0578816 -0.13222247 -0.11279717
0.055354908 -0.05747512 -0.01810781 0.068268925 -0.039503235 0.034825634 -0.17633116 -0.27113578
0.0033497268 0.043968216 -0.36951336 0.011485258 0.1984763 -0.08876881 -0.14845823 0.0095579475
0.08709186 0.067830056 0.2631397 0.018400058 -0.04388213 -0.022319704 -0.26331982 0.037708476
-0.09133926 -0.037108675 -0.03885443 0.030761823 -0.03510633 0.013406083 0.052067995 -0.16697554
-0.1823829 0.09157543 -0.16155753 -0.05959271 -0.09885265 -0.1656211 0.1371253 -0.052799262
-0.07164317 -0.017183872 -0.3509573 0.00036741572 0.015752092 -0.060407355 -0.120744914 -0.06383644
0.030142099 0.031501457 0.003594786 -0.054660678 -0.098016016 -0.108139366 -0.05944262 -0.20617269
-0.06886198 -0.12023791 0.08033693 -0.15134025 -0.17668344 -0.13026294 0.11252325 -0.074377246
-0.04499753 0.02658759 0.044646908 0.02397593 -0.07465392 -0.0985353 -0.3783198 0.048525356
-0.17095049 -0.05596484 0.032414045 0.030356051 -0.15867563 -0.00092591345 -0.01631366 0.0659858
0.04345351 -0.08984301 0.058042184 0.03136996 -0.08062182 -0.01841771 -0.09727917 -0.09180935
-0.16617279 0.09147011 0.035182662 -0.123119846 0.05565655 -0.11846191 -0.0870339 -0.032091606
-0.12373274 -0.07840739 -0.13928309 -0.07413556 -0.050604332 -0.17511669 -0.015786104 -0.021596758
0.033141673 0.061269496 -0.2787199 0.02257934 0.1177104 -0.16206852 -0.12030621 0.033076003
0.042941518 0.16874988 0.023554062 -0.103967465 -0.17139374 -0.0049834154 0.05087571 -0.08367654
-0.10026777 -0.0629269 -0.057889044 0.11126043 -0.066998646 -0.115102105 -0.20960724 -0.0055713803
0.09283498 0.008043602 -0.08180401 -0.123650394 -0.11141075 0.09340304 -0.19899599 -0.2549857
0.11976209 -0.0027083124 0.021522895 -0.044202104 -0.04620961 -0.03463149 -0.09238906 -0.07182206
-0.13927647 -0.10089134 0.043792382 -0.13133445 -0.0037486106 -0.014293946 -0.01071125 -0.06740315
-0.016957492 -0.012915954 -0.010008872 0.012210637 0.014709234 -0.039543584 -0.120428264 -0.010076284
-0.23804313 0.033358566 -0.2155698 0.052198686 -0.06615763 -0.079059646 -0.0878479 -0.4136531
-0.033629403 -0.008874944 0.016535938 -0.10812508 -0.09929085 0.05247788 -0.10150963 0.027459368
-0.19874704 -0.08341487 0.11443919 -0.034450702 -0.053149834 -0.03864862 -0.054031238 0.016253853
-0.08234476 0.011105812 -0.04917504 -0.0553283 -0.046907723 -0.15835103 -0.09374808 -0.023413286
-0.031004652 -0.033172738 0.055608876 -0.025300428 -0.047705382 -0.11613417 -0.12676835 -0.1329373
-0.105827905 0.037977353 -0.23005497 0.024649162 -0.03518255 0.0385637 -0.020514363 -0.05173032
-0.118016854 -0.32226104 -0.0893497 0.10976261 -0.11677845 -0.12362024 0.053600214 -0.052125156
-0.15236744 -0.05740547 -0.017661681 -0.0063211024 0.0122468285 -0.041996032 -0.093057945 -0.1338065
-0.16429114 0.04675658 -0.15640493 0.08477524 -0.13072623 0.01113885 -0.06653174 -0.23455802
-0.08863106 -0.2529391 -0.2707111 0.0034428658 -0.026561514 -0.23883674 -0.060097396 0.03160736
0.11711149 -0.045699403 -0.109004214 0.0011413696 -0.09324696 -0.041511577 0.00852715 -0.2263086
00000000: 03ac 66be 9322 993b 92f5 96bd 078e b9bd
00000010: 0da9 fbbd 4215 6d3d 5465 07be 3402 e7bd
00000020: d4bb 623d 086b 6bbd d456 94bc 94d0 8b3d
00000030: 25ce 21bd 53a5 0e3d 2890 34be 4fd2 8abe
00000040: 1787 5b3b 0418 343d db30 bdbe aa2c 3c3c
00000050: 5f3d 4b3e 6ccc b5bd 6f05 18be f098 1c3c
00000060: 385d b23d 7cea 8a3d 3fba 863e b8bb 963c
00000070: c0bd 33bd d0d7 b6bc dbd1 86be 3474 1a3d
00000080: 1410 bbbd 44ff 17bd d325 1fbd 3800 fc3c
00000090: a8cb 0fbd 30a5 5b3c 4045 553d a3fb 2abe
000000a0: 95c2 3abe e68b bb3d 566f 25be 7c17 74bd
000000b0: 4273 cabd 9498 29be 936a 0c3e 0a44 58bd
000000c0: a8b9 92bd 31c5 8cbc adb0 b3be b4a1 c039
000000d0: 880a 813c b46d 77bd 1c49 f7bd aebc 82bd
000000e0: 90ec f63c ac07 013d 8096 6b3b e0e3 5fbd
000000f0: 9fbc c8bd 2c78 ddbd 1b7a 73bd ef1e 53be
00000100: 8307 8dbd 4b3f f6bd b087 a43d f0f8 1abe
00000110: 81ec 34be a663 05be 9772 e63d 1953 98bd
00000120: 544f 38bd 38ce d93c addf 363d 2b69 c43c
00000130: 28e4 98bd e0cc c9bd 22b3 c1be 86c2 463d
00000140: a50d 2fbe 633b 65bd 97c4 043d 41ad f83c
00000150: dd7b 22be 00b9 72ba 3aa4 85bc 9023 873d
00000160: 4ffc 313d 9dff b7bd a4bd 6d3d ca7d 003d
00000170: 0e1d a5bd bde0 96bc 4d3a c7bd 8a06 bcbd
00000180: 3329 2abe ae54 bb3d b21b 103d 4226 fcbd
00000190: 1ff8 633d 289c f2bd d43e b2bd 7d72 03bd
000001a0: 9767 fdbd 0e94 a0bd 3aa0 0ebe 62d4 97bd
000001b0: 7d46 4fbd ca51 33be dc51 81bc afeb b0bc
000001c0: 90bf 073d b9f5 7a3d 60b4 8ebe 4ff8 b83c
000001d0: 2612 f13d 4af5 25be 1a63 f6bd b47a 073d
000001e0: 72e3 2f3d c5cc 2c3e 73f4 c03c e5ec d4bd
000001f0: d781 2fbe eb4b a3bb 0c63 503d 9b5e abbd
00000200: 3059 cdbd d2df 80bd 101d 6dbd 82dc e33d
00000210: 9636 89bd a7ba ebbd 48a3 56be 2090 b6bb
00000220: 4420 be3d 50c9 033c dc88 a7bd 6b3c fdbd
00000230: 522b e4bd 184a bf3d 9bc5 4bbe 7c8d 82be
00000240: d445 f53d f17d 31bb c850 b03c 440d 35bd
00000250: 4a46 3dbd c0d9 0dbd 7a36 bdbd 7217 93bd
00000260: 7e9e 0ebe 1ea0 cebd a45f 333d 8a7c 06be
00000270: 40ab 75bb 2831 6abc 3d7e 2fbc aa0a 8abd
00000280: 70ea 8abc 709d 53bc 40fc 23bc 200f 483c
00000290: 00ff 703c 74f8 21bd 18a3 f6bd 0017 25bc
000002a0: 94c1 73be fea2 083d 54be 5cbe 4ace 553d
000002b0: a77d 87bd 06ea a1bd 9ae9 b3bd 57ca d3be
000002c0: fcbe 09bd 3768 11bc 6076 873c af70 ddbd
000002d0: 0059 cbbd 0cf3 563d 48e4 cfbd 78f2 e03c
000002e0: 5884 4bbe 6ad5 aabd 185f ea3d 2e1c 0dbd
000002f0: a4b3 59bd 044e 1ebd dc4f 5dbd cd26 853c
00000300: 5fa4 a8bd 27f5 353c c46b 49bd ed9f 62bd
00000310: 5022 40bd c626 22be fefe bfbd 38cd bfbc
00000320: 78fd fdbc 23e0 07bd 22c6 633d d842 cfbc
00000330: b866 43bd c0d7 edbd 90cf 01be b720 08be
00000340: 4dbc d8bd 248e 1b3d 8893 6bbe 0aed c93c
00000350: 941b 10bd f8f4 1d3d bd0d a8bc 2ce3 53bd
00000360: d2b2 f1bd 66ff a4be fafc b6bd 38cb e03d
00000370: 8a29 efbd 9c2c fdbd e68b 5b3d 3081 55bd
00000380: 3606 1cbe 0022 6bbd 3baf 90bc 4021 cfbb
00000390: eca6 483c 0804 2cbd 2a95 bebd 9204 09be
000003a0: f03b 28be d483 3f3d 9d28 20be a49e ad3d
000003b0: 19dd 05be b97f 363c cb41 88bd fa2f 70be
000003c0: 3484 b5bd 3c81 81be a59a 8abe b4a1 613b
000003d0: 8897 d9bc 9e91 74be b028 76bd b876 013d
000003e0: 26d8 ef3d 4c2f 3bbd 9a3d dfbd 029a 953a
000003f0: 43f8 bebd 0b08 2abd 76b5 0b3c 71bd 67be

network.2.bias f4 [32]
-0.2910929 -0.26580182 -0.57395416 -0.43152258 -0.037806988 -0.4388456 -0.5264422 -0.4029012
-0.3496379 -0.48972562 0.57355636 -0.45368883 2.0324092 -0.45501533 -0.5425435 -0.39212808
-0.44376984 -0.5151655 -0.45197755 1.3014932 -0.32310987 1.7825094 -0.1511692 3.0097404
-0.31760302 -0.46193507 -0.43803576 -0.32194695 -0.18641788 -0.06746545 -0.16050795 -0.30480418
00000000: 210a 95be 2d17 88be a9ee 12bf 87f0 dcbe
00000010: 80db 1abd 5fb0 e0be ebc4 06bf 1149 cebe
00000020: bd03 b3be 51bd fabe 97d4 123f e749 e8be
00000030: fe12 0240 c5f7 e8be 21e4 0abf 03c5 c8be
00000040: cd35 e3be e3e1 03bf 9a69 e7be 5497 a63f
00000050: a86e a5be 4529 e43f 19cc 1abe 969f 4040
00000060: dd9c a2be c182 ecbe 3946 e0be 3bd6 a4be
00000070: 54e4 3ebe 532b 8abd 325c 24be 4b0f 9cbe

network.4.weight f4 [3, 32]
0.14747506 -0.0019538933 -0.26986116 0.28654936 0.019921722 -0.1502647 0.14071146 -0.05160608
-0.27925563 -0.16892661 3.8802845 0.25542614 -4.014245 0.17553672 0.10003089 0.052102912
-0.28516963 -0.26359612 0.025400845 1.4900761 -0.0784869 2.3114402 0.06855386 1.0620496
-0.13477945 0.18078668 0.0073143956 0.029208817 -0.028630609 0.09582927 0.19932164 -0.006894018
-0.007440058 -0.014070381 -0.09458961 -0.013397974 -0.028948005 0.4540657 0.27025324 0.19367418
-0.51296514 -0.014636698 3.975152 0.10667761 -4.121438 0.037759356 0.1594426 0.084908776
0.045901056 0.4390726 -0.293953 1.4421653 0.31842852 2.4169834 -0.030409383 1.1151687
-0.012912032 0.011348516 -0.10530626 0.02570091 -0.0042122276 -0.01016992 -0.06495327 -0.036309123
0.18353234 0.033756915 0.11678897 0.08556136 0.05041101 0.48820797 0.094727695 -0.30386347
0.5746487 0.07713442 3.799414 -0.02870583 -3.8578904 0.08234274 0.187015 0.29006085
-0.06854881 0.07363065 0.09832813 1.3250024 -0.104878895 2.4778647 -0.16587336 1.0697632
0.18120396 0.17337777 -0.23567042 0.15589246 -0.047978897 0.030362578 0.09975412 -0.02113687
00000000: b403 173e e40c 00bb 3e2b 8abe 99b6 923e
00000010: e132 a33c fdde 19be aa16 103e e660 53bd
00000020: 98fa 8ebe 19fb 2cbe 9556 7840 37c7 823e
00000030: b274 80c0 e6bf 333e ffdc cc3d dd69 553d
00000040: c101 92be 12f6 86be 6f15 d03c d0ba be3f
00000050: bdbd a0bd a3ee 1340 f765 8c3d 3ef1 873f
00000060: a003 0abe 2520 393e 99ad ef3b 5447 ef3c
00000070: bd8a eabc 2342 c43d f91a 4c3e 37e7 e1bb
00000080: bbcb f3bb 7587 66bc 33b8 c1bd 2d83 5bbc
00000090: 5e24 edbc 4d7b e83e a25e 8a3e 8652 463e
000000a0: af51 03bf c3ce 6fbc e468 7e40 ca79 da3d
000000b0: d2e2 83c0 8ea9 1a3d ec44 233e a7e4 ad3d
000000c0: bf02 3c3d 20ce e03e 0281 96be df98 b83f
000000d0: 1009 a33e dbaf 1a40 191d f9bc d9bd 8e3f
000000e0: fd8c 53bc 20ef 393c cfaa d7bd b78a d23c
000000f0: ba06 8abb bc9f 26bc 3806 85bd e0b8 14bd
00000100: e7ef 3b3e b144 0a3d 0e2f ef3d cb3a af3d
00000110: c67b 4e3d 65f6 f93e 9800 c23d fe93 9bbe
00000120: 2d1c 133f a7f8 9d3d 9929 7340 7d28 ebbc
00000130: ade7 76c0 4fa3 a83d dc80 3f3e db82 943e
00000140: 5263 8cbd abcb 963d 4260 c93d ae99 a93f
00000150: bfca d6bd 5695 1e40 b5da 29be 00ee 883f
00000160: 888d 393e f189 313e 9653 71be 46a2 1f3e
00000170: 8585 44bd f1ba f83c e34b cc3d 3b27 adbc

network.4.bias f4 [3]
9.316197 9.154632 9.226337
00000000: 250f 1541 5f79 1241 149f 1341

network.0.weight f4 [64, 6]
-2.4954088 -2.8738031 -0.10894228 -0.2721774 0.08501512 -0.3808784 0.2499714 0.02072094
0.01672489 0.14930117 -0.10577404 -0.16840713 0.17513299 0.14234093 -0.24410564 -0.007001087
0.12565336 -0.26675755 -0.665411 -0.11003658 0.21019103 0.10887608 -0.22286278 0.064017445
-2.578092 -5.205155 -0.5296597 -2.1204643 -0.45859918 -0.61654526 -0.67034674 -0.43007568
0.22146125 -0.10278006 0.02500965 -0.33558342 -0.04054483 -0.74684346 -0.053728778 -0.11869893
0.04034348 -0.7867523 -0.6385181 -0.8460242 0.21071391 -0.057122618 -0.24447215 -0.39195555
-0.35496497 0.038459916 -0.08688177 0.0335792 0.2051083 -0.22018631 -0.8181329 -0.85647476
-0.10155048 -0.039614476 -0.10171561 -0.086304285 0.112957016 -0.42473975 0.20718615 -0.20414662
-0.029336205 -0.4596482 -0.0042173276 0.11727314 -0.041272245 0.07050664 0.06912135 0.12375388
-0.46053973 -0.031293526 -0.107637875 -0.042338848 0.068127215 -0.26980686 -0.030994456 -0.38792083
0.12183872 0.11829977 0.05177833 -0.4671692 -13.143789 -0.6280107 -0.85319155 -1.8359555
-0.74041295 0.75192446 -8.263616 -0.5456524 -0.34212205 -1.7838646 -0.33673733 0.080193736
0.10038913 -0.03134841 0.10277805 0.056420643 -0.21341337 0.12825567 -0.23836094 -0.6747125
0.24545655 0.01125428 0.082957216 -0.50857544 -4.459443 1.2957103 -0.019622529 -0.15464945
0.07172806 -1.2975112 -0.9843797 -0.29996377 -0.0838133 -0.08575115 0.12620647 -0.3033063
-0.7681146 -0.49323007 0.1191993 -0.09923165 0.39926544 -0.87584996 -0.30481648 0.39440265
0.08626555 0.023830522 -0.20053998 -0.4074568 -0.50753474 -0.1693629 0.0868746 -0.0993694
0.08357992 -0.64409345 -0.4025429 0.33541632 0.107354015 0.07359943 -0.15007712 -0.22934185
-0.29795983 0.07461424 0.16815276 -0.1051388 0.100600235 -0.47993624 -6.0181146 2.3355105
0.34763506 -2.876659 0.36558816 -0.5671523 -1.0322621 -0.513671 0.020960415 -0.08806066
0.20734319 -0.9608954 0.1433031 -0.051661063 0.12149429 0.05939995 -0.098019145 -0.5006587
0.015618991 -0.045207046 -0.11660648 0.1026173 0.29264262 -0.0005932767 -0.065120675 -0.11466425
-0.052543733 0.09381986 -0.08693477 -0.40765142 -8.548709 0.32829517 -0.32999232 -2.625971
-0.10109391 1.4992988 -0.16090254 -0.46255916 0.03752303 -0.058241487 0.27945268 -0.27353418
0.31139183 -0.49547052 -0.103213556 -0.10215574 0.2391029 -0.3230187 -0.066703774 0.08552445
0.25850525 0.041148767 -0.2473686 -0.174586 -0.33972293 -0.19920117 0.136712 0.07636683
0.12912403 -0.50897604 0.051008496 -0.03372758 0.21151528 0.018406065 -0.33150274 -0.0125710005
-0.5922215 -0.53135914 -0.025043117 0.2058027 0.09597686 -0.12712371 -0.3494626 0.046572022
-0.3434231 -0.012641417 0.26844835 -0.17260933 -0.04678803 -0.06861979 0.23503044 0.14140087
-0.28220627 -0.2161646 0.030351073 -0.8169147 0.36708274 -0.044764005 -0.06891824 -0.56517524
-0.22880018 -1.0308592 -0.20323454 -0.07256646 0.24706298 -0.49817914 -0.4258416 -0.4912484
-0.10619684 0.025714729 0.25572857 -0.37361684 -0.67536885 -0.8767614 0.052982584 -0.1264185
00000000: c7b4 1fc0 64ec 37c0 211d dfbd d65a 8bbe
00000010: 681c ae3d 7e02 c3be 81f8 7f3e f6be a93c
00000020: a302 893c 68e2 183e 0fa0 d8bd eb72 2cbe
00000030: 1056 333e d2c1 113e d4f6 79be 6069 e5bb
00000040: 46ab 003e 7294 88be 6058 2abf dc5a e1bd
00000050: 513c 573e 6cfa de3d 2436 64be 941b 833d
00000060: 76ff 24c0 a190 a6c0 c797 07bf b0b5 07c0
00000070: 83cd eabe e9d5 1dbf d89b 2bbf e132 dcbe
00000080: bdc6 623e 5a7e d2bd 0ae1 cc3c 97d1 abbe
00000090: 5612 26bd 2231 3fbf b512 5cbd 6d18 f3bd
000000a0: 343f 253d 9968 49bf ec75 23bf 0b95 58bf
000000b0: 63c5 573e 68f9 69bd e856 7abe 66ae c8be
000000c0: f8bd b5be 2588 1d3d 12ef b1bd 588a 093d
000000d0: e907 523e 8578 61be 2871 51bf ee41 5bbf
000000e0: b3f9 cfbd ca42 22bd 4650 d0bd 4dc0 b0bd
000000f0: 0256 e73d 7d77 d9be 9b28 543e d00b 51be
00000100: 7b52 f0bc 0257 ebbe 8231 8abb e62c f03d
00000110: 160d 29bd c965 903d 7f8f 8d3d ad72 fd3d
00000120: ddcb ebbe a42d 00bd 3f71 dcbd 806b 2dbd
00000130: 4886 8b3d 2024 8abe 16e8 fdbc 8f9d c6be
00000140: 9486 f93d 2647 f23d 8415 543d cd30 efbe
00000150: f64c 52c1 4fc5 20bf c36a 5abf 9700 ebbf
00000160: b48b 3dbf 1f7e 403f c537 04c1 e0af 0bbf
00000170: 9f2a afbe ad55 e4bf d668 acbe 9d3c a43d
00000180: d198 cd3d 3167 00bd 4c7d d23d 5519 673d
00000190: 0989 5abe 7455 033e e414 74be f5b9 2cbf
000001a0: f658 7b3e df63 383c 79e5 a93d 0032 02bf
000001b0: c2b3 8ec0 d6d9 a53f 6dbf a0bc 6d5c 1ebe
000001c0: 29e6 923d d914 a6bf 4f00 7cbf da94 99be
000001d0: 4fa6 abbd 4d9e afbd 453c 013e f74a 9bbe
000001e0: 29a3 44bf a788 fcbe c31e f43d f739 cbbd
000001f0: 856c cc3e b437 60bf e810 9cbe 25ef c93e
00000200: feab b03d 3a38 c33c 5a5a 4dbe 2d9e d0be
00000210: cced 01bf 786d 2dbe 4feb b13d 2f82 cbbd
00000220: f32b ab3d 4fe3 24bf 1a1a cebe b0bb ab3e
00000230: 6cdc db3d 4cbb 963d d1ad 19be 97d8 6abe
00000240: 318e 98be 5acf 983d 3d30 2c3e 0353 d7bd
00000250: 7f07 ce3d 34ba f5be 6594 c0c0 0179 1540
00000260: 39fd b13e 2e1b 38c0 5f2e bb3e e530 11bf
00000270: 2a21 84bf f17f 03bf 2db5 ab3c 2659 b4bd
00000280: c651 543e 3efd 75bf 0cbe 123e 8d9a 53bd
00000290: 00d2 f83d 5d4d 733d 43be c8bd 2b2b 00bf
000002a0: cce6 7f3c 062b 39bd 61cf eebd 0529 d23d
000002b0: 41d5 953e 2086 1bba fd5d 85bd 17d5 eabd
000002c0: 1938 57bd a024 c03d db0a b2bd b0b7 d0be
000002d0: 83c7 08c1 4e16 a83e c1f4 a8be e90f 28c0
000002e0: 530a cfbd 06e9 bf3f a3c3 24be 8ed4 ecbe
000002f0: c0b1 193d a08e 6ebd 6c14 8f3e ac0c 8cbe
00000300: c06e 9f3e 50ae fdbe a161 d3bd 0737 d1bd
00000310: 64d7 743e b562 a5be fd9b 88bd 7127 af3d
00000320: cd5a 843e 9c8b 283d 324e 7dbe acc6 32be
00000330: 2af0 adbe 64fb 4bbe 3bfe 0b3e 3666 9c3d
00000340: 1739 043e 414c 02bf 49ee 503d ee25 0abd
00000350: 7697 583e 51c8 963c baba a9be 99f6 4dbc
00000360: d49b 17bf 2707 08bf 3927 cdbc f1bd 523e
00000370: 848f c43d b82c 02be c3ec b2be 4ec2 3e3d
00000380: 27d5 afbe f21d 4fbc 1072 893e 80c0 30be
00000390: cea4 3fbd 8888 8cbd d2ab 703e 64cb 103e
000003a0: 577d 90be 415a 5dbe d0a2 f83c 5221 51bf
000003b0: 45f2 bb3e 765a 37bd 0225 8dbd 53af 10bf
000003c0: 984a 6abe 32f3 83bf b71c 50be b99d 94bd
000003d0: 14fe 7c3e 5611 ffbe e907 dabe e984 fbbe
000003e0: bb7d d9bd b2a7 d23c dbee 823e b54a bfbe
000003f0: f9e4 2cbf 6f73 60bf 4404 593d da73 01be

network.0.bias f4 [64]
-0.4374805 -0.60209996 -0.38203627 -0.4780016 -0.42085388 -0.34645262 -0.88557535 -0.45833954
0.03534479 -0.7645624 -0.48121604 -0.5110005 -0.086431086 -0.12120865 0.81981283 0.5871185
-0.42842478 -0.7381799 -1.2301823 -0.6586013 -0.2658757 -0.18150252 -0.40378976 -0.27748463
-0.34992567 -0.79561746 -0.27721527 -0.20036395 -0.65378886 -0.2349727 1.3580246 -0.28910992
-0.1570901 -0.4551917 -0.1912034 -0.32195106 -0.3461539 -0.38224977 -0.34304395 -0.43072143
-0.72245675 -0.09181371 -0.56176454 -0.7031872 -0.23981093 1.2412127 -0.7264198 -0.22966707
-0.30559057 -0.64497274 -0.09865116 -0.3489479 -0.40289333 -0.32304466 -0.14006115 -0.40295166
-0.099340424 -0.4180724 -0.18934685 -0.46192712 -0.6297718 -0.11896633 -0.8464935 -0.5127665
00000000: 72fd dfbe 3923 1abf 429a c3be a0bc f4be
00000010: 297a d7be 3d62 b1be 11b5 62bf 7bab eabe
00000020: b3c5 103d 5dba 43bf f361 f6be eed0 02bf
00000030: c802 b1bd 3e3c f8bd 41df 513f 664d 163f
00000040: 7e5a dbbe 5cf9 3cbf 9d76 9dbf 189a 28bf
00000050: dc20 88be ccdb 39be 88bd cebe 7712 8ebe
00000060: 7529 b3be 96ad 4bbf 29ef 8dbe 352c 4dbe
00000070: b55e 27bf af9c 70be c0d3 ad3f 3706 94be
00000080: 3adc 20be e30e e9be d3ca 43be c5d6 a4be
00000090: 153b b1be 3eb6 c3be 75a3 afbe 8587 dcbe
000000a0: edf2 38bf d408 bcbd cdcf 0fbf 1404 34bf
000000b0: ff90 75be 0fe0 9e3f a6f6 39bf d82d 6bbe
000000c0: 5e76 9cbe ef1c 25bf 9f09 cabd 4da9 b2be
000000d0: 0948 cebe 1c66 a5be 316c 0fbe ae4f cebe
000000e0: fe72 cbbd 960d d6be 24e4 41be b681 ecbe
000000f0: ba38 21bf 9fa4 f3bd ccb3 58bf aa44 03bf

network.2.weight f4 [32, 64]
-0.22526555 0.004673311 -0.073710576 -0.09060293 -0.12288103 0.0578816 -0.13222247 -0.11279717
0.055354908 -0.05747512 -0.01810781 0.068268925 -0.039503235 0.034825634 -0.17633116 -0.27113578
0.0033497268 0.043968216 -0.36951336 0.011485258 0.1984763 -0.08876881 -0.14845823 0.0095579475
0.08709186 0.067830056 0.2631397 0.018400058 -0.04388213 -0.022319704 -0.26331982 0.037708476
-0.09133926 -0.037108675 -0.03885443 0.030761823 -0.03510633 0.013406083 0.052067995 -0.16697554
-0.1823829 0.09157543 -0.16155753 -0.05959271 -0.09885265 -0.1656211 0.1371253 -0.052799262
-0.07164317 -0.017183872 -0.3509573 0.00036741572 0.015752092 -0.060407355 -0.120744914 -0.06383644
0.030142099 0.031501457 0.003594786 -0.054660678 -0.098016016 -0.108139366 -0.05944262 -0.20617269
-0.06886198 -0.12023791 0.08033693 -0.15134025 -0.17668344 -0.13026294 0.11252325 -0.074377246
-0.04499753 0.02658759 0.044646908 0.02397593 -0.07465392 -0.0985353 -0.3783198 0.048525356
-0.17095049 -0.05596484 0.032414045 0.030356051 -0.15867563 -0.00092591345 -0.01631366 0.0659858
0.04345351 -0.08984301 0.058042184 0.03136996 -0.08062182 -0.01841771 -0.09727917 -0.09180935
-0.16617279 0.09147011 0.035182662 -0.123119846 0.05565655 -0.11846191 -0.0870339 -0.032091606
-0.12373274 -0.07840739 -0.13928309 -0.07413556 -0.050604332 -0.17511669 -0.015786104 -0.021596758
0.033141673 0.061269496 -0.2787199 0.02257934 0.1177104 -0.16206852 -0.12030621 0.033076003
0.042941518 0.16874988 0.023554062 -0.103967465 -0.17139374 -0.0049834154 0.05087571 -0.08367654
-0.10026777 -0.0629269 -0.057889044 0.11126043 -0.066998646 -0.115102105 -0.20960724 -0.0055713803
0.09283498 0.008043602 -0.08180401 -0.123650394 -0.11141075 0.09340304 -0.19899599 -0.2549857
0.11976209 -0.0027083124 0.021522895 -0.044202104 -0.04620961 -0.03463149 -0.09238906 -0.07182206
-0.13927647 -0.10089134 0.043792382 -0.13133445 -0.0037486106 -0.014293946 -0.01071125 -0.06740315
-0.016957492 -0.012915954 -0.010008872 0.012210637 0.014709234 -0.039543584 -0.120428264 -0.010076284
-0.23804313 0.033358566 -0.2155698 0.052198686 -0.06615763 -0.079059646 -0.0878479 -0.4136531
-0.033629403 -0.008874944 0.016535938 -0.10812508 -0.09929085 0.05247788 -0.10150963 0.027459368
-0.19874704 -0.08341487 0.11443919 -0.034450702 -0.053149834 -0.03864862 -0.054031238 0.016253853
-0.08234476 0.011105812 -0.04917504 -0.0553283 -0.046907723 -0.15835103 -0.09374808 -0.023413286
-0.031004652 -0.033172738 0.055608876 -0.025300428 -0.047705382 -0.11613417 -0.12676835 -0.1329373
-0.105827905 0.037977353 -0.23005497 0.024649162 -0.03518255 0.0385637 -0.020514363 -0.05173032
-0.118016854 -0.32226104 -0.0893497 0.10976261 -0.11677845 -0.12362024 0.053600214 -0.052125156
-0.15236744 -0.05740547 -0.017661681 -0.0063211024 0.0122468285 -0.041996032 -0.093057945 -0.1338065
-0.16429114 0.04675658 -0.15640493 0.08477524 -0.13072623 0.01113885 -0.06653174 -0.23455802
-0.08863106 -0.2529391 -0.2707111 0.0034428658 -0.026561514 -0.23883674 -0.060097396 0.03160736
0.11711149 -0.045699403 -0.109004214 0.0011413696 -0.09324696 -0.041511577 0.00852715 -0.2263086
00000000: 03ac 66be 9322 993b 92f5 96bd 078e b9bd
00000010: 0da9 fbbd 4215 6d3d 5465 07be 3402 e7bd
00000020: d4bb 623d 086b 6bbd d456 94bc 94d0 8b3d
00000030: 25ce 21bd 53a5 0e3d 2890 34be 4fd2 8abe
00000040: 1787 5b3b 0418 343d db30 bdbe aa2c 3c3c
00000050: 5f3d 4b3e 6ccc b5bd 6f05 18be f098 1c3c
00000060: 385d b23d 7cea 8a3d 3fba 863e b8bb 963c
00000070: c0bd 33bd d0d7 b6bc dbd1 86be 3474 1a3d
00000080: 1410 bbbd 44ff 17bd d325 1fbd 3800 fc3c
00000090: a8cb 0fbd 30a5 5b3c 4045 553d a3fb 2abe
000000a0: 95c2 3abe e68b bb3d 566f 25be 7c17 74bd
000000b0: 4273 cabd 9498 29be 936a 0c3e 0a44 58bd
000000c0: a8b9 92bd 31c5 8cbc adb0 b3be b4a1 c039
000000d0: 880a 813c b46d 77bd 1c49 f7bd aebc 82bd
000000e0: 90ec f63c ac07 013d 8096 6b3b e0e3 5fbd
000000f0: 9fbc c8bd 2c78 ddbd 1b7a 73bd ef1e 53be
00000100: 8307 8dbd 4b3f f6bd b087 a43d f0f8 1abe
00000110: 81ec 34be a663 05be 9772 e63d 1953 98bd
00000120: 544f 38bd 38ce d93c addf 363d 2b69 c43c
00000130: 28e4 98bd e0cc c9bd 22b3 c1be 86c2 463d
00000140: a50d 2fbe 633b 65bd 97c4 043d 41ad f83c
00000150: dd7b 22be 00b9 72ba 3aa4 85bc 9023 873d
00000160: 4ffc 313d 9dff b7bd a4bd 6d3d ca7d 003d
00000170: 0e1d a5bd bde0 96bc 4d3a c7bd 8a06 bcbd
00000180: 3329 2abe ae54 bb3d b21b 103d 4226 fcbd
00000190: 1ff8 633d 289c f2bd d43e b2bd 7d72 03bd
000001a0: 9767 fdbd 0e94 a0bd 3aa0 0ebe 62d4 97bd
000001b0: 7d46 4fbd ca51 33be dc51 81bc afeb b0bc
000001c0: 90bf 073d b9f5 7a3d 60b4 8ebe 4ff8 b83c
000001d0: 2612 f13d 4af5 25be 1a63 f6bd b47a 073d
000001e0: 72e3 2f3d c5cc 2c3e 73f4 c03c e5ec d4bd
000001f0: d781 2fbe eb4b a3bb 0c63 503d 9b5e abbd
00000200: 3059 cdbd d2df 80bd 101d 6dbd 82dc e33d
00000210: 9636 89bd a7ba ebbd 48a3 56be 2090 b6bb
00000220: 4420 be3d 50c9 033c dc88 a7bd 6b3c fdbd
00000230: 522b e4bd 184a bf3d 9bc5 4bbe 7c8d 82be
00000240: d445 f53d f17d 31bb c850 b03c 440d 35bd
00000250: 4a46 3dbd c0d9 0dbd 7a36 bdbd 7217 93bd
00000260: 7e9e 0ebe 1ea0 cebd a45f 333d 8a7c 06be
00000270: 40ab 75bb 2831 6abc 3d7e 2fbc aa0a 8abd
00000280: 70ea 8abc 709d 53bc 40fc 23bc 200f 483c
00000290: 00ff 703c 74f8 21bd 18a3 f6bd 0017 25bc
000002a0: 94c1 73be fea2 083d 54be 5cbe 4ace 553d
000002b0: a77d 87bd 06ea a1bd 9ae9 b3bd 57ca d3be
000002c0: fcbe 09bd 3768 11bc 6076 873c af70 ddbd
000002d0: 0059 cbbd 0cf3 563d 48e4 cfbd 78f2 e03c
000002e0: 5884 4bbe 6ad5 aabd 185f ea3d 2e1c 0dbd
000002f0: a4b3 59bd 044e 1ebd dc4f 5dbd cd26 853c
00000300: 5fa4 a8bd 27f5 353c c46b 49bd ed9f 62bd
00000310: 5022 40bd c626 22be fefe bfbd 38cd bfbc
00000320: 78fd fdbc 23e0 07bd 22c6 633d d842 cfbc
00000330: b866 43bd c0d7 edbd 90cf 01be b720 08be
00000340: 4dbc d8bd 248e 1b3d 8893 6bbe 0aed c93c
00000350: 941b 10bd f8f4 1d3d bd0d a8bc 2ce3 53bd
00000360: d2b2 f1bd 66ff a4be fafc b6bd 38cb e03d
00000370: 8a29 efbd 9c2c fdbd e68b 5b3d 3081 55bd
00000380: 3606 1cbe 0022 6bbd 3baf 90bc 4021 cfbb
00000390: eca6 483c 0804 2cbd 2a95 bebd 9204 09be
000003a0: f03b 28be d483 3f3d 9d28 20be a49e ad3d
000003b0: 19dd 05be b97f 363c cb41 88bd fa2f 70be
000003c0: 3484 b5bd 3c81 81be a59a 8abe b4a1 613b
000003d0: 8897 d9bc 9e91 74be b028 76bd b876 013d
000003e0: 26d8 ef3d 4c2f 3bbd 9a3d dfbd 029a 953a
000003f0: 43f8 bebd 0b08 2abd 76b5 0b3c 71bd 67be

network.2.bias f4 [32]
-0.2910929 -0.26580182 -0.57395416 -0.43152258 -0.037806988 -0.4388456 -0.5264422 -0.4029012
-0.3496379 -0.48972562 0.5719039 -0.45368883 2.0340722 -0.45501533 -0.5425435 -0.39212808
-0.44376984 -0.5151655 -0.45197755 1.2911495 -0.32310987 1.7731994 -0.1511692 3.019846
-0.31760302 -0.46193507 -0.43803576 -0.32194695 -0.18641788 -0.06746545 -0.16050795 -0.30480418
00000000: 210a 95be 2d17 88be a9ee 12bf 87f0 dcbe
00000010: 80db 1abd 5fb0 e0be ebc4 06bf 1149 cebe
00000020: bd03 b3be 51bd fabe 4b68 123f e749 e8be
00000030: 3d2e 0240 c5f7 e8be 21e4 0abf 03c5 c8be
00000040: cd35 e3be e3e1 03bf 9a69 e7be 6344 a53f
00000050: a86e a5be 33f8 e23f 19cc 1abe 2845 4140
00000060: dd9c a2be c182 ecbe 3946 e0be 3bd6 a4be
00000070: 54e4 3ebe 532b 8abd 325c 24be 4b0f 9cbe

network.4.weight f4 [3, 32]
0.14747506 -0.0019538933 -0.26986116 0.28654936 0.019921722 -0.1502647 0.14071146 -0.05160608
-0.27925563 -0.16892661 3.9079845 0.25542614 -4.0121436 0.17553672 0.10003089 0.052102912
-0.28516963 -0.26359612 0.025400845 1.443034 -0.0784869 2.2718084 0.06855386 1.115257
-0.13477945 0.18078668 0.0073143956 0.029208817 -0.028630609 0.09582927 0.19932164 -0.006894018
-0.007440058 -0.014070381 -0.09458961 -0.013397974 -0.028948005 0.4540657 0.27025324 0.19367418
-0.51296514 -0.014636698 3.982082 0.10667761 -4.109611 0.037759356 0.1594426 0.084908776
0.045901056 0.4390726 -0.293953 1.4795505 0.31842852 2.4331796 -0.030409383 1.1124972
-0.012912032 0.011348516 -0.10530626 0.02570091 -0.0042122276 -0.01016992 -0.06495327 -0.036309123
0.18353234 0.033756915 0.11678897 0.08556136 0.05041101 0.48820797 0.094727695 -0.30386347
0.5746487 0.07713442 3.7008157 -0.02870583 -3.8928628 0.08234274 0.187015 0.29006085
-0.06854881 0.07363065 0.09832813 1.3408017 -0.104878895 2.48053 -0.16587336 1.0444616
0.18120396 0.17337777 -0.23567042 0.15589246 -0.047978897 0.030362578 0.09975412 -0.02113687
00000000: b403 173e e40c 00bb 3e2b 8abe 99b6 923e
00000010: e132 a33c fdde 19be aa16 103e e660 53bd
00000020: 98fa 8ebe 19fb 2cbe 6b1c 7a40 37c7 823e
00000030: 7b63 80c0 e6bf 333e ffdc cc3d dd69 553d
00000040: c101 92be 12f6 86be 6f15 d03c 57b5 b83f
00000050: bdbd a0bd 4f65 1140 f765 8c3d bec0 8e3f
00000060: a003 0abe 2520 393e 99ad ef3b 5447 ef3c
00000070: bd8a eabc 2342 c43d f91a 4c3e 37e7 e1bb
00000080: bbcb f3bb 7587 66bc 33b8 c1bd 2d83 5bbc
00000090: 5e24 edbc 4d7b e83e a25e 8a3e 8652 463e
000000a0: af51 03bf c3ce 6fbc 6eda 7e40 ca79 da3d
000000b0: ef81 83c0 8ea9 1a3d ec44 233e a7e4 ad3d
000000c0: bf02 3c3d 20ce e03e 0281 96be e961 bd3f
000000d0: 1009 a33e 37b9 1b40 191d f9bc 4f66 8e3f
000000e0: fd8c 53bc 20ef 393c cfaa d7bd b78a d23c
000000f0: ba06 8abb bc9f 26bc 3806 85bd e0b8 14bd
00000100: e7ef 3b3e b144 0a3d 0e2f ef3d cb3a af3d
00000110: c67b 4e3d 65f6 f93e 9800 c23d fe93 9bbe
00000120: 2d1c 133f a7f8 9d3d 2ada 6c40 7d28 ebbc
00000130: aa24 79c0 4fa3 a83d dc80 3f3e db82 943e
00000140: 5263 8cbd abcb 963d 4260 c93d 649f ab3f
00000150: bfca d6bd 01c1 1e40 b5da 29be ebb0 853f
00000160: 888d 393e f189 313e 9653 71be 46a2 1f3e
00000170: 8585 44bd f1ba f83c e34b cc3d 3b27 adbc

network.4.bias f4 [3]
9.299518 9.151334 9.207312
00000000: d3ca 1441 dd6b 1241 2651 1341

exp_avg f4 [64, 6]
6e-45 6e-45 -6e-45 -6e-45 -6e-45 6e-45 6e-45 6e-45
-6e-45 6e-45 -6e-45 6e-45 0.0 0.0 0.0 0.0
0.0 0.0 6e-45 6e-45 6e-45 6e-45 6e-45 6e-45
-0.0011682842 -7.937484e-05 -0.010606999 -0.01113683 -0.0063642026 0.0043002823 6e-45 6e-45
6e-45 -6e-45 6e-45 6e-45 -6e-45 6e-45 6e-45 6e-45
6e-45 6e-45 6e-45 6e-45 -6e-45 6e-45 -6e-45 6e-45
0.0 0.0 0.0 0.0 0.0 0.0 6e-45 6e-45
-6e-45 -6e-45 -6e-45 6e-45 6e-45 6e-45 6e-45 -6e-45
6e-45 6e-45 6e-45 6e-45 -6e-45 6e-45 -6e-45 6e-45
6e-45 6e-45 6e-45 -6e-45 6e-45 6e-45 6e-45 6e-45
6e-45 6e-45 6e-45 6e-45 -0.012256373 -0.011799347 -0.47460622 0.5396137
-0.28476375 0.19067478 -0.004752744 -0.0080836825 -0.028818777 0.032828987 -0.017291268 -0.023570178
6e-45 6e-45 6e-45 6e-45 6e-45 6e-45 6e-45 6e-45
-6e-45 6e-45 -6e-45 6e-45 6e-45 6e-45 -6e-45 6e-45
-6e-45 6e-45 6e-45 6e-45 -6e-45 -6e-45 -6e-45 6e-45
6e-45 6e-45 -6e-45 6e-45 -6e-45 6e-45 0.0 0.0
0.0 0.0 0.0 0.0 6e-45 6e-45 6e-45 -6e-45
6e-45 6e-45 6e-45 6e-45 -6e-45 6e-45 -6e-45 6e-45
6e-45 6e-45 -6e-45 6e-45 -6e-45 6e-45 -0.017249702 0.002642715
-0.21714754 -0.088188656 -0.13028851 0.055315524 6e-45 6e-45 6e-45 -6e-45
6e-45 6e-45 6e-45 6e-45 -6e-45 -6e-45 -6e-45 6e-45
6e-45 6e-45 6e-45 6e-45 6e-45 6e-45 6e-45 6e-45
-6e-45 -6e-45 -6e-45 6e-45 -0.52087635 -0.48056617 0.92360437 0.8976807
0.55416256 -0.611337 -6e-45 6e-45 6e-45 6e-45 6e-45 6e-45
6e-45 6e-45 6e-45 -6e-45 6e-45 6e-45 6e-45 6e-45
6e-45 6e-45 6e-45 6e-45 6e-45 6e-45 6e-45 6e-45
6e-45 6e-45 6e-45 6e-45 -6e-45 6e-45 -6e-45 6e-45
6e-45 6e-45 6e-45 6e-45 6e-45 6e-45 6e-45 6e-45
-6e-45 6e-45 -6e-45 6e-45 6e-45 6e-45 6e-45 6e-45
6e-45 6e-45 6e-45 6e-45 6e-45 -6e-45 6e-45 6e-45
6e-45 6e-45 6e-45 6e-45 6e-45 6e-45 6e-45 6e-45
-6e-45 6e-45 -6e-45 6e-45 6e-45 6e-45 6e-45 -6e-45
00000000: 0400 0000 0400 0000 0400 0080 0400 0080
00000010: 0400 0080 0400 0000 0400 0000 0400 0000
00000020: 0400 0080 0400 0000 0400 0080 0400 0000
00000030: 0000 0000 0000 0000 0000 0000 0000 0000
00000040: 0000 0000 0000 0000 0400 0000 0400 0000
00000050: 0400 0000 0400 0000 0400 0000 0400 0000
00000060: 1d21 99ba 0b76 a6b8 fac8 2dbc 4077 36bc
00000070: cd8a d0bb 62e9 8c3b 0400 0000 0400 0000
00000080: 0400 0000 0400 0080 0400 0000 0400 0000
00000090: 0400 0080 0400 0000 0400 0000 0400 0000
000000a0: 0400 0000 0400 0000 0400 0000 0400 0000
000000b0: 0400 0080 0400 0000 0400 0080 0400 0000
000000c0: 0000 0000 0000 0000 0000 0000 0000 0000
000000d0: 0000 0000 0000 0000 0400 0000 0400 0000
000000e0: 0400 0080 0400 0080 0400 0080 0400 0000
000000f0: 0400 0000 0400 0000 0400 0000 0400 0080
00000100: 0400 0000 0400 0000 0400 0000 0400 0000
00000110: 0400 0080 0400 0000 0400 0080 0400 0000
00000120: 0400 0000 0400 0000 0400 0000 0400 0080
00000130: 0400 0000 0400 0000 0400 0000 0400 0000
00000140: 0400 0000 0400 0000 0400 0000 0400 0000
00000150: f4ce 48bc 0c52 41bc 96ff f2be 2024 0a3f
00000160: 8ecc 91be 4040 433e e8bc 9bbb 6c71 04bc
00000170: 5b15 ecbc b077 063d 6ba6 8dbc 3f16 c1bc
00000180: 0400 0000 0400 0000 0400 0000 0400 0000
00000190: 0400 0000 0400 0000 0400 0000 0400 0000
000001a0: 0400 0080 0400 0000 0400 0080 0400 0000
000001b0: 0400 0000 0400 0000 0400 0080 0400 0000
000001c0: 0400 0080 0400 0000 0400 0000 0400 0000
000001d0: 0400 0080 0400 0080 0400 0080 0400 0000
000001e0: 0400 0000 0400 0000 0400 0080 0400 0000
000001f0: 0400 0080 0400 0000 0000 0000 0000 0000
00000200: 0000 0000 0000 0000 0000 0000 0000 0000
00000210: 0400 0000 0400 0000 0400 0000 0400 0080
00000220: 0400 0000 0400 0000 0400 0000 0400 0000
00000230: 0400 0080 0400 0000 0400 0080 0400 0000
00000240: 0400 0000 0400 0000 0400 0080 0400 0000
00000250: 0400 0080 0400 0000 3f4f 8dbc 6631 2d3b
00000260: ed5b 5ebe 419c b4bd 5a6a 05be 8892 623d
00000270: 0400 0000 0400 0000 0400 0000 0400 0080
00000280: 0400 0000 0400 0000 0400 0000 0400 0000
00000290: 0400 0080 0400 0080 0400 0080 0400 0000
000002a0: 0400 0000 0400 0000 0400 0000 0400 0000
000002b0: 0400 0000 0400 0000 0400 0000 0400 0000
000002c0: 0400 0080 0400 0080 0400 0080 0400 0000
000002d0: 2758 05bf c50c f6be 5671 6c3f 67ce 653f
000002e0: 99dd 0d3f 9580 1cbf 0400 0080 0400 0000
000002f0: 0400 0000 0400 0000 0400 0000 0400 0000
00000300: 0400 0000 0400 0000 0400 0000 0400 0080
00000310: 0400 0000 0400 0000 0400 0000 0400 0000
00000320: 0400 0000 0400 0000 0400 0000 0400 0000
00000330: 0400 0000 0400 0000 0400 0000 0400 0000
00000340: 0400 0000 0400 0000 0400 0000 0400 0000
00000350: 0400 0080 0400 0000 0400 0080 0400 0000
00000360: 0400 0000 0400 0000 0400 0000 0400 0000
00000370: 0400 0000 0400 0000 0400 0000 0400 0000
00000380: 0400 0080 0400 0000 0400 0080 0400 0000
00000390: 0400 0000 0400 0000 0400 0000 0400 0000
000003a0: 0400 0000 0400 0000 0400 0000 0400 0000
000003b0: 0400 0000 0400 0080 0400 0000 0400 0000
000003c0: 0400 0000 0400 0000 0400 0000 0400 0000
000003d0: 0400 0000 0400 0000 0400 0000 0400 0000
000003e0: 0400 0080 0400 0000 0400 0080 0400 0000
000003f0: 0400 0000 0400 0000 0400 0000 0400 0080

exp_avg_sq f4 [64, 6]
1.380408e-24 3.9444362e-25 1.5493019e-22 1.5492789e-22 5.5774864e-23 5.369965e-23 1.9088894e-36 9.5282825e-37
1.06394314e-35 9.181086e-36 3.8302225e-36 3.8997757e-36 0.0 0.0 0.0 0.0
0.0 0.0 1.0217296e-38 1.6134387e-38 2.584204e-37 2.584204e-37 9.302971e-38 8.113676e-38
0.011439207 0.00290267 0.13963772 0.14030139 0.05026968 0.04684618 7.371051e-30 5.7441767e-30
1.2160018e-28 1.2160018e-28 4.3776406e-29 4.6541746e-29 7.202969e-38 6.080161e-38 1.2818509e-32 1.2818509e-32
4.614698e-33 4.3930843e-33 3.852467e-38 4.3253187e-38 1.1795021e-36 1.1684333e-36 4.2461447e-37 5.017118e-37
0.0 0.0 0.0 0.0 0.0 0.0 6.597e-42 4.2308e-41
3.836017e-39 3.836017e-39 1.380963e-39 1.574947e-39 1.1552847e-38 2.4345134e-38 4.277763e-37 4.277763e-37
1.5399927e-37 1.2595482e-37 5.142e-40 7.89479e-40 2.0797625e-38 2.0797625e-38 7.487002e-39 7.812393e-39
3.520668e-38 9.251013e-38 1.6169741e-36 1.6410309e-36 5.8211064e-37 4.7591396e-37 8.278213e-39 1.3513357e-38
2.3132532e-37 2.3365374e-37 8.3276814e-38 6.907562e-38 0.007658375 0.009182534 2.3866918 2.2506769
0.8592089 0.9089216 0.003956828 0.0033181382 0.1396418 0.14334863 0.050270997 0.050155982
1.6787547e-38 4.862682e-38 8.138579e-37 8.253764e-37 2.9299176e-37 2.4218258e-37 1.9313997e-30 1.2973626e-30
1.2609984e-29 1.2609984e-29 4.5396433e-30 4.1661167e-30 2.9191293e-14 6.7541155e-12 7.312809e-11 7.312809e-11
2.6325999e-11 1.9847339e-11 2.4961907e-17 1.9243669e-17 1.1924411e-16 3.1789196e-17 4.2928027e-17 4.6937775e-17
5.4383214e-33 1.5743e-39 2.6829714e-30 2.6829714e-30 9.658677e-31 6.9696696e-31 0.0 0.0
0.0 0.0 0.0 0.0 1.8311985e-38 2.9020928e-38 5.5329003e-37 5.5329003e-37
1.99187e-37 1.6124118e-37 7e-43 7e-43 7e-43 7e-43 7e-43 7e-43
9.06647e-40 7.38362e-40 1.2425463e-38 1.2425463e-38 4.473163e-39 3.775185e-39 0.08081826 0.056879703
3.9513924 4.020955 1.4225019 1.4954203 7.726661e-34 2.6769661e-34 3.2940185e-31 3.2940185e-31
1.1858566e-31 8.5451486e-32 6.57481e-40 6.30752e-40 1.0642506e-38 1.0642506e-38 3.831306e-39 3.790428e-39
1.58637e-40 6.61864e-40 1.3570981e-38 1.3147754e-38 4.885528e-39 4.469339e-39 5.552237e-39 4.803137e-39
7.5867123e-38 7.339723e-38 2.7311898e-38 2.7406273e-38 2.9878983 2.6820805 9.718061 9.791462
3.4985037 4.017847 7e-43 1.7347e-41 2.80376e-40 2.80376e-40 1.00931e-40 8.2553e-41
5.0849086e-38 8.416462e-38 1.4285871e-36 1.4285871e-36 5.1429165e-37 4.2670363e-37 9.914e-42 6.18172e-40
1.0202655e-38 1.0202655e-38 3.672971e-39 3.004057e-39 9.054998e-38 1.5257712e-37 2.6148803e-36 2.6148803e-36
9.413633e-37 7.830484e-37 5.8748e-41 1.8515e-40 4.287395e-39 5.090294e-39 1.543442e-39 1.429153e-39
2.9057597e-38 4.7529735e-38 8.358631e-37 8.344197e-37 3.0091275e-37 2.4890962e-37 7e-43 7e-43
7e-43 7e-43 7e-43 7e-43 7e-43 6.0884e-41 1.006358e-39 1.006358e-39
3.62296e-40 2.96316e-40 1.1240405e-30 7.553541e-31 7.453317e-30 7.453317e-30 2.6832233e-30 2.4583742e-30
2.3932283e-33 2.1718516e-34 4.473191e-32 4.473191e-32 1.6103647e-32 1.3110888e-32 8.056e-42 4.5877e-41
8.73456e-40 8.73456e-40 3.14446e-40 3.10378e-40 4.5619007e-35 2.8891593e-35 5.482047e-34 5.7666245e-34
00000000: 989b d517 1626 f416 924c 3b1b dc4b 3b1b
00000010: f8da 861a 79d6 811a ee63 2204 861d a203
00000020: 9346 6205 9642 4305 6eeb a204 cce0 a504
00000030: 0000 0000 0000 0000 0000 0000 0000 0000
00000040: 0000 0000 0000 0000 aa41 6f00 1bb0 af00
00000050: 2fdf af02 2fdf af02 3f40 fd01 12e0 dc01
00000060: 836b 3b3c b93a 3e3b 31fd 0e3e 2bab 0f3e
00000070: 94e7 4d3d c8e1 3f3d af80 150f f102 e90e
00000080: 8425 1a11 8425 1a11 06f9 5d10 a4fe 6b10
00000090: 5e15 c401 8a84 a501 711d 850a 711d 850a
000000a0: e3af bf09 497b b609 8ebf 5101 257e 6b01
000000b0: 90ae c803 73cc c603 237d 1003 43b9 2a03
000000c0: 0000 0000 0000 0000 0000 0000 0000 0000
000000d0: 0000 0000 0000 0000 6412 0000 f075 0000
000000e0: 41c5 2900 41c5 2900 9009 0f00 5026 1100
000000f0: a3cc 7d00 2a8c 0401 9290 1103 9290 1103
00000100: ea9c 5102 d970 2b02 6199 0500 bf98 0800
00000110: 5177 e200 5177 e200 b786 5100 c611 5500
00000120: f3ae 3f01 27d6 fb01 948e 0904 7d9a 0b04
00000130: fd14 4603 f4f1 2103 4a24 5a00 be25 9300
00000140: 8e6e 9d02 3904 9f02 78b3 e201 ae0a bc01
00000150: 1bf3 fa3b 5772 163c 8fbf 1840 170b 1040
00000160: 1df5 5b3f 16af 683f 47a8 813b 1f75 593b
00000170: 43fe 0e3e fcc9 123e f6e8 4d3d 5c70 4d3d
00000180: dacc b600 f35f 8401 8378 8a03 366e 8c03
00000190: 5d66 c702 28d2 a402 9ab1 1c0e 5682 d20d
000001a0: c8c2 7f0f c8c2 7f0f 5a26 b80e 6eff a80e
000001b0: 4577 0329 aaa3 ed2c 74cf a02e 74cf a02e
000001c0: e190 e72d 3c94 ae2d a33b e623 d47d b123
000001d0: a67a 0925 0f9a 1224 78f8 4524 5876 5824
000001e0: 27e6 e109 8224 1100 23ab 590e 23ab 590e
000001f0: 93b8 9c0d c02d 620d 0000 0000 0000 0000
00000200: 0000 0000 0000 0000 0000 0000 0000 0000
00000210: 5d66 c700 4501 1e01 5c46 3c03 5c46 3c03
00000220: 458f 8702 5a78 5b02 f401 0000 f401 0000
00000230: f401 0000 f401 0000 f401 0000 f401 0000
00000240: 5ddf 0900 410a 0800 234d 8700 234d 8700
00000250: 5cb5 3000 ae1b 2900 0b84 a53d b1fa 683d
00000260: 9de3 7c40 aaab 8040 8b14 b63f ef69 bf3f
00000270: 9561 8008 38ea b107 45cb d50c 45cb d50c
00000280: d8ee 190c 41d8 dd0b ca28 0700 48de 0600
00000290: fae2 7300 fae2 7300 1fb8 2900 2c46 2900
000002a0: 37ba 0100 0235 0700 60c6 9300 972a 8f00
000002b0: dd32 3500 b3aa 3000 6175 3c00 314d 3400
000002c0: ab87 ce01 67ce c701 3bb3 1401 c536 1501
000002d0: ba39 3f40 35a7 2b40 2e7d 1b41 d4a9 1c41
000002e0: 7ce7 5f40 3492 8040 f401 0000 5b30 0000
000002f0: 930d 0300 930d 0300 5b19 0100 20e6 0000
00000300: a46c 8a01 2e1e e501 be0f f303 be0f f303
00000310: 1f01 2f03 2133 1103 a31b 0000 36bb 0600
00000320: da18 6f00 da18 6f00 c0fe 2700 17b6 2000
00000330: 2080 f601 5ead 4f02 0d73 5e04 0d73 5e04
00000340: 282a a003 913a 8503 c4a3 0000 1f04 0200
00000350: 83af 2e00 ab6d 3700 7dce 1000 e68f 0f00
00000360: 6134 1e01 6463 8101 f936 8e03 1bf8 8d03
00000370: 65ca cc02 2c66 a902 f401 0000 f401 0000
00000380: f401 0000 f401 0000 f401 0000 f401 0000
00000390: f401 0000 b8a9 0000 51f5 0a00 51f5 0a00
000003a0: eff1 0300 023a 0300 d162 b60d 5d20 750d
000003b0: d62b 170f d62b 170f 5eb0 590e 6f72 470e
000003c0: 56d2 4609 2458 9007 e842 680b e842 680b
000003d0: d63a a70a b826 880a 7516 0000 e37f 0000
000003e0: d782 0900 d782 0900 8c6c 0300 3561 0300
000003f0: 608d 7206 339d 1906 192c 3608 04a1 3f08

exp_avg f4 [64]
6e-45 6e-45 0.0 6e-45 0.0043002837 6e-45 6e-45 6e-45
0.0 6e-45 6e-45 6e-45 6e-45 6e-45 0.19067478 -0.023570172
6e-45 6e-45 6e-45 6e-45 6e-45 0.0 6e-45 6e-45
6e-45 0.055315524 6e-45 6e-45 6e-45 6e-45 -0.61133707 6e-45
6e-45 6e-45 6e-45 6e-45 6e-45 6e-45 6e-45 6e-45
6e-45 6e-45 6e-45 6e-45 6e-45 -0.5197866 6e-45 0.0023320129
6e-45 6e-45 -0.052036304 6e-45 6e-45 6e-45 6e-45 6e-45
6e-45 6e-45 6e-45 6e-45 6e-45 6e-45 6e-45 6e-45
00000000: 0400 0000 0400 0000 0000 0000 0400 0000
00000010: 65e9 8c3b 0400 0000 0400 0000 0400 0000
00000020: 0000 0000 0400 0000 0400 0000 0400 0000
00000030: 0400 0000 0400 0000 4040 433e 3c16 c1bc
00000040: 0400 0000 0400 0000 0400 0000 0400 0000
00000050: 0400 0000 0000 0000 0400 0000 0400 0000
00000060: 0400 0000 8892 623d 0400 0000 0400 0000
00000070: 0400 0000 0400 0000 9680 1cbf 0400 0000
00000080: 0400 0000 0400 0000 0400 0000 0400 0000
00000090: 0400 0000 0400 0000 0400 0000 0400 0000
000000a0: 0400 0000 0400 0000 0400 0000 0400 0000
000000b0: 0400 0000 bc10 05bf 0400 0000 afd4 183b
000000c0: 0400 0000 0400 0000 0524 55bd 0400 0000
000000d0: 0400 0000 0400 0000 0400 0000 0400 0000
000000e0: 0400 0000 0400 0000 0400 0000 0400 0000
000000f0: 0400 0000 0400 0000 0400 0000 0400 0000

exp_avg_sq f4 [64]
5.369965e-23 3.8997757e-36 0.0 8.113676e-38 0.04684618 4.6541746e-29 4.3930843e-33 5.017118e-37
0.0 1.574947e-39 1.2595482e-37 7.812393e-39 4.7591396e-37 6.907562e-38 0.90892166 0.050155982
2.4218258e-37 4.1661167e-30 1.9847339e-11 4.6937775e-17 6.9696696e-31 0.0 1.6124118e-37 7e-43
3.775185e-39 1.4954203 8.5451486e-32 3.790428e-39 4.469339e-39 2.7406273e-38 4.017847 8.2553e-41
4.2670363e-37 3.004057e-39 7.830484e-37 1.429153e-39 2.4890962e-37 7e-43 2.96316e-40 2.4583742e-30
1.3110888e-32 3.10378e-40 1.995718e-34 1.846478e-39 5.238455e-36 15.674004 2.0492338e-36 0.16304523
9.6323e-40 8.68072e-37 0.6579823 1.8876703e-31 2.904048e-39 3.028968e-30 3.1756912e-38 7.227176e-39
1.797793e-39 7.099467e-39 2.2362128e-38 5.159187e-27 1.761111e-30 3.0754773e-37 7.0698885e-35 9.507424e-37
00000000: 79d6 811a cce0 a504 0000 0000 12e0 dc01
00000010: c8e1 3f3d a4fe 6b10 497b b609 43b9 2a03
00000020: 0000 0000 5026 1100 d970 2b02 c611 5500
00000030: f4f1 2103 ae0a bc01 17af 683f 5c70 4d3d
00000040: 28d2 a402 6eff a80e 3c94 ae2d 5876 5824
00000050: c02d 620d 0000 0000 5a78 5b02 f401 0000
00000060: ae1b 2900 ef69 bf3f 41d8 dd0b 2c46 2900
00000070: b3aa 3000 c536 1501 3492 8040 20e6 0000
00000080: 2133 1103 17b6 2000 913a 8503 e68f 0f00
00000090: 2c66 a902 f401 0000 023a 0300 6f72 470e
000000a0: b826 880a 3561 0300 62a3 8407 3b1b 1400
000000b0: b9d1 de04 b8c8 7a41 5c54 2e04 54f5 263e
000000c0: 187d 0a00 deb1 9303 8771 283f 9b08 750c
000000d0: 4e9f 1f00 34bd 750e ade6 2c01 6db2 4e00
000000e0: 8493 1300 6d4e 4d00 8480 f300 5f60 cc13
000000f0: d8e0 0e0e 5f4e d102 2bf3 bb06 acc2 a103
