models/paddle_dqn_model_checkpoint_40000.pth (torch, 52785 bytes, 24 tensors)

network.0.weight f4 [64, 6]
-2.4954088 -2.8738031 -0.10894228 -0.2721774 0.08501512 -0.3808784 0.2499714 0.02072094
0.01672489 0.14930117 -0.10577404 -0.16840713 0.17513299 0.14234093 -0.24410564 -0.007001087
0.12565336 -0.26675755 -0.665411 -0.11003658 0.21019103 0.10887608 -0.22286278 0.064017445
-2.8359106 -3.1129224 0.12157055 -1.92914 0.19262807 0.37046665 -0.67034674 -0.43007568
0.22146125 -0.10278006 0.02500965 -0.33558342 -0.04054483 -0.74684346 -0.053728778 -0.11869893
0.04034348 -0.7867523 -0.6385181 -0.8460242 0.21071391 -0.057122618 -0.24447215 -0.39195555
-0.35496497 0.038459916 -0.08688177 0.0335792 0.2051083 -0.22018631 -0.8181329 -0.85647476
-0.10155048 -0.039614476 -0.10171561 -0.086304285 0.112957016 -0.42473975 0.20718615 -0.20414662
-0.029336205 -0.4596482 -0.0042173276 0.11727314 -0.041272245 0.07050664 0.06912135 0.12375388
-0.46053973 -0.031293526 -0.107637875 -0.042338848 0.068127215 -0.26980686 -0.030994456 -0.38792083
0.12183872 0.11829977 0.05177833 -0.4671692 -10.153786 -2.2934508 -0.2724216 -1.8426025
-0.15964082 0.8678764 -6.4614854 -1.4397143 0.045523606 -1.7418773 0.050908398 0.6826729
0.10038913 -0.03134841 0.10277805 0.056420643 -0.21341337 0.12825567 -0.23836094 -0.6747125
0.24545655 0.01125428 0.082957216 -0.50857544 -3.8248243 1.9309111 -0.019607266 -0.15466474
0.07172947 -0.6622785 -0.9843797 -0.29996377 -0.0838133 -0.08575115 0.12620647 -0.3033063
-0.7681146 -0.49323007 0.1191993 -0.09923165 0.39926544 -0.87584996 -0.30481648 0.39440265
0.08626555 0.023830522 -0.20053998 -0.4074568 -0.50753474 -0.1693629 0.0868746 -0.0993694
0.08357992 -0.64409345 -0.4025429 0.33541632 0.107354015 0.07359943 -0.15007712 -0.22934185
-0.29795983 0.07461424 0.16815276 -0.1051388 0.100600235 -0.47993624 -5.188448 2.7014124
0.53056383 -2.0556076 0.54851717 -0.029798433 -1.0322621 -0.513671 0.020960415 -0.08806066
0.20734319 -0.9608954 0.1433031 -0.051661063 0.12149429 0.05939995 -0.098019145 -0.5006587
0.015618991 -0.045207046 -0.11660648 0.1026173 0.29264262 -0.0005932767 -0.065120675 -0.11466425
-0.052543733 0.09381986 -0.08693477 -0.40765142 -7.775212 2.195018 -0.55926716 -1.953948
-0.3303677 0.85355866 -0.16090254 -0.46255916 0.03752303 -0.058241487 0.27945268 -0.27353418
0.31139183 -0.49547052 -0.103213556 -0.10215574 0.2391029 -0.3230187 -0.066703774 0.08552445
0.25850525 0.041148767 -0.2473686 -0.174586 -0.33972293 -0.19920117 0.136712 0.07636683
0.12912403 -0.50897604 0.051008496 -0.03372758 0.21151528 0.018406065 -0.33150274 -0.0125710005
-0.5922215 -0.53135914 -0.025043117 0.2058027 0.09597686 -0.12712371 -0.3494626 0.046572022
-0.3434231 -0.012641417 0.26844835 -0.17260933 -0.04678803 -0.06861979 0.23503044 0.14140087
-0.28220627 -0.2161646 0.030351073 -0.8169147 0.36708274 -0.044764005 -0.06891824 -0.56517524
-0.22880018 -1.0308592 -0.20323454 -0.07256646 0.24706298 -0.49817914 -0.4258416 -0.4912484
-0.10619684 0.025714729 0.25572857 -0.37361684 -0.67536885 -0.8767614 0.052982584 -0.1264185
00000000: c7b4 1fc0 64ec 37c0 211d dfbd d65a 8bbe
00000010: 681c ae3d 7e02 c3be 81f8 7f3e f6be a93c
00000020: a302 893c 68e2 183e 0fa0 d8bd eb72 2cbe
00000030: 1056 333e d2c1 113e d4f6 79be 6069 e5bb
00000040: 46ab 003e 7294 88be 6058 2abf dc5a e1bd
00000050: 513c 573e 6cfa de3d 2436 64be 941b 833d
00000060: 8f7f 35c0 1f3a 47c0 fbf9 f83d 0fee f6bf
00000070: 4b40 453e cead bd3e d89b 2bbf e132 dcbe
00000080: bdc6 623e 5a7e d2bd 0ae1 cc3c 97d1 abbe
00000090: 5612 26bd 2231 3fbf b512 5cbd 6d18 f3bd
000000a0: 343f 253d 9968 49bf ec75 23bf 0b95 58bf
000000b0: 63c5 573e 68f9 69bd e856 7abe 66ae c8be
000000c0: f8bd b5be 2588 1d3d 12ef b1bd 588a 093d
000000d0: e907 523e 8578 61be 2871 51bf ee41 5bbf
000000e0: b3f9 cfbd ca42 22bd 4650 d0bd 4dc0 b0bd
000000f0: 0256 e73d 7d77 d9be 9b28 543e d00b 51be
00000100: 7b52 f0bc 0257 ebbe 8231 8abb e62c f03d
00000110: 160d 29bd c965 903d 7f8f 8d3d ad72 fd3d
00000120: ddcb ebbe a42d 00bd 3f71 dcbd 806b 2dbd
00000130: 4886 8b3d 2024 8abe 16e8 fdbc 8f9d c6be
00000140: 9486 f93d 2647 f23d 8415 543d cd30 efbe
00000150: e875 22c1 e6c7 12c0 d87a 8bbe 66da ebbf
00000160: e278 23be 262d 5e3f 7dc4 cec0 8f48 b8bf
00000170: f676 3a3d d6f5 debf 5385 503d a7c3 2e3f
00000180: d198 cd3d 3167 00bd 4c7d d23d 5519 673d
00000190: 0989 5abe 7455 033e e414 74be f5b9 2cbf
000001a0: f658 7b3e df63 383c 79e5 a93d 0032 02bf
000001b0: ecc9 74c0 1828 f73f 6b9f a0bc 6f60 1ebe
000001c0: e6e6 923d 158b 29bf 4f00 7cbf da94 99be
000001d0: 4fa6 abbd 4d9e afbd 453c 013e f74a 9bbe
000001e0: 29a3 44bf a788 fcbe c31e f43d f739 cbbd
000001f0: 856c cc3e b437 60bf e810 9cbe 25ef c93e
00000200: feab b03d 3a38 c33c 5a5a 4dbe 2d9e d0be
00000210: cced 01bf 786d 2dbe 4feb b13d 2f82 cbbd
00000220: f32b ab3d 4fe3 24bf 1a1a cebe b0bb ab3e
00000230: 6cdc db3d 4cbb 963d d1ad 19be 97d8 6abe
00000240: 318e 98be 5acf 983d 3d30 2c3e 0353 d7bd
00000250: 7f07 ce3d 34ba f5be c407 a6c0 f1e3 2c40
00000260: 08d3 073f 138f 03c0 9f6b 0c3f d81b f4bc
00000270: 2a21 84bf f17f 03bf 2db5 ab3c 2659 b4bd
00000280: c651 543e 3efd 75bf 0cbe 123e 8d9a 53bd
00000290: 00d2 f83d 5d4d 733d 43be c8bd 2b2b 00bf
000002a0: cce6 7f3c 062b 39bd 61cf eebd 0529 d23d
000002b0: 41d5 953e 2086 1bba fd5d 85bd 17d5 eabd
000002c0: 1938 57bd a024 c03d db0a b2bd b0b7 d0be
000002d0: 89ce f8c0 2d7b 0c40 222c 0fbf f81a fabf
000002e0: f525 a9be d282 5a3f a3c3 24be 8ed4 ecbe
000002f0: c0b1 193d a08e 6ebd 6c14 8f3e ac0c 8cbe
00000300: c06e 9f3e 50ae fdbe a161 d3bd 0737 d1bd
00000310: 64d7 743e b562 a5be fd9b 88bd 7127 af3d
00000320: cd5a 843e 9c8b 283d 324e 7dbe acc6 32be
00000330: 2af0 adbe 64fb 4bbe 3bfe 0b3e 3666 9c3d
00000340: 1739 043e 414c 02bf 49ee 503d ee25 0abd
00000350: 7697 583e 51c8 963c baba a9be 99f6 4dbc
00000360: d49b 17bf 2707 08bf 3927 cdbc f1bd 523e
00000370: 848f c43d b82c 02be c3ec b2be 4ec2 3e3d
00000380: 27d5 afbe f21d 4fbc 1072 893e 80c0 30be
00000390: cea4 3fbd 8888 8cbd d2ab 703e 64cb 103e
000003a0: 577d 90be 415a 5dbe d0a2 f83c 5221 51bf
000003b0: 45f2 bb3e 765a 37bd 0225 8dbd 53af 10bf
000003c0: 984a 6abe 32f3 83bf b71c 50be b99d 94bd
000003d0: 14fe 7c3e 5611 ffbe e907 dabe e984 fbbe
000003e0: bb7d d9bd b2a7 d23c dbee 823e b54a bfbe
000003f0: f9e4 2cbf 6f73 60bf 4404 593d da73 01be

network.0.bias f4 [64]
-0.4374805 -0.60209996 -0.38203627 -0.4780016 0.5661562 -0.34645262 -0.88557535 -0.45833954
0.03534479 -0.7645624 -0.48121604 -0.5110005 -0.086431086 -0.12120865 0.9357599 1.1895962
-0.42842478 -0.7381799 -0.5949496 -0.6586013 -0.2658757 -0.18150252 -0.40378976 -0.27748463
-0.34992567 -0.2582675 -0.27721527 -0.20036395 -0.65378886 -0.2349727 0.7122837 -0.28910992
-0.1570901 -0.4551917 -0.1912034 -0.32195106 -0.3461539 -0.38224977 -0.34304395 -0.43072143
-0.72245675 -0.09181371 -0.56176454 -0.7031872 -0.23981093 1.0629886 -0.7264198 0.3836279
-0.30559057 -0.64497274 -0.25325963 -0.3489479 -0.40289333 -0.32304466 -0.14006115 -0.40295166
-0.099340424 -0.4180724 -0.18934685 -0.46192712 -0.6297718 -0.11896633 -0.8464935 -0.5127665
00000000: 72fd dfbe 3923 1abf 429a c3be a0bc f4be
00000010: 9def 103f 3d62 b1be 11b5 62bf 7bab eabe
00000020: b3c5 103d 5dba 43bf f361 f6be eed0 02bf
00000030: c802 b1bd 3e3c f8bd f68d 6f3f b044 983f
00000040: 7e5a dbbe 5cf9 3cbf 9e4e 18bf 189a 28bf
00000050: dc20 88be ccdb 39be 88bd cebe 7712 8ebe
00000060: 7529 b3be a33b 84be 29ef 8dbe 352c 4dbe
00000070: b55e 27bf af9c 70be 3958 363f 3706 94be
00000080: 3adc 20be e30e e9be d3ca 43be c5d6 a4be
00000090: 153b b1be 3eb6 c3be 75a3 afbe 8587 dcbe
000000a0: edf2 38bf d408 bcbd cdcf 0fbf 1404 34bf
000000b0: ff90 75be 0310 883f a6f6 39bf e06a c43e
000000c0: 5e76 9cbe ef1c 25bf 3fab 81be 4da9 b2be
000000d0: 0948 cebe 1c66 a5be 316c 0fbe ae4f cebe
000000e0: fe72 cbbd 960d d6be 24e4 41be b681 ecbe
000000f0: ba38 21bf 9fa4 f3bd ccb3 58bf aa44 03bf

network.2.weight f4 [32, 64]
-0.22526555 0.004673311 -0.073710576 -0.09060293 -0.12288103 0.0578816 -0.13222247 -0.11279717
0.055354908 -0.05747512 -0.01810781 0.068268925 -0.039503235 0.034825634 -0.17633116 -0.27113578
0.0033497268 0.043968216 -0.36951336 0.011485258 0.1984763 -0.08876881 -0.14845823 0.0095579475
0.08709186 0.067830056 0.2631397 0.018400058 -0.04388213 -0.022319704 -0.26331982 0.037708476
-0.09133926 -0.037108675 -0.03885443 0.030761823 -0.03510633 0.013406083 0.052067995 -0.16697554
-0.1823829 0.09157543 -0.16155753 -0.05959271 -0.09885265 -0.1656211 0.1371253 -0.052799262
-0.07164317 -0.017183872 -0.3509573 0.00036741572 0.015752092 -0.060407355 -0.120744914 -0.06383644
0.030142099 0.031501457 0.003594786 -0.054660678 -0.098016016 -0.108139366 -0.05944262 -0.20617269
-0.06886198 -0.12023791 0.08033693 -0.15134025 -0.17668344 -0.13026294 0.11252325 -0.074377246
-0.04499753 0.02658759 0.044646908 0.02397593 -0.07465392 -0.0985353 -0.3783198 0.048525356
-0.17095049 -0.05596484 0.032414045 0.030356051 -0.15867563 -0.00092591345 -0.01631366 0.0659858
0.04345351 -0.08984301 0.058042184 0.03136996 -0.08062182 -0.01841771 -0.09727917 -0.09180935
-0.16617279 0.09147011 0.035182662 -0.123119846 0.05565655 -0.11846191 -0.0870339 -0.032091606
-0.12373274 -0.07840739 -0.13928309 -0.07413556 -0.050604332 -0.17511669 -0.015786104 -0.021596758
0.033141673 0.061269496 -0.2787199 0.02257934 0.1177104 -0.16206852 -0.12030621 0.033076003
0.042941518 0.16874988 0.023554062 -0.103967465 -0.17139374 -0.0049834154 0.05087571 -0.08367654
-0.10026777 -0.0629269 -0.057889044 0.11126043 -0.066998646 -0.115102105 -0.20960724 -0.0055713803
0.09283498 0.008043602 -0.08180401 -0.123650394 -0.11141075 0.09340304 -0.19899599 -0.2549857
0.11976209 -0.0027083124 0.021522895 -0.044202104 -0.04620961 -0.03463149 -0.09238906 -0.07182206
-0.13927647 0.21518752 0.043792382 -0.13133445 -0.0037486106 -0.014293946 -0.009799446 -0.06740315
-0.016957492 -0.012915954 -0.010008872 0.012210637 0.014709234 -0.039543584 -0.120428264 -0.010076284
-0.23804313 0.033358566 -0.2155698 0.052198686 -0.06615763 -0.079059646 -0.0878479 -0.096014604
-0.033629403 -0.008874944 0.016535938 -0.10812508 -0.09929085 0.05247788 -0.10150963 0.027459368
-0.19874704 -0.08341487 0.11443919 -0.034450702 -0.053149834 -0.03864862 -0.054031238 0.016253853
-0.08234476 0.011105812 -0.04917504 -0.0553283 -0.046907723 -0.15835103 -0.09374808 -0.023413286
-0.031004652 -0.033172738 0.055608876 -0.025300428 -0.047705382 -0.11613417 -0.12676835 -0.1329373
-0.105827905 0.037977353 -0.23005497 0.024649162 -0.03518255 0.0385637 -0.020514363 -0.05173032
-0.118016854 -0.32226104 -0.0893497 0.10976261 -0.11677845 -0.12362024 0.053600214 -0.052125156
-0.15236744 -0.05740547 -0.017661681 -0.0063211024 0.0122468285 -0.041996032 -0.093057945 -0.1338065
-0.16429114 0.04675658 -0.15640493 0.08477524 -0.13072623 0.01113885 -0.06653174 -0.23455802
-0.08863106 -0.2529391 -0.2707111 0.0034428658 -0.026561514 -0.23883674 -0.060097396 0.03160736
0.11711149 -0.045699403 -0.109004214 0.0011413696 -0.09324696 -0.041511577 0.00852715 -0.2263086
00000000: 03ac 66be 9322 993b 92f5 96bd 078e b9bd
00000010: 0da9 fbbd 4215 6d3d 5465 07be 3402 e7bd
00000020: d4bb 623d 086b 6bbd d456 94bc 94d0 8b3d
00000030: 25ce 21bd 53a5 0e3d 2890 34be 4fd2 8abe
00000040: 1787 5b3b 0418 343d db30 bdbe aa2c 3c3c
00000050: 5f3d 4b3e 6ccc b5bd 6f05 18be f098 1c3c
00000060: 385d b23d 7cea 8a3d 3fba 863e b8bb 963c
00000070: c0bd 33bd d0d7 b6bc dbd1 86be 3474 1a3d
00000080: 1410 bbbd 44ff 17bd d325 1fbd 3800 fc3c
00000090: a8cb 0fbd 30a5 5b3c 4045 553d a3fb 2abe
000000a0: 95c2 3abe e68b bb3d 566f 25be 7c17 74bd
000000b0: 4273 cabd 9498 29be 936a 0c3e 0a44 58bd
000000c0: a8b9 92bd 31c5 8cbc adb0 b3be b4a1 c039
000000d0: 880a 813c b46d 77bd 1c49 f7bd aebc 82bd
000000e0: 90ec f63c ac07 013d 8096 6b3b e0e3 5fbd
000000f0: 9fbc c8bd 2c78 ddbd 1b7a 73bd ef1e 53be
00000100: 8307 8dbd 4b3f f6bd b087 a43d f0f8 1abe
00000110: 81ec 34be a663 05be 9772 e63d 1953 98bd
00000120: 544f 38bd 38ce d93c addf 363d 2b69 c43c
00000130: 28e4 98bd e0cc c9bd 22b3 c1be 86c2 463d
00000140: a50d 2fbe 633b 65bd 97c4 043d 41ad f83c
00000150: dd7b 22be 00b9 72ba 3aa4 85bc 9023 873d
00000160: 4ffc 313d 9dff b7bd a4bd 6d3d ca7d 003d
00000170: 0e1d a5bd bde0 96bc 4d3a c7bd 8a06 bcbd
00000180: 3329 2abe ae54 bb3d b21b 103d 4226 fcbd
00000190: 1ff8 633d 289c f2bd d43e b2bd 7d72 03bd
000001a0: 9767 fdbd 0e94 a0bd 3aa0 0ebe 62d4 97bd
000001b0: 7d46 4fbd ca51 33be dc51 81bc afeb b0bc
000001c0: 90bf 073d b9f5 7a3d 60b4 8ebe 4ff8 b83c
000001d0: 2612 f13d 4af5 25be 1a63 f6bd b47a 073d
000001e0: 72e3 2f3d c5cc 2c3e 73f4 c03c e5ec d4bd
000001f0: d781 2fbe eb4b a3bb 0c63 503d 9b5e abbd
00000200: 3059 cdbd d2df 80bd 101d 6dbd 82dc e33d
00000210: 9636 89bd a7ba ebbd 48a3 56be 2090 b6bb
00000220: 4420 be3d 50c9 033c dc88 a7bd 6b3c fdbd
00000230: 522b e4bd 184a bf3d 9bc5 4bbe 7c8d 82be
00000240: d445 f53d f17d 31bb c850 b03c 440d 35bd
00000250: 4a46 3dbd c0d9 0dbd 7a36 bdbd 7217 93bd
00000260: 7e9e 0ebe 1e5a 5c3e a45f 333d 8a7c 06be
00000270: 40ab 75bb 2831 6abc db8d 20bc aa0a 8abd
00000280: 70ea 8abc 709d 53bc 40fc 23bc 200f 483c
00000290: 00ff 703c 74f8 21bd 18a3 f6bd 0017 25bc
000002a0: 94c1 73be fea2 083d 54be 5cbe 4ace 553d
000002b0: a77d 87bd 06ea a1bd 9ae9 b3bd 4ea3 c4bd
000002c0: fcbe 09bd 3768 11bc 6076 873c af70 ddbd
000002d0: 0059 cbbd 0cf3 563d 48e4 cfbd 78f2 e03c
000002e0: 5884 4bbe 6ad5 aabd 185f ea3d 2e1c 0dbd
000002f0: a4b3 59bd 044e 1ebd dc4f 5dbd cd26 853c
00000300: 5fa4 a8bd 27f5 353c c46b 49bd ed9f 62bd
00000310: 5022 40bd c626 22be fefe bfbd 38cd bfbc
00000320: 78fd fdbc 23e0 07bd 22c6 633d d842 cfbc
00000330: b866 43bd c0d7 edbd 90cf 01be b720 08be
00000340: 4dbc d8bd 248e 1b3d 8893 6bbe 0aed c93c
00000350: 941b 10bd f8f4 1d3d bd0d a8bc 2ce3 53bd
00000360: d2b2 f1bd 66ff a4be fafc b6bd 38cb e03d
00000370: 8a29 efbd 9c2c fdbd e68b 5b3d 3081 55bd
00000380: 3606 1cbe 0022 6bbd 3baf 90bc 4021 cfbb
00000390: eca6 483c 0804 2cbd 2a95 bebd 9204 09be
000003a0: f03b 28be d483 3f3d 9d28 20be a49e ad3d
000003b0: 19dd 05be b97f 363c cb41 88bd fa2f 70be
000003c0: 3484 b5bd 3c81 81be a59a 8abe b4a1 613b
000003d0: 8897 d9bc 9e91 74be b028 76bd b876 013d
000003e0: 26d8 ef3d 4c2f 3bbd 9a3d dfbd 029a 953a
000003f0: 43f8 bebd 0b08 2abd 76b5 0b3c 71bd 67be

network.2.bias f4 [32]
-0.2910929 -0.26580182 -0.3633071 -0.43152258 -0.037806988 -0.4388456 -0.5264422 -0.4029012
-0.3496379 -0.48972562 2.95083 -0.45368883 2.6501853 -0.13736662 -0.5425435 -0.07456812
-0.12627566 -0.10605544 -0.45197755 0.70511156 -0.32310987 0.9734531 -0.1511692 2.2359698
-0.31760302 -0.46193507 -0.43803576 -0.32194695 -0.18641788 -0.06746545 -0.16050795 -0.30480418
00000000: 210a 95be 2d17 88be 6303 babe 87f0 dcbe
00000010: 80db 1abd 5fb0 e0be ebc4 06bf 1149 cebe
00000020: bd03 b3be 51bd fabe 66da 3c40 e749 e8be
00000030: a39c 2940 d6a9 0cbe 21e4 0abf 2cb7 98bd
00000040: 684e 01be 9833 d9bd 9a69 e7be 3182 343f
00000050: a86e a5be 3934 793f 19cc 1abe 211a 0f40
00000060: dd9c a2be c182 ecbe 3946 e0be 3bd6 a4be
00000070: 54e4 3ebe 532b 8abd 325c 24be 4b0f 9cbe

network.4.weight f4 [3, 32]
0.14747506 -0.0019538933 -0.26818255 0.28654936 0.019921722 -0.1502647 0.14071146 -0.05160608
-0.27925563 -0.16892661 4.426209 0.25542614 -3.5432363 -0.1419646 0.10003089 0.052102912
0.027951315 0.09495782 0.025400845 1.8532139 -0.0784869 1.6003942 0.06855386 1.3401749
-0.13477945 0.18078668 0.0073143956 0.029208817 -0.028630609 0.09582927 0.19932164 -0.006894018
-0.007440058 -0.014070381 -0.16345888 -0.013397974 -0.028948005 0.4540657 0.27025324 0.19367418
-0.51296514 -0.014636698 4.4592323 0.10667761 -3.5384948 0.037759356 0.1594426 0.084908776
0.045901056 0.08372987 -0.293953 1.6816036 0.31842852 1.8961009 -0.030409383 1.1938021
-0.012912032 0.011348516 -0.10530626 0.02570091 -0.0042122276 -0.01016992 -0.06495327 -0.036309123
0.18353234 0.033756915 0.11678897 0.08556136 0.05041101 0.48820797 0.094727695 -0.30386347
0.5746487 0.07713442 4.5395164 -0.02870583 -3.455971 0.08234274 0.187015 -0.027362479
-0.06854881 -0.19784804 0.09832813 1.8882133 -0.104878895 2.305069 -0.16587336 1.4426899
0.18120396 0.17337777 -0.23567042 0.15589246 -0.047978897 0.030362578 0.09975412 -0.02113687
00000000: b403 173e e40c 00bb 394f 89be 99b6 923e
00000010: e132 a33c fdde 19be aa16 103e e660 53bd
00000020: 98fa 8ebe 19fb 2cbe 81a3 8d40 37c7 823e
00000030: 62c4 62c0 2b5f 11be ffdc cc3d dd69 553d
00000040: 28fa e43c 3f79 c23d 6f15 d03c 1d36 ed3f
00000050: bdbd a0bd b8d9 cc3f f765 8c3d da8a ab3f
00000060: a003 0abe 2520 393e 99ad ef3b 5447 ef3c
00000070: bd8a eabc 2342 c43d f91a 4c3e 37e7 e1bb
00000080: bbcb f3bb 7587 66bc c461 27be 2d83 5bbc
00000090: 5e24 edbc 4d7b e83e a25e 8a3e 8652 463e
000000a0: af51 03bf c3ce 6fbc 08b2 8e40 ca79 da3d
000000b0: b376 62c0 8ea9 1a3d ec44 233e a7e4 ad3d
000000c0: bf02 3c3d 917a ab3d 0281 96be c93e d73f
000000d0: 1009 a33e 6fb3 f23f 191d f9bc 82ce 983f
000000e0: fd8c 53bc 20ef 393c cfaa d7bd b78a d23c
000000f0: ba06 8abb bc9f 26bc 3806 85bd e0b8 14bd
00000100: e7ef 3b3e b144 0a3d 0e2f ef3d cb3a af3d
00000110: c67b 4e3d 65f6 f93e 9800 c23d fe93 9bbe
00000120: 2d1c 133f a7f8 9d3d b843 9140 7d28 ebbc
00000130: a12e 5dc0 4fa3 a83d dc80 3f3e 4727 e0bc
00000140: 5263 8cbd ad98 4abe 4260 c93d f9b0 f13f
00000150: bfca d6bd 4086 1340 b5da 29be 10aa b83f
00000160: 888d 393e f189 313e 9653 71be 46a2 1f3e
00000170: 8585 44bd f1ba f83c e34b cc3d 3b27 adbc

network.4.bias f4 [3]
7.4845843 7.9328294 6.5443425
00000000: b781 ef40 bdd9 fd40 416b d140

network.0.weight f4 [64, 6]
-2.4954088 -2.8738031 -0.10894228 -0.2721774 0.08501512 -0.3808784 0.2499714 0.02072094
0.01672489 0.14930117 -0.10577404 -0.16840713 0.17513299 0.14234093 -0.24410564 -0.007001087
0.12565336 -0.26675755 -0.665411 -0.11003658 0.21019103 0.10887608 -0.22286278 0.064017445
-2.8175993 -3.1067324 0.1176688 -1.9273446 0.18872634 0.3823274 -0.67034674 -0.43007568
0.22146125 -0.10278006 0.02500965 -0.33558342 -0.04054483 -0.74684346 -0.053728778 -0.11869893
0.04034348 -0.7867523 -0.6385181 -0.8460242 0.21071391 -0.057122618 -0.24447215 -0.39195555
-0.35496497 0.038459916 -0.08688177 0.0335792 0.2051083 -0.22018631 -0.8181329 -0.85647476
-0.10155048 -0.039614476 -0.10171561 -0.086304285 0.112957016 -0.42473975 0.20718615 -0.20414662
-0.029336205 -0.4596482 -0.0042173276 0.11727314 -0.041272245 0.07050664 0.06912135 0.12375388
-0.46053973 -0.031293526 -0.107637875 -0.042338848 0.068127215 -0.26980686 -0.030994456 -0.38792083
0.12183872 0.11829977 0.05177833 -0.4671692 -10.1313925 -2.2626185 -0.30250108 -1.8447406
-0.1897201 0.8682646 -6.4149966 -1.4036229 0.03805445 -1.7525082 0.043439236 0.7040168
0.10038913 -0.03134841 0.10277805 0.056420643 -0.21341337 0.12825567 -0.23836094 -0.6747125
0.24545655 0.01125428 0.082957216 -0.50857544 -3.8248243 1.9309111 -0.019607266 -0.15466474
0.07172947 -0.6622785 -0.9843797 -0.29996377 -0.0838133 -0.08575115 0.12620647 -0.3033063
-0.7681146 -0.49323007 0.1191993 -0.09923165 0.39926544 -0.87584996 -0.30481648 0.39440265
0.08626555 0.023830522 -0.20053998 -0.4074568 -0.50753474 -0.1693629 0.0868746 -0.0993694
0.08357992 -0.64409345 -0.4025429 0.33541632 0.107354015 0.07359943 -0.15007712 -0.22934185
-0.29795983 0.07461424 0.16815276 -0.1051388 0.100600235 -0.47993624 -5.2473807 2.6742098
0.4688854 -2.0360134 0.48683867 -0.055156406 -1.0322621 -0.513671 0.020960415 -0.08806066
0.20734319 -0.9608954 0.1433031 -0.051661063 0.12149429 0.05939995 -0.098019145 -0.5006587
0.015618991 -0.045207046 -0.11660648 0.1026173 0.29264262 -0.0005932767 -0.065120675 -0.11466425
-0.052543733 0.09381986 -0.08693477 -0.40765142 -7.77567 2.2045164 -0.5532574 -1.9476355
-0.32435796 0.85586476 -0.16090254 -0.46255916 0.03752303 -0.058241487 0.27945268 -0.27353418
0.31139183 -0.49547052 -0.103213556 -0.10215574 0.2391029 -0.3230187 -0.066703774 0.08552445
0.25850525 0.041148767 -0.2473686 -0.174586 -0.33972293 -0.19920117 0.136712 0.07636683
0.12912403 -0.50897604 0.051008496 -0.03372758 0.21151528 0.018406065 -0.33150274 -0.0125710005
-0.5922215 -0.53135914 -0.025043117 0.2058027 0.09597686 -0.12712371 -0.3494626 0.046572022
-0.3434231 -0.012641417 0.26844835 -0.17260933 -0.04678803 -0.06861979 0.23503044 0.14140087
-0.28220627 -0.2161646 0.030351073 -0.8169147 0.36708274 -0.044764005 -0.06891824 -0.56517524
-0.22880018 -1.0308592 -0.20323454 -0.07256646 0.24706298 -0.49817914 -0.4258416 -0.4912484
-0.10619684 0.025714729 0.25572857 -0.37361684 -0.67536885 -0.8767614 0.052982584 -0.1264185
00000000: c7b4 1fc0 64ec 37c0 211d dfbd d65a 8bbe
00000010: 681c ae3d 7e02 c3be 81f8 7f3e f6be a93c
00000020: a302 893c 68e2 183e 0fa0 d8bd eb72 2cbe
00000030: 1056 333e d2c1 113e d4f6 79be 6069 e5bb
00000040: 46ab 003e 7294 88be 6058 2abf dc5a e1bd
00000050: 513c 573e 6cfa de3d 2436 64be 941b 833d
00000060: 8c53 34c0 b4d4 46c0 57fc f03d 3ab3 f6bf
00000070: 7a41 413e 6bc0 c33e d89b 2bbf e132 dcbe
00000080: bdc6 623e 5a7e d2bd 0ae1 cc3c 97d1 abbe
00000090: 5612 26bd 2231 3fbf b512 5cbd 6d18 f3bd
000000a0: 343f 253d 9968 49bf ec75 23bf 0b95 58bf
000000b0: 63c5 573e 68f9 69bd e856 7abe 66ae c8be
000000c0: f8bd b5be 2588 1d3d 12ef b1bd 588a 093d
000000d0: e907 523e 8578 61be 2871 51bf ee41 5bbf
000000e0: b3f9 cfbd ca42 22bd 4650 d0bd 4dc0 b0bd
000000f0: 0256 e73d 7d77 d9be 9b28 543e d00b 51be
00000100: 7b52 f0bc 0257 ebbe 8231 8abb e62c f03d
00000110: 160d 29bd c965 903d 7f8f 8d3d ad72 fd3d
00000120: ddcb ebbe a42d 00bd 3f71 dcbd 806b 2dbd
00000130: 4886 8b3d 2024 8abe 16e8 fdbc 8f9d c6be
00000140: 9486 f93d 2647 f23d 8415 543d cd30 efbe
00000150: 2f1a 22c1 bece 10c0 6ce1 9abe 7620 ecbf
00000160: fc45 42be 9746 5e3f a747 cdc0 eaa9 b3bf
00000170: fcde 1b3d 3052 e0bf 57ed 313d 723a 343f
00000180: d198 cd3d 3167 00bd 4c7d d23d 5519 673d
00000190: 0989 5abe 7455 033e e414 74be f5b9 2cbf
000001a0: f658 7b3e df63 383c 79e5 a93d 0032 02bf
000001b0: ecc9 74c0 1828 f73f 6b9f a0bc 6f60 1ebe
000001c0: e6e6 923d 158b 29bf 4f00 7cbf da94 99be
000001d0: 4fa6 abbd 4d9e afbd 453c 013e f74a 9bbe
000001e0: 29a3 44bf a788 fcbe c31e f43d f739 cbbd
000001f0: 856c cc3e b437 60bf e810 9cbe 25ef c93e
00000200: feab b03d 3a38 c33c 5a5a 4dbe 2d9e d0be
00000210: cced 01bf 786d 2dbe 4feb b13d 2f82 cbbd
00000220: f32b ab3d 4fe3 24bf 1a1a cebe b0bb ab3e
00000230: 6cdc db3d 4cbb 963d d1ad 19be 97d8 6abe
00000240: 318e 98be 5acf 983d 3d30 2c3e 0353 d7bd
00000250: 7f07 ce3d 34ba f5be 8bea a7c0 4126 2b40
00000260: bf11 f03e 0b4e 02c0 eb42 f93e afeb 61bd
00000270: 2a21 84bf f17f 03bf 2db5 ab3c 2659 b4bd
00000280: c651 543e 3efd 75bf 0cbe 123e 8d9a 53bd
00000290: 00d2 f83d 5d4d 733d 43be c8bd 2b2b 00bf
000002a0: cce6 7f3c 062b 39bd 61cf eebd 0529 d23d
000002b0: 41d5 953e 2086 1bba fd5d 85bd 17d5 eabd
000002c0: 1938 57bd a024 c03d db0a b2bd b0b7 d0be
000002d0: 4ad2 f8c0 cc16 0d40 47a2 0dbf 1f4c f9bf
000002e0: 3f12 a6be f419 5b3f a3c3 24be 8ed4 ecbe
000002f0: c0b1 193d a08e 6ebd 6c14 8f3e ac0c 8cbe
00000300: c06e 9f3e 50ae fdbe a161 d3bd 0737 d1bd
00000310: 64d7 743e b562 a5be fd9b 88bd 7127 af3d
00000320: cd5a 843e 9c8b 283d 324e 7dbe acc6 32be
00000330: 2af0 adbe 64fb 4bbe 3bfe 0b3e 3666 9c3d
00000340: 1739 043e 414c 02bf 49ee 503d ee25 0abd
00000350: 7697 583e 51c8 963c baba a9be 99f6 4dbc
00000360: d49b 17bf 2707 08bf 3927 cdbc f1bd 523e
00000370: 848f c43d b82c 02be c3ec b2be 4ec2 3e3d
00000380: 27d5 afbe f21d 4fbc 1072 893e 80c0 30be
00000390: cea4 3fbd 8888 8cbd d2ab 703e 64cb 103e
000003a0: 577d 90be 415a 5dbe d0a2 f83c 5221 51bf
000003b0: 45f2 bb3e 765a 37bd 0225 8dbd 53af 10bf
000003c0: 984a 6abe 32f3 83bf b71c 50be b99d 94bd
000003d0: 14fe 7c3e 5611 ffbe e907 dabe e984 fbbe
000003e0: bb7d d9bd b2a7 d23c dbee 823e b54a bfbe
000003f0: f9e4 2cbf 6f73 60bf 4404 593d da73 01be

network.0.bias f4 [64]
-0.4374805 -0.60209996 -0.38203627 -0.4780016 0.57801694 -0.34645262 -0.88557535 -0.45833954
0.03534479 -0.7645624 -0.48121604 -0.5110005 -0.086431086 -0.12120865 0.9361481 1.2109406
-0.42842478 -0.7381799 -0.5949496 -0.6586013 -0.2658757 -0.18150252 -0.40378976 -0.27748463
-0.34992567 -0.2836254 -0.27721527 -0.20036395 -0.65378886 -0.2349727 0.7145898 -0.28910992
-0.1570901 -0.4551917 -0.1912034 -0.32195106 -0.3461539 -0.38224977 -0.34304395 -0.43072143
-0.72245675 -0.09181371 -0.56176454 -0.7031872 -0.23981093 1.0655096 -0.7264198 0.35058707
-0.30559057 -0.64497274 -0.22990443 -0.3489479 -0.40289333 -0.32304466 -0.14006115 -0.40295166
-0.099340424 -0.4180724 -0.18934685 -0.46192712 -0.6297718 -0.11896633 -0.8464935 -0.5127665
00000000: 72fd dfbe 3923 1abf 429a c3be a0bc f4be
00000010: ebf8 133f 3d62 b1be 11b5 62bf 7bab eabe
00000020: b3c5 103d 5dba 43bf f361 f6be eed0 02bf
00000030: c802 b1bd 3e3c f8bd 67a7 6f3f 1a00 9b3f
00000040: 7e5a dbbe 5cf9 3cbf 9e4e 18bf 189a 28bf
00000050: dc20 88be ccdb 39be 88bd cebe 7712 8ebe
00000060: 7529 b3be 5937 91be 29ef 8dbe 352c 4dbe
00000070: b55e 27bf af9c 70be 5bef 363f 3706 94be
00000080: 3adc 20be e30e e9be d3ca 43be c5d6 a4be
00000090: 153b b1be 3eb6 c3be 75a3 afbe 8587 dcbe
000000a0: edf2 38bf d408 bcbd cdcf 0fbf 1404 34bf
000000b0: ff90 75be 9e62 883f a6f6 39bf 2680 b33e
000000c0: 5e76 9cbe ef1c 25bf 116c 6bbe 4da9 b2be
000000d0: 0948 cebe 1c66 a5be 316c 0fbe ae4f cebe
000000e0: fe72 cbbd 960d d6be 24e4 41be b681 ecbe
000000f0: ba38 21bf 9fa4 f3bd ccb3 58bf aa44 03bf

network.2.weight f4 [32, 64]
-0.22526555 0.004673311 -0.073710576 -0.09060293 -0.12288103 0.0578816 -0.13222247 -0.11279717
0.055354908 -0.05747512 -0.01810781 0.068268925 -0.039503235 0.034825634 -0.17633116 -0.27113578
0.0033497268 0.043968216 -0.36951336 0.011485258 0.1984763 -0.08876881 -0.14845823 0.0095579475
0.08709186 0.067830056 0.2631397 0.018400058 -0.04388213 -0.022319704 -0.26331982 0.037708476
-0.09133926 -0.037108675 -0.03885443 0.030761823 -0.03510633 0.013406083 0.052067995 -0.16697554
-0.1823829 0.09157543 -0.16155753 -0.05959271 -0.09885265 -0.1656211 0.1371253 -0.052799262
-0.07164317 -0.017183872 -0.3509573 0.00036741572 0.015752092 -0.060407355 -0.120744914 -0.06383644
0.030142099 0.031501457 0.003594786 -0.054660678 -0.098016016 -0.108139366 -0.05944262 -0.20617269
-0.06886198 -0.12023791 0.08033693 -0.15134025 -0.17668344 -0.13026294 0.11252325 -0.074377246
-0.04499753 0.02658759 0.044646908 0.02397593 -0.07465392 -0.0985353 -0.3783198 0.048525356
-0.17095049 -0.05596484 0.032414045 0.030356051 -0.15867563 -0.00092591345 -0.01631366 0.0659858
0.04345351 -0.08984301 0.058042184 0.03136996 -0.08062182 -0.01841771 -0.09727917 -0.09180935
-0.16617279 0.09147011 0.035182662 -0.123119846 0.05565655 -0.11846191 -0.0870339 -0.032091606
-0.12373274 -0.07840739 -0.13928309 -0.07413556 -0.050604332 -0.17511669 -0.015786104 -0.021596758
0.033141673 0.061269496 -0.2787199 0.02257934 0.1177104 -0.16206852 -0.12030621 0.033076003
0.042941518 0.16874988 0.023554062 -0.103967465 -0.17139374 -0.0049834154 0.05087571 -0.08367654
-0.10026777 -0.0629269 -0.057889044 0.11126043 -0.066998646 -0.115102105 -0.20960724 -0.0055713803
0.09283498 0.008043602 -0.08180401 -0.123650394 -0.11141075 0.09340304 -0.19899599 -0.2549857
0.11976209 -0.0027083124 0.021522895 -0.044202104 -0.04620961 -0.03463149 -0.09238906 -0.07182206
-0.13927647 -0.10083823 0.043792382 -0.13133445 -0.0037486106 -0.014293946 0.09177707 -0.06740315
-0.016957492 -0.012915954 -0.010008872 0.012210637 0.014709234 -0.039543584 -0.120428264 -0.010076284
-0.23804313 0.033358566 -0.2155698 0.052198686 -0.06615763 -0.079059646 -0.0878479 -0.096014604
-0.033629403 -0.008874944 0.016535938 -0.10812508 -0.09929085 0.05247788 -0.10150963 0.027459368
-0.19874704 -0.08341487 0.11443919 -0.034450702 -0.053149834 -0.03864862 -0.054031238 0.016253853
-0.08234476 0.011105812 -0.04917504 -0.0553283 -0.046907723 -0.15835103 -0.09374808 -0.023413286
-0.031004652 -0.033172738 0.055608876 -0.025300428 -0.047705382 -0.11613417 -0.12676835 -0.1329373
-0.105827905 0.037977353 -0.23005497 0.024649162 -0.03518255 0.0385637 -0.020514363 -0.05173032
-0.118016854 -0.32226104 -0.0893497 0.10976261 -0.11677845 -0.12362024 0.053600214 -0.052125156
-0.15236744 -0.05740547 -0.017661681 -0.0063211024 0.0122468285 -0.041996032 -0.093057945 -0.1338065
-0.16429114 0.04675658 -0.15640493 0.08477524 -0.13072623 0.01113885 -0.06653174 -0.23455802
-0.08863106 -0.2529391 -0.2707111 0.0034428658 -0.026561514 -0.23883674 -0.060097396 0.03160736
0.11711149 -0.045699403 -0.109004214 0.0011413696 -0.09324696 -0.041511577 0.00852715 -0.2263086
00000000: 03ac 66be 9322 993b 92f5 96bd 078e b9bd
00000010: 0da9 fbbd 4215 6d3d 5465 07be 3402 e7bd
00000020: d4bb 623d 086b 6bbd d456 94bc 94d0 8b3d
00000030: 25ce 21bd 53a5 0e3d 2890 34be 4fd2 8abe
00000040: 1787 5b3b 0418 343d db30 bdbe aa2c 3c3c
00000050: 5f3d 4b3e 6ccc b5bd 6f05 18be f098 1c3c
00000060: 385d b23d 7cea 8a3d 3fba 863e b8bb 963c
00000070: c0bd 33bd d0d7 b6bc dbd1 86be 3474 1a3d
00000080: 1410 bbbd 44ff 17bd d325 1fbd 3800 fc3c
00000090: a8cb 0fbd 30a5 5b3c 4045 553d a3fb 2abe
000000a0: 95c2 3abe e68b bb3d 566f 25be 7c17 74bd
000000b0: 4273 cabd 9498 29be 936a 0c3e 0a44 58bd
000000c0: a8b9 92bd 31c5 8cbc adb0 b3be b4a1 c039
000000d0: 880a 813c b46d 77bd 1c49 f7bd aebc 82bd
000000e0: 90ec f63c ac07 013d 8096 6b3b e0e3 5fbd
000000f0: 9fbc c8bd 2c78 ddbd 1b7a 73bd ef1e 53be
00000100: 8307 8dbd 4b3f f6bd b087 a43d f0f8 1abe
00000110: 81ec 34be a663 05be 9772 e63d 1953 98bd
00000120: 544f 38bd 38ce d93c addf 363d 2b69 c43c
00000130: 28e4 98bd e0cc c9bd 22b3 c1be 86c2 463d
00000140: a50d 2fbe 633b 65bd 97c4 043d 41ad f83c
00000150: dd7b 22be 00b9 72ba 3aa4 85bc 9023 873d
00000160: 4ffc 313d 9dff b7bd a4bd 6d3d ca7d 003d
00000170: 0e1d a5bd bde0 96bc 4d3a c7bd 8a06 bcbd
00000180: 3329 2abe ae54 bb3d b21b 103d 4226 fcbd
00000190: 1ff8 633d 289c f2bd d43e b2bd 7d72 03bd
000001a0: 9767 fdbd 0e94 a0bd 3aa0 0ebe 62d4 97bd
000001b0: 7d46 4fbd ca51 33be dc51 81bc afeb b0bc
000001c0: 90bf 073d b9f5 7a3d 60b4 8ebe 4ff8 b83c
000001d0: 2612 f13d 4af5 25be 1a63 f6bd b47a 073d
000001e0: 72e3 2f3d c5cc 2c3e 73f4 c03c e5ec d4bd
000001f0: d781 2fbe eb4b a3bb 0c63 503d 9b5e abbd
00000200: 3059 cdbd d2df 80bd 101d 6dbd 82dc e33d
00000210: 9636 89bd a7ba ebbd 48a3 56be 2090 b6bb
00000220: 4420 be3d 50c9 033c dc88 a7bd 6b3c fdbd
00000230: 522b e4bd 184a bf3d 9bc5 4bbe 7c8d 82be
00000240: d445 f53d f17d 31bb c850 b03c 440d 35bd
00000250: 4a46 3dbd c0d9 0dbd 7a36 bdbd 7217 93bd
00000260: 7e9e 0ebe 4684 cebd a45f 333d 8a7c 06be
00000270: 40ab 75bb 2831 6abc 9ef5 bb3d aa0a 8abd
00000280: 70ea 8abc 709d 53bc 40fc 23bc 200f 483c
00000290: 00ff 703c 74f8 21bd 18a3 f6bd 0017 25bc
000002a0: 94c1 73be fea2 083d 54be 5cbe 4ace 553d
000002b0: a77d 87bd 06ea a1bd 9ae9 b3bd 4ea3 c4bd
000002c0: fcbe 09bd 3768 11bc 6076 873c af70 ddbd
000002d0: 0059 cbbd 0cf3 563d 48e4 cfbd 78f2 e03c
000002e0: 5884 4bbe 6ad5 aabd 185f ea3d 2e1c 0dbd
000002f0: a4b3 59bd 044e 1ebd dc4f 5dbd cd26 853c
00000300: 5fa4 a8bd 27f5 353c c46b 49bd ed9f 62bd
00000310: 5022 40bd c626 22be fefe bfbd 38cd bfbc
00000320: 78fd fdbc 23e0 07bd 22c6 633d d842 cfbc
00000330: b866 43bd c0d7 edbd 90cf 01be b720 08be
00000340: 4dbc d8bd 248e 1b3d 8893 6bbe 0aed c93c
00000350: 941b 10bd f8f4 1d3d bd0d a8bc 2ce3 53bd
00000360: d2b2 f1bd 66ff a4be fafc b6bd 38cb e03d
00000370: 8a29 efbd 9c2c fdbd e68b 5b3d 3081 55bd
00000380: 3606 1cbe 0022 6bbd 3baf 90bc 4021 cfbb
00000390: eca6 483c 0804 2cbd 2a95 bebd 9204 09be
000003a0: f03b 28be d483 3f3d 9d28 20be a49e ad3d
000003b0: 19dd 05be b97f 363c cb41 88bd fa2f 70be
000003c0: 3484 b5bd 3c81 81be a59a 8abe b4a1 613b
000003d0: 8897 d9bc 9e91 74be b028 76bd b876 013d
000003e0: 26d8 ef3d 4c2f 3bbd 9a3d dfbd 029a 953a
000003f0: 43f8 bebd 0b08 2abd 76b5 0b3c 71bd 67be

network.2.bias f4 [32]
-0.2910929 -0.26580182 -0.20155808 -0.43152258 -0.037806988 -0.4388456 -0.5264422 -0.4029012
-0.3496379 -0.48972562 2.9544716 -0.45368883 2.6545548 -0.13736662 -0.5425435 -0.07456812
-0.12627566 -0.10605544 -0.45197755 0.70187753 -0.32310987 0.97407186 -0.1511692 2.2490115
-0.31760302 -0.46193507 -0.43803576 -0.32194695 -0.18641788 -0.06746545 -0.16050795 -0.30480418
00000000: 210a 95be 2d17 88be 3e65 4ebe 87f0 dcbe
00000010: 80db 1abd 5fb0 e0be ebc4 06bf 1149 cebe
00000020: bd03 b3be 51bd fabe 1016 3d40 e749 e8be
00000030: 3ae4 2940 d6a9 0cbe 21e4 0abf 2cb7 98bd
00000040: 684e 01be 9833 d9bd 9a69 e7be 3fae 333f
00000050: a86e a5be c65c 793f 19cc 1abe ceef 0f40
00000060: dd9c a2be c182 ecbe 3946 e0be 3bd6 a4be
00000070: 54e4 3ebe 532b 8abd 325c 24be 4b0f 9cbe

network.4.weight f4 [3, 32]
0.14747506 -0.0019538933 0.047789525 0.28654936 0.019921722 -0.1502647 0.14071146 -0.05160608
-0.27925563 -0.16892661 4.371152 0.25542614 -3.5759068 -0.1419646 0.10003089 0.052102912
0.027951315 0.09495782 0.025400845 1.8451393 -0.0784869 1.5987191 0.06855386 1.3012749
-0.13477945 0.18078668 0.0073143956 0.029208817 -0.028630609 0.09582927 0.19932164 -0.006894018
-0.007440058 -0.014070381 -0.023020055 -0.013397974 -0.028948005 0.4540657 0.27025324 0.19367418
-0.51296514 -0.014636698 4.4230275 0.10667761 -3.533979 0.037759356 0.1594426 0.084908776
0.045901056 0.08372987 -0.293953 1.6752762 0.31842852 1.8590035 -0.030409383 1.1952628
-0.012912032 0.011348516 -0.10530626 0.02570091 -0.0042122276 -0.01016992 -0.06495327 -0.036309123
0.18353234 0.033756915 0.11678897 0.08556136 0.05041101 0.48820797 0.094727695 -0.30386347
0.5746487 0.07713442 4.556808 -0.02870583 -3.4466343 0.08234274 0.187015 -0.027362479
-0.06854881 -0.19784804 0.09832813 1.8949021 -0.104878895 2.3122368 -0.16587336 1.4831009
0.18120396 0.17337777 -0.23567042 0.15589246 -0.047978897 0.030362578 0.09975412 -0.02113687
00000000: b403 173e e40c 00bb f3be 433d 99b6 923e
00000010: e132 a33c fdde 19be aa16 103e e660 53bd
00000020: 98fa 8ebe 19fb 2cbe 7ae0 8b40 37c7 823e
00000030: a8db 64c0 2b5f 11be ffdc cc3d dd69 553d
00000040: 28fa e43c 3f79 c23d 6f15 d03c 862d ec3f
00000050: bdbd a0bd d4a2 cc3f f765 8c3d 2d90 a63f
00000060: a003 0abe 2520 393e 99ad ef3b 5447 ef3c
00000070: bd8a eabc 2342 c43d f91a 4c3e 37e7 e1bb
00000080: bbcb f3bb 7587 66bc 8e94 bcbc 2d83 5bbc
00000090: 5e24 edbc 4d7b e83e a25e 8a3e 8652 463e
000000a0: af51 03bf c3ce 6fbc 7189 8d40 ca79 da3d
000000b0: b62c 62c0 8ea9 1a3d ec44 233e a7e4 ad3d
000000c0: bf02 3c3d 917a ab3d 0281 96be 736f d63f
000000d0: 1009 a33e d4f3 ed3f 191d f9bc 5ffe 983f
000000e0: fd8c 53bc 20ef 393c cfaa d7bd b78a d23c
000000f0: ba06 8abb bc9f 26bc 3806 85bd e0b8 14bd
00000100: e7ef 3b3e b144 0a3d 0e2f ef3d cb3a af3d
00000110: c67b 4e3d 65f6 f93e 9800 c23d fe93 9bbe
00000120: 2d1c 133f a7f8 9d3d 5fd1 9140 7d28 ebbc
00000130: a895 5cc0 4fa3 a83d dc80 3f3e 4727 e0bc
00000140: 5263 8cbd ad98 4abe 4260 c93d 278c f23f
00000150: bfca d6bd b0fb 1340 b5da 29be 40d6 bd3f
00000160: 888d 393e f189 313e 9653 71be 46a2 1f3e
00000170: 8585 44bd f1ba f83c e34b cc3d 3b27 adbc

network.4.bias f4 [3]
7.4215937 7.985347 6.5483055
00000000: b27d ed40 f687 ff40 b88b d140

exp_avg f4 [64, 6]
6e-45 6e-45 -6e-45 -6e-45 -6e-45 6e-45 6e-45 6e-45
-6e-45 6e-45 -6e-45 6e-45 0.0 0.0 0.0 0.0
0.0 0.0 6e-45 6e-45 6e-45 6e-45 6e-45 6e-45
-0.00466425 -0.0028186683 0.013015826 0.013816617 0.007809498 -0.007594224 6e-45 6e-45
6e-45 -6e-45 6e-45 6e-45 -6e-45 6e-45 6e-45 6e-45
6e-45 6e-45 6e-45 6e-45 -6e-45 6e-45 -6e-45 6e-45
0.0 0.0 0.0 0.0 0.0 0.0 6e-45 6e-45
-6e-45 -6e-45 -6e-45 6e-45 6e-45 6e-45 6e-45 -6e-45
6e-45 6e-45 6e-45 6e-45 -6e-45 6e-45 -6e-45 6e-45
6e-45 6e-45 6e-45 -6e-45 6e-45 6e-45 6e-45 6e-45
6e-45 6e-45 6e-45 6e-45 -0.0036527126 -0.003356832 -0.008658873 0.012330458
-0.005195323 -0.00623458 -0.0017971472 -0.0013829314 0.013081706 0.0034047184 0.0078490265 -0.0011505628
6e-45 6e-45 6e-45 6e-45 6e-45 6e-45 6e-45 6e-45
-6e-45 6e-45 -6e-45 6e-45 6e-45 6e-45 -6e-45 -6e-45
-6e-45 6e-45 7.4738344e-16 7.387518e-16 -1.9190573e-15 -8.706604e-16 -1.1514336e-15 1.1568769e-15
6e-45 6e-45 -6e-45 6e-45 -6e-45 6e-45 0.0 0.0
0.0 0.0 0.0 0.0 6e-45 6e-45 6e-45 -6e-45
6e-45 6e-45 6e-45 6e-45 -6e-45 6e-45 -6e-45 6e-45
6e-45 6e-45 -6e-45 6e-45 -6e-45 6e-45 -0.029946323 -0.02383342
0.04948226 0.0874594 0.029689353 -0.05849366 6e-45 6e-45 6e-45 -6e-45
6e-45 6e-45 6e-45 6e-45 -6e-45 -6e-45 -6e-45 6e-45
6e-45 6e-45 6e-45 6e-45 6e-45 6e-45 6e-45 6e-45
-6e-45 -6e-45 -6e-45 6e-45 -0.69537926 -0.65047145 1.1054293 1.122005
0.6632576 -0.7836654 -6e-45 6e-45 6e-45 6e-45 6e-45 6e-45
6e-45 6e-45 6e-45 -6e-45 6e-45 6e-45 6e-45 6e-45
6e-45 6e-45 6e-45 6e-45 6e-45 6e-45 6e-45 6e-45
6e-45 6e-45 6e-45 6e-45 -6e-45 6e-45 -6e-45 6e-45
6e-45 6e-45 6e-45 6e-45 6e-45 6e-45 6e-45 6e-45
-6e-45 6e-45 -6e-45 6e-45 6e-45 6e-45 6e-45 6e-45
6e-45 6e-45 6e-45 6e-45 6e-45 -6e-45 6e-45 6e-45
6e-45 6e-45 6e-45 6e-45 6e-45 6e-45 6e-45 6e-45
-6e-45 6e-45 -6e-45 6e-45 6e-45 6e-45 6e-45 -6e-45
00000000: 0400 0000 0400 0000 0400 0080 0400 0080
00000010: 0400 0080 0400 0000 0400 0000 0400 0000
00000020: 0400 0080 0400 0000 0400 0080 0400 0000
00000030: 0000 0000 0000 0000 0000 0000 0000 0000
00000040: 0000 0000 0000 0000 0400 0000 0400 0000
00000050: 0400 0000 0400 0000 0400 0000 0400 0000
00000060: 91d6 98bb 68b9 38bb 5540 553c 185f 623c
00000070: d1e6 ff3b f8d8 f8bb 0400 0000 0400 0000
00000080: 0400 0000 0400 0080 0400 0000 0400 0000
00000090: 0400 0080 0400 0000 0400 0000 0400 0000
000000a0: 0400 0000 0400 0000 0400 0000 0400 0000
000000b0: 0400 0080 0400 0000 0400 0080 0400 0000
000000c0: 0000 0000 0000 0000 0000 0000 0000 0000
000000d0: 0000 0000 0000 0000 0400 0000 0400 0000
000000e0: 0400 0080 0400 0080 0400 0080 0400 0000
000000f0: 0400 0000 0400 0000 0400 0000 0400 0080
00000100: 0400 0000 0400 0000 0400 0000 0400 0000
00000110: 0400 0080 0400 0000 0400 0080 0400 0000
00000120: 0400 0000 0400 0000 0400 0000 0400 0080
00000130: 0400 0000 0400 0000 0400 0000 0400 0000
00000140: 0400 0000 0400 0000 0400 0000 0400 0000
00000150: 5962 6fbb 4cfe 5bbb f2dd 0dbc b005 4a3c
00000160: 873d aabb 734b ccbb 418e ebba 7a43 b5ba
00000170: a754 563c b221 5f3b 3499 003c 7bce 96ba
00000180: 0400 0000 0400 0000 0400 0000 0400 0000
00000190: 0400 0000 0400 0000 0400 0000 0400 0000
000001a0: 0400 0080 0400 0000 0400 0080 0400 0000
000001b0: 0400 0000 0400 0000 0400 0080 0400 0080
000001c0: 0400 0080 0400 0000 2a6b 5726 43ee 5426
000001d0: 5c48 0aa7 66f3 7aa6 67f0 a5a6 39b9 a626
000001e0: 0400 0000 0400 0000 0400 0080 0400 0000
000001f0: 0400 0080 0400 0000 0000 0000 0000 0000
00000200: 0000 0000 0000 0000 0000 0000 0000 0000
00000210: 0400 0000 0400 0000 0400 0000 0400 0080
00000220: 0400 0000 0400 0000 0400 0000 0400 0000
00000230: 0400 0080 0400 0000 0400 0080 0400 0000
00000240: 0400 0000 0400 0000 0400 0080 0400 0000
00000250: 0400 0080 0400 0000 fe51 f5bc 4e3e c3bc
00000260: e9ad 4a3d ea1d b33d 1637 f33c 0c97 6fbd
00000270: 0400 0000 0400 0000 0400 0000 0400 0080
00000280: 0400 0000 0400 0000 0400 0000 0400 0000
00000290: 0400 0080 0400 0080 0400 0080 0400 0000
000002a0: 0400 0000 0400 0000 0400 0000 0400 0000
000002b0: 0400 0000 0400 0000 0400 0000 0400 0000
000002c0: 0400 0080 0400 0080 0400 0080 0400 0000
000002d0: 6004 32bf 4c85 26bf b57e 8d3f dc9d 8f3f
000002e0: 40cb 293f 4c9e 48bf 0400 0080 0400 0000
000002f0: 0400 0000 0400 0000 0400 0000 0400 0000
00000300: 0400 0000 0400 0000 0400 0000 0400 0080
00000310: 0400 0000 0400 0000 0400 0000 0400 0000
00000320: 0400 0000 0400 0000 0400 0000 0400 0000
00000330: 0400 0000 0400 0000 0400 0000 0400 0000
00000340: 0400 0000 0400 0000 0400 0000 0400 0000
00000350: 0400 0080 0400 0000 0400 0080 0400 0000
00000360: 0400 0000 0400 0000 0400 0000 0400 0000
00000370: 0400 0000 0400 0000 0400 0000 0400 0000
00000380: 0400 0080 0400 0000 0400 0080 0400 0000
00000390: 0400 0000 0400 0000 0400 0000 0400 0000
000003a0: 0400 0000 0400 0000 0400 0000 0400 0000
000003b0: 0400 0000 0400 0080 0400 0000 0400 0000
000003c0: 0400 0000 0400 0000 0400 0000 0400 0000
000003d0: 0400 0000 0400 0000 0400 0000 0400 0000
000003e0: 0400 0080 0400 0000 0400 0080 0400 0000
000003f0: 0400 0000 0400 0000 0400 0000 0400 0080

exp_avg_sq f4 [64, 6]
1.4968957e-11 4.2773038e-12 1.6800435e-09 1.6800171e-09 6.0481486e-10 5.8231187e-10 2.0699759e-23 1.0332362e-23
1.1537284e-22 9.95585e-23 4.1534435e-23 4.2288662e-23 0.0 0.0 0.0 0.0
0.0 0.0 1.1079559e-25 1.749592e-25 2.8022783e-24 2.8022783e-24 1.0088051e-24 8.79838e-25
0.0047001643 0.0035109634 0.23176205 0.24199966 0.083434165 0.09566913 7.9930793e-17 6.228913e-17
1.3186253e-15 1.3186253e-15 4.7470575e-16 5.046928e-16 7.8108663e-25 6.593279e-25 1.390031e-19 1.390031e-19
5.004121e-20 4.7638075e-20 4.1775835e-25 4.6903194e-25 1.2790357e-23 1.26703265e-23 4.604485e-24 5.440539e-24
0.0 0.0 0.0 0.0 0.0 0.0 7.1436533e-29 4.587585e-28
4.159726e-26 4.159726e-26 1.4974914e-26 1.7078495e-26 1.2527757e-25 2.6399556e-25 4.6387546e-24 4.6387546e-24
1.6699468e-24 1.3658377e-24 5.5758784e-27 8.561272e-27 2.2552646e-25 2.2552646e-25 8.1188437e-26 8.471665e-26
3.8177624e-25 1.0031691e-24 1.7534251e-23 1.7795096e-23 6.3123285e-24 5.160745e-24 8.9767934e-26 1.465372e-25
2.5084617e-24 2.533712e-24 9.03044e-25 7.490491e-25 0.00041872385 0.0010139577 0.08124838 0.085542165
0.029249446 0.030117877 0.0028468003 0.0025274956 0.14281847 0.1595892 0.05141462 0.06113915
1.8204203e-25 5.2730313e-25 8.825394e-24 8.950348e-24 3.1771651e-24 2.626196e-24 2.0943958e-17 1.4068461e-17
1.3674152e-16 1.3674152e-16 4.9227302e-17 4.517683e-17 4.970836e-16 1.1419572e-12 3.822257e-11 3.822257e-11
1.3760062e-11 1.7392277e-11 0.0002706836 0.00020867611 0.00129308 0.00034471895 0.00046550902 0.0005089884
5.8972465e-20 1.7071477e-26 2.9093798e-17 2.9093798e-17 1.0473749e-17 7.5578285e-18 0.0 0.0
0.0 0.0 0.0 0.0 1.985729e-25 3.1469937e-25 5.999827e-24 5.999827e-24
2.1599556e-24 1.748484e-24 1.4873033e-34 1.0264008e-31 1.4326752e-30 1.4326752e-30 5.157591e-31 5.1026037e-31
9.831593e-27 8.0069205e-27 1.3474009e-25 1.3474009e-25 4.8506342e-26 4.093764e-26 0.05972148 0.04522065
1.6751025 1.6475879 0.60303706 0.63994104 8.378708e-21 2.902886e-21 3.571989e-18 3.571989e-18
1.2859283e-18 9.266247e-19 7.129796e-27 6.839768e-27 1.1540591e-25 1.1540591e-25 4.1546318e-26 4.1103083e-26
1.7202686e-27 7.177275e-27 1.4716203e-25 1.4257247e-25 5.297813e-26 4.8464955e-26 6.020768e-26 5.2084677e-26
8.2269234e-25 7.959101e-25 2.9616728e-25 2.9718989e-25 5.9507313 4.9436626 18.252203 18.090458
6.5708027 7.408569 2.4866374e-33 1.8805085e-28 3.0403221e-27 3.0403221e-27 1.0945144e-27 8.951938e-28
5.5140076e-25 9.126688e-25 1.5491419e-23 1.5491419e-23 5.5769074e-24 4.6271196e-24 1.0735981e-28 6.7033055e-27
1.1063628e-25 1.1063628e-25 3.98291e-26 3.2575567e-26 9.819137e-25 1.6545273e-24 2.8355447e-23 2.8355447e-23
1.02080195e-23 8.491277e-24 6.3706546e-28 2.0077092e-27 4.6491838e-26 5.5198465e-26 1.6736946e-26 1.5497746e-26
3.1509742e-25 5.154062e-25 9.063988e-24 9.048347e-24 3.2630579e-24 2.699144e-24 1.5515887e-34 1.0772149e-31
1.5041092e-30 1.5041092e-30 5.4147845e-31 5.3570386e-31 8.217508e-30 6.6022785e-28 1.091283e-26 1.091283e-26
3.928641e-27 3.213209e-27 1.2189021e-17 8.190951e-18 8.0823156e-17 8.0823156e-17 2.9096505e-17 2.6658388e-17
2.5951843e-20 2.3551256e-21 4.8506745e-19 4.8506745e-19 1.74626e-19 1.421728e-19 8.723518e-29 4.974593e-28
9.47186e-27 9.47186e-27 3.4098667e-27 3.3657517e-27 4.9468697e-22 3.1329698e-22 5.9446668e-21 6.2532528e-21
00000000: 18ab 832d 877e 962c 47e7 e630 59e6 e630
00000010: 1040 2630 8e10 2030 1f32 c819 61db 4719
00000020: 2a7a 0b1b bab7 f01a 24d9 481a d47e 4c1a
00000030: 0000 0000 0000 0000 0000 0000 0000 0000
00000040: 0000 0000 0000 0000 8628 0916 c996 5816
00000050: d7d0 5818 d7d0 5818 e31a 9c17 f925 8817
00000060: d603 9a3b 3118 663b 0853 6d3e c2ce 773e
00000070: 88df aa3d 2dee c33d d04e b824 03a1 8f24
00000080: b008 be26 b008 be26 1ad3 0826 c177 1126
00000090: 0fbc 7117 570d 4c17 1c1b 2420 1c1b 2420
000000a0: 1c50 6c1f e6f6 601f 3a4a 0117 8a28 1117
000000b0: c866 7719 6b14 7519 9c20 b218 7d78 d218
000000c0: 0000 0000 0000 0000 0000 0000 0000 0000
000000d0: 0000 0000 0000 0000 f61c b510 e962 1112
000000e0: cbfa 4d15 cbfa 4d15 eb4d 9414 2123 a914
000000f0: 0c16 1b16 c467 a316 0074 b318 0074 b318
00000100: b434 0118 685a d317 20e2 dc13 ce92 2914
00000110: 1898 8b16 1898 8b16 4903 c915 8ebf d115
00000120: dc4e ec16 9f3b 9b17 b494 a919 861a ac19
00000130: 4632 f418 8ba5 c718 3041 de15 7e67 3516
00000140: 3415 4218 5609 4418 42bd 8b17 c9d1 6717
00000150: 2a88 db39 c6e6 843a 8d65 a63d bb30 af3d
00000160: 899c ef3c c4b9 f63c 6291 3a3b 57a4 253b
00000170: 013f 123e 5a6b 233e 2398 523d 0c6d 7a3d
00000180: 6c5b 6116 4231 2317 3cb5 2a19 fa1f 2d19
00000190: 3dd2 7518 2c31 4b18 862c c123 37c2 8123
000001a0: f9a6 1d25 f9a6 1d25 5705 6324 6357 5024
000001b0: 4c46 0f26 58b7 a02b ca1a 282e ca1a 282e
000001c0: cf11 722d edfb 982d 8aea 8d39 11d0 5a39
000001d0: 917c a93a 65bb b439 900f f439 a26d 053a
000001e0: ab3e 8b1f 5611 a914 e52b 0624 e52b 0624
000001f0: e234 4123 d66a 0b23 0000 0000 0000 0000
00000200: 0000 0000 0000 0000 0000 0000 0000 0000
00000210: 44d2 7516 1bca c216 691b e818 691b e818
00000220: 541e 2718 4b48 0718 4fb2 4507 043c 050c
00000230: 0077 e80d 0077 e80d 975f 270d c696 250d
00000240: 19bc 4214 e997 1e14 d7cc 2616 d7cc 2616
00000250: 1831 7015 a0b6 4a15 839e 743d 4a39 393d
00000260: c269 d63f 29e4 d23f a360 1a3f 2dd3 233f
00000270: f244 1e1e fb55 5b1d 7bc8 8322 7bc8 8322
00000280: ffc4 bd21 e4be 8821 5c38 0d14 be79 0714
00000290: 98dd 0e16 98dd 0e16 37ba 4d15 5988 4b15
000002a0: 314b 0813 1c29 0e14 822d 3616 057f 3016
000002b0: e12a 8315 a1fc 6f15 2711 9515 96f4 8015
000002c0: 679c 7e17 7f52 7617 9451 b716 9ef3 b716
000002d0: 646c be40 7c32 9e40 8304 9241 42b9 9041
000002e0: 0444 d240 ff12 ed40 ee94 4e09 fd61 6e11
000002f0: 0fe1 7013 0fe1 7013 c76e ad12 60d9 8d12
00000300: 78a6 2a17 893a 8d17 e5d2 9519 e5d2 9519
00000310: 04bf d718 c600 b318 4018 0811 ccc5 0414
00000320: 09f6 0816 09f6 0816 6239 4515 704e 2115
00000330: 9cf1 9717 4a03 0018 581e 091a 581e 091a
00000340: aa73 4519 c43e 2419 e4e4 4912 2e11 1f13
00000350: 6837 6615 2faa 8815 33c1 a514 747b 9914
00000360: 2e09 c316 b082 1f17 b252 2f19 3f05 2f19
00000370: 8577 7c18 0ed6 5018 d43d 4e07 9bd4 0b0c
00000380: 400e f40d 400e f40d 45b8 2f0d 89d8 2d0d
00000390: beab 260f 0c3c 5112 9f26 5814 9f26 5814
000003a0: 27a1 9b13 9f93 7e13 06d9 6023 ac18 1723
000003b0: 925d ba24 925d ba24 172f 0624 57e1 f523
000003c0: b51b f51e c1f2 311d a92a 0f21 a92a 0f21
000003d0: 7829 4e20 18d9 2720 de2a dd10 b1a6 1d12
000003e0: 099c 3b14 099c 3b14 2814 8713 c754 8513
000003f0: 8d82 151c 5c60 bd1b 4a95 e01d c03d ec1d

exp_avg f4 [64]
6e-45 6e-45 0.0 6e-45 -0.007594228 6e-45 6e-45 6e-45
0.0 6e-45 6e-45 6e-45 6e-45 6e-45 -0.0062345816 -0.0011505609
6e-45 6e-45 6e-45 1.1568769e-15 6e-45 0.0 6e-45 6e-45
6e-45 -0.058493655 6e-45 6e-45 6e-45 6e-45 -0.78366554 6e-45
6e-45 6e-45 6e-45 6e-45 6e-45 6e-45 6e-45 6e-45
6e-45 6e-45 6e-45 6e-45 6e-45 0.21293218 6e-45 -0.0015013078
6e-45 6e-45 0.24712174 6e-45 6e-45 6e-45 6e-45 6e-45
6e-45 6e-45 6e-45 6e-45 6e-45 6e-45 6e-45 6e-45
00000000: 0400 0000 0400 0000 0000 0000 0400 0000
00000010: 00d9 f8bb 0400 0000 0400 0000 0400 0000
00000020: 0000 0000 0400 0000 0400 0000 0400 0000
00000030: 0400 0000 0400 0000 764b ccbb 6bce 96ba
00000040: 0400 0000 0400 0000 0400 0000 39b9 a626
00000050: 0400 0000 0000 0000 0400 0000 0400 0000
00000060: 0400 0000 0b97 6fbd 0400 0000 0400 0000
00000070: 0400 0000 0400 0000 4e9e 48bf 0400 0000
00000080: 0400 0000 0400 0000 0400 0000 0400 0000
00000090: 0400 0000 0400 0000 0400 0000 0400 0000
000000a0: 0400 0000 0400 0000 0400 0000 0400 0000
000000b0: 0400 0000 e50a 5a3e 0400 0000 88c7 c4ba
000000c0: 0400 0000 0400 0000 7b0d 7d3e 0400 0000
000000d0: 0400 0000 0400 0000 0400 0000 0400 0000
000000e0: 0400 0000 0400 0000 0400 0000 0400 0000
000000f0: 0400 0000 0400 0000 0400 0000 0400 0000

exp_avg_sq f4 [64]
5.8231187e-10 4.2288662e-23 0.0 8.79838e-25 0.09566913 5.046928e-16 4.7638075e-20 5.440539e-24
0.0 1.7078495e-26 1.3658377e-24 8.471665e-26 5.160745e-24 7.490491e-25 0.030117877 0.06113916
2.626196e-24 4.517683e-17 1.7392277e-11 0.0005089884 7.5578285e-18 0.0 1.748484e-24 5.1026037e-31
4.093764e-26 0.63994104 9.266247e-19 4.1103083e-26 4.8464955e-26 2.9718989e-25 7.408569 8.951938e-28
4.6271196e-24 3.2575567e-26 8.491277e-24 1.5497746e-26 2.699144e-24 5.3570386e-31 3.213209e-27 2.6658388e-17
1.421728e-19 3.3657517e-27 2.1641266e-21 2.0022928e-26 5.680508e-23 4.1552615 2.2221636e-23 0.08332674
1.0445102e-26 9.4132516e-24 3.7171772 2.046963e-18 3.149118e-26 3.2845688e-17 3.4436914e-25 7.837065e-26
1.9495052e-26 7.6985725e-26 2.4249217e-25 5.594556e-14 1.9097266e-17 3.335009e-24 7.6664956e-22 1.0309735e-23
00000000: 8e10 2030 d47e 4c1a 0000 0000 f925 8817
00000010: 2dee c33d c177 1126 e6f6 601f 7d78 d218
00000020: 0000 0000 2123 a914 685a d317 8ebf d115
00000030: 8ba5 c718 c9d1 6717 c4b9 f63c 0e6d 7a3d
00000040: 2c31 4b18 6357 5024 edfb 982d a26d 053a
00000050: d66a 0b23 0000 0000 4b48 0718 c696 250d
00000060: a0b6 4a15 2dd3 233f e4be 8821 5988 4b15
00000070: a1fc 6f15 9ef3 b716 ff12 ed40 60d9 8d12
00000080: c600 b318 704e 2115 c43e 2419 747b 9914
00000090: 0ed6 5018 89d8 2d0d 9f93 7e13 57e1 f523
000000a0: 18d9 2720 c754 8513 4c84 231d 274c c614
000000b0: a458 891a e7f7 8440 1bea d619 36a7 aa3d
000000c0: f6e2 4e14 2a14 3619 3be6 6d40 0a0a 1722
000000d0: d0ef 1b15 5879 1724 7827 d516 4d09 c215
000000e0: d411 c114 809b be15 6b18 9616 d7f4 7b29
000000f0: 2524 b023 5404 8118 a3b4 671c 566b 4719
