models/paddle_dqn_model_checkpoint_30000.pth (torch, 52785 bytes, 24 tensors)

network.0.weight f4 [64, 6]
-2.4954088 -2.8738031 -0.10894228 -0.2721774 0.08501512 -0.3808784 0.2499714 0.02072094
0.01672489 0.14930117 -0.10577404 -0.16840713 0.17513299 0.14234093 -0.24410564 -0.007001087
0.12565336 -0.26675755 -0.665411 -0.11003658 0.21019103 0.10887608 -0.22286278 0.064017445
-2.792328 -3.8140829 0.19470574 -1.6127905 0.265763 0.40552524 -0.67034674 -0.43007568
0.22146125 -0.10278006 0.02500965 -0.33558342 -0.04054483 -0.74684346 -0.053728778 -0.11869893
0.04034348 -0.7867523 -0.6385181 -0.8460242 0.21071391 -0.057122618 -0.24447215 -0.39195555
-0.35496497 0.038459916 -0.08688177 0.0335792 0.2051083 -0.22018631 -0.8181329 -0.85647476
-0.10155048 -0.039614476 -0.10171561 -0.086304285 0.112957016 -0.42473975 0.20718615 -0.20414662
-0.029336205 -0.4596482 -0.0042173276 0.11727314 -0.041272245 0.07050664 0.06912135 0.12375388
-0.46053973 -0.031293526 -0.107637875 -0.042338848 0.068127215 -0.26980686 -0.030994456 -0.38792083
0.12183872 0.11829977 0.05177833 -0.4671692 -10.436104 -7.2249775 -0.32891926 -0.6180955
-0.21613906 0.7776955 -7.377992 -1.6789013 0.01966255 -1.3593732 0.025047403 0.6998311
0.10038913 -0.03134841 0.10277805 0.056420643 -0.21341337 0.12825567 -0.23836094 -0.6747125
0.24545655 0.01125428 0.082957216 -0.50857544 -3.8248243 1.9309111 -0.019607266 -0.15466474
0.07172947 -0.6622785 -1.1486086 0.08621357 -0.06036818 0.09355305 0.14964981 0.042488255
-0.7681146 -0.49323007 0.1191993 -0.09923165 0.39926544 -0.87584996 -0.30481648 0.39440265
0.08626555 0.023830522 -0.20053998 -0.4074568 -0.50753474 -0.1693629 0.0868746 -0.0993694
0.08357992 -0.64409345 -0.4025429 0.33541632 0.107354015 0.07359943 -0.15007712 -0.22934185
-0.29795983 0.07461424 0.16815276 -0.1051388 0.100600235 -0.47993624 -4.892084 2.1560502
0.5081616 -1.7419788 0.5261127 0.12784085 -1.0322621 -0.513671 0.020960415 -0.08806066
0.20734319 -0.9608954 0.1433031 -0.051661063 0.12149429 0.05939995 -0.098019145 -0.5006587
0.015618991 -0.045207046 -0.11660648 0.1026173 0.29264262 -0.0005932767 -0.065120675 -0.11466425
-0.052543733 0.09381986 -0.08693477 -0.40765142 -7.6288176 2.8639853 -0.5607921 -1.1232603
-0.33189023 0.9776103 -0.16090254 -0.46255916 0.03752303 -0.058241487 0.27945268 -0.27353418
0.31139183 -0.49547052 -0.103213556 -0.10215574 0.2391029 -0.3230187 -0.066703774 0.08552445
0.25850525 0.041148767 -0.2473686 -0.174586 -0.33972293 -0.19920117 0.136712 0.07636683
0.12912403 -0.50897604 0.051008496 -0.03372758 0.21151528 0.018406065 -0.33150274 -0.0125710005
-0.5922215 -0.53135914 -0.025043117 0.2058027 0.09597686 -0.12712371 -0.3494626 0.046572022
-0.3434231 -0.012641417 0.26844835 -0.17260933 -0.04678803 -0.06861979 0.23503044 0.14140087
-0.28220627 -0.2161646 0.030351073 -0.8169147 0.36708274 -0.044764005 -0.06891824 -0.56517524
-0.22880018 -1.0308592 -0.20323454 -0.07256646 0.24706298 -0.49817914 -0.4258416 -0.4912484
-0.10619684 0.025714729 0.25572857 -0.37361684 -0.67536885 -0.8767614 0.052982584 -0.1264185
00000000: c7b4 1fc0 64ec 37c0 211d dfbd d65a 8bbe
00000010: 681c ae3d 7e02 c3be 81f8 7f3e f6be a93c
00000020: a302 893c 68e2 183e 0fa0 d8bd eb72 2cbe
00000030: 1056 333e d2c1 113e d4f6 79be 6069 e5bb
00000040: 46ab 003e 7294 88be 6058 2abf dc5a e1bd
00000050: 513c 573e 6cfa de3d 2436 64be 941b 833d
00000060: 80b5 32c0 ef19 74c0 f160 473e eb6f cebf
00000070: 1712 883e 01a1 cf3e d89b 2bbf e132 dcbe
00000080: bdc6 623e 5a7e d2bd 0ae1 cc3c 97d1 abbe
00000090: 5612 26bd 2231 3fbf b512 5cbd 6d18 f3bd
000000a0: 343f 253d 9968 49bf ec75 23bf 0b95 58bf
000000b0: 63c5 573e 68f9 69bd e856 7abe 66ae c8be
000000c0: f8bd b5be 2588 1d3d 12ef b1bd 588a 093d
000000d0: e907 523e 8578 61be 2871 51bf ee41 5bbf
000000e0: b3f9 cfbd ca42 22bd 4650 d0bd 4dc0 b0bd
000000f0: 0256 e73d 7d77 d9be 9b28 543e d00b 51be
00000100: 7b52 f0bc 0257 ebbe 8231 8abb e62c f03d
00000110: 160d 29bd c965 903d 7f8f 8d3d ad72 fd3d
00000120: ddcb ebbe a42d 00bd 3f71 dcbd 806b 2dbd
00000130: 4886 8b3d 2024 8abe 16e8 fdbc 8f9d c6be
00000140: 9486 f93d 2647 f23d 8415 543d cd30 efbe
00000150: 48fa 26c1 0433 e7c0 1b68 a8be 823b 1ebf
00000160: 8f53 5dbe 0d17 473f 8318 ecc0 3de6 d6bf
00000170: 5b13 a13c f1ff adbf 3630 cd3c 2228 333f
00000180: d198 cd3d 3167 00bd 4c7d d23d 5519 673d
00000190: 0989 5abe 7455 033e e414 74be f5b9 2cbf
000001a0: f658 7b3e df63 383c 79e5 a93d 0032 02bf
000001b0: ecc9 74c0 1828 f73f 6b9f a0bc 6f60 1ebe
000001c0: e6e6 923d 158b 29bf 9b05 93bf bd90 b03d
000001d0: a044 77bd be98 bf3d cd3d 193e 2a08 2e3d
000001e0: 29a3 44bf a788 fcbe c31e f43d f739 cbbd
000001f0: 856c cc3e b437 60bf e810 9cbe 25ef c93e
00000200: feab b03d 3a38 c33c 5a5a 4dbe 2d9e d0be
00000210: cced 01bf 786d 2dbe 4feb b13d 2f82 cbbd
00000220: f32b ab3d 4fe3 24bf 1a1a cebe b0bb ab3e
00000230: 6cdc db3d 4cbb 963d d1ad 19be 97d8 6abe
00000240: 318e 98be 5acf 983d 3d30 2c3e 0353 d7bd
00000250: 7f07 ce3d 34ba f5be f48b 9cc0 bafc 0940
00000260: e116 023f 29f9 debf 52af 063f b6e8 023e
00000270: 2a21 84bf f17f 03bf 2db5 ab3c 2659 b4bd
00000280: c651 543e 3efd 75bf 0cbe 123e 8d9a 53bd
00000290: 00d2 f83d 5d4d 733d 43be c8bd 2b2b 00bf
000002a0: cce6 7f3c 062b 39bd 61cf eebd 0529 d23d
000002b0: 41d5 953e 2086 1bba fd5d 85bd 17d5 eabd
000002c0: 1938 57bd a024 c03d db0a b2bd b0b7 d0be
000002d0: 461f f4c0 894b 3740 1290 0fbf fec6 8fbf
000002e0: 84ed a9be ab44 7a3f a3c3 24be 8ed4 ecbe
000002f0: c0b1 193d a08e 6ebd 6c14 8f3e ac0c 8cbe
00000300: c06e 9f3e 50ae fdbe a161 d3bd 0737 d1bd
00000310: 64d7 743e b562 a5be fd9b 88bd 7127 af3d
00000320: cd5a 843e 9c8b 283d 324e 7dbe acc6 32be
00000330: 2af0 adbe 64fb 4bbe 3bfe 0b3e 3666 9c3d
00000340: 1739 043e 414c 02bf 49ee 503d ee25 0abd
00000350: 7697 583e 51c8 963c baba a9be 99f6 4dbc
00000360: d49b 17bf 2707 08bf 3927 cdbc f1bd 523e
00000370: 848f c43d b82c 02be c3ec b2be 4ec2 3e3d
00000380: 27d5 afbe f21d 4fbc 1072 893e 80c0 30be
00000390: cea4 3fbd 8888 8cbd d2ab 703e 64cb 103e
000003a0: 577d 90be 415a 5dbe d0a2 f83c 5221 51bf
000003b0: 45f2 bb3e 765a 37bd 0225 8dbd 53af 10bf
000003c0: 984a 6abe 32f3 83bf b71c 50be b99d 94bd
000003d0: 14fe 7c3e 5611 ffbe e907 dabe e984 fbbe
000003e0: bb7d d9bd b2a7 d23c dbee 823e b54a bfbe
000003f0: f9e4 2cbf 6f73 60bf 4404 593d da73 01be

network.0.bias f4 [64]
-0.4374805 -0.60209996 -0.38203627 -0.4780016 0.60121334 -0.34645262 -0.88557535 -0.45833954
0.03534479 -0.7645624 -0.48121604 -0.5110005 -0.086431086 -0.12120865 0.84557754 1.2067552
-0.42842478 -0.7381799 -0.5949496 -0.31280664 -0.2658757 -0.18150252 -0.40378976 -0.27748463
-0.34992567 -0.10062835 -0.27721527 -0.20036395 -0.65378886 -0.2349727 0.83633614 -0.28910992
-0.1570901 -0.4551917 -0.1912034 -0.32195106 -0.3461539 -0.38224977 -0.34304395 -0.43072143
-0.72245675 -0.09181371 -0.56176454 -0.7031872 -0.23981093 0.68932325 -0.7264198 0.5016342
-0.30559057 -0.64497274 0.08383397 -0.3489479 -0.40289333 -0.32304466 -0.14006115 -0.40295166
-0.099340424 -0.4180724 -0.18934685 -0.46192712 -0.6297718 -0.11896633 -0.8464935 -0.5127665
00000000: 72fd dfbe 3923 1abf 429a c3be a0bc f4be
00000010: 1ee9 193f 3d62 b1be 11b5 62bf 7bab eabe
00000020: b3c5 103d 5dba 43bf f361 f6be eed0 02bf
00000030: c802 b1bd 3e3c f8bd c577 583f f476 9a3f
00000040: 7e5a dbbe 5cf9 3cbf 9e4e 18bf 3128 a0be
00000050: dc20 88be ccdb 39be 88bd cebe 7712 8ebe
00000060: 7529 b3be 3d16 cebd 29ef 8dbe 352c 4dbe
00000070: b55e 27bf af9c 70be 201a 563f 3706 94be
00000080: 3adc 20be e30e e9be d3ca 43be c5d6 a4be
00000090: 153b b1be 3eb6 c3be 75a3 afbe 8587 dcbe
000000a0: edf2 38bf d408 bcbd cdcf 0fbf 1404 34bf
000000b0: ff90 75be 7d77 303f a6f6 39bf 196b 003f
000000c0: 5e76 9cbe ef1c 25bf 25b1 ab3d 4da9 b2be
000000d0: 0948 cebe 1c66 a5be 316c 0fbe ae4f cebe
000000e0: fe72 cbbd 960d d6be 24e4 41be b681 ecbe
000000f0: ba38 21bf 9fa4 f3bd ccb3 58bf aa44 03bf

network.2.weight f4 [32, 64]
-0.22526555 0.004673311 -0.073710576 -0.09060293 -0.12288103 0.0578816 -0.13222247 -0.11279717
0.055354908 -0.05747512 -0.01810781 0.068268925 -0.039503235 0.034825634 -0.17633116 -0.27113578
0.0033497268 0.043968216 -0.36951336 0.011485258 0.1984763 -0.08876881 -0.14845823 0.0095579475
0.08709186 0.067830056 0.2631397 0.018400058 -0.04388213 -0.022319704 -0.26331982 0.037708476
-0.09133926 -0.037108675 -0.03885443 0.030761823 -0.03510633 0.013406083 0.052067995 -0.16697554
-0.1823829 0.09157543 -0.16155753 -0.05959271 -0.09885265 -0.1656211 0.1371253 -0.052799262
-0.07164317 -0.017183872 -0.3509573 0.00036741572 0.015752092 -0.060407355 -0.120744914 -0.06383644
0.030142099 0.031501457 0.003594786 -0.054660678 -0.098016016 -0.108139366 -0.05944262 -0.20617269
-0.06886198 -0.12023791 0.08033693 -0.15134025 -0.17668344 -0.13026294 0.11252325 -0.074377246
-0.04499753 0.02658759 0.044646908 0.02397593 -0.07465392 -0.0985353 -0.3783198 0.048525356
-0.17095049 -0.05596484 0.032414045 0.030356051 -0.15867563 -0.00092591345 -0.01631366 0.0659858
0.04345351 -0.08984301 0.058042184 0.03136996 -0.08062182 -0.01841771 -0.09727917 -0.09180935
-0.16617279 0.09147011 0.035182662 -0.123119846 0.05565655 -0.11846191 -0.0870339 -0.032091606
-0.12373274 -0.07840739 -0.13928309 -0.07413556 -0.050604332 -0.17511669 -0.015786104 -0.021596758
0.033141673 0.061269496 -0.2787199 0.02257934 0.1177104 -0.16206852 -0.12030621 0.033076003
0.042941518 0.16874988 0.023554062 -0.103967465 -0.17139374 -0.0049834154 0.05087571 -0.08367654
-0.10026777 -0.0629269 -0.057889044 0.11126043 -0.066998646 -0.115102105 -0.20960724 -0.0055713803
0.09283498 0.008043602 -0.08180401 -0.123650394 -0.11141075 0.09340304 -0.19899599 -0.2549857
0.11976209 -0.0027083124 0.021522895 -0.044202104 -0.04620961 -0.03463149 -0.09238906 -0.07182206
-0.13927647 -0.10083823 0.043792382 -0.13133445 -0.0037486106 -0.014293946 0.09177707 -0.06740315
-0.016957492 -0.012915954 -0.010008872 0.012210637 0.014709234 -0.039543584 -0.120428264 -0.010076284
-0.23804313 0.033358566 -0.2155698 0.052198686 -0.06615763 -0.079059646 -0.0878479 -0.096014604
-0.033629403 -0.008874944 0.016535938 -0.10812508 -0.09929085 0.05247788 -0.10150963 0.027459368
-0.19874704 -0.08341487 0.11443919 -0.034450702 -0.053149834 -0.03864862 -0.054031238 0.016253853
-0.08234476 0.011105812 -0.04917504 -0.0553283 -0.046907723 -0.15835103 -0.09374808 -0.023413286
-0.031004652 -0.033172738 0.055608876 -0.025300428 -0.047705382 -0.11613417 -0.12676835 -0.1329373
-0.105827905 0.037977353 -0.23005497 0.024649162 -0.03518255 0.0385637 -0.020514363 -0.05173032
-0.118016854 -0.32226104 -0.0893497 0.10976261 -0.11677845 -0.12362024 0.053600214 -0.052125156
-0.15236744 -0.05740547 -0.017661681 -0.0063211024 0.0122468285 -0.041996032 -0.093057945 -0.1338065
-0.16429114 0.04675658 -0.15640493 0.08477524 -0.13072623 0.01113885 -0.06653174 -0.23455802
-0.08863106 -0.2529391 -0.2707111 0.0034428658 -0.026561514 -0.23883674 -0.060097396 0.03160736
0.11711149 -0.045699403 -0.109004214 0.0011413696 -0.09324696 -0.041511577 0.00852715 -0.2263086
00000000: 03ac 66be 9322 993b 92f5 96bd 078e b9bd
00000010: 0da9 fbbd 4215 6d3d 5465 07be 3402 e7bd
00000020: d4bb 623d 086b 6bbd d456 94bc 94d0 8b3d
00000030: 25ce 21bd 53a5 0e3d 2890 34be 4fd2 8abe
00000040: 1787 5b3b 0418 343d db30 bdbe aa2c 3c3c
00000050: 5f3d 4b3e 6ccc b5bd 6f05 18be f098 1c3c
00000060: 385d b23d 7cea 8a3d 3fba 863e b8bb 963c
00000070: c0bd 33bd d0d7 b6bc dbd1 86be 3474 1a3d
00000080: 1410 bbbd 44ff 17bd d325 1fbd 3800 fc3c
00000090: a8cb 0fbd 30a5 5b3c 4045 553d a3fb 2abe
000000a0: 95c2 3abe e68b bb3d 566f 25be 7c17 74bd
000000b0: 4273 cabd 9498 29be 936a 0c3e 0a44 58bd
000000c0: a8b9 92bd 31c5 8cbc adb0 b3be b4a1 c039
000000d0: 880a 813c b46d 77bd 1c49 f7bd aebc 82bd
000000e0: 90ec f63c ac07 013d 8096 6b3b e0e3 5fbd
000000f0: 9fbc c8bd 2c78 ddbd 1b7a 73bd ef1e 53be
00000100: 8307 8dbd 4b3f f6bd b087 a43d f0f8 1abe
00000110: 81ec 34be a663 05be 9772 e63d 1953 98bd
00000120: 544f 38bd 38ce d93c addf 363d 2b69 c43c
00000130: 28e4 98bd e0cc c9bd 22b3 c1be 86c2 463d
00000140: a50d 2fbe 633b 65bd 97c4 043d 41ad f83c
00000150: dd7b 22be 00b9 72ba 3aa4 85bc 9023 873d
00000160: 4ffc 313d 9dff b7bd a4bd 6d3d ca7d 003d
00000170: 0e1d a5bd bde0 96bc 4d3a c7bd 8a06 bcbd
00000180: 3329 2abe ae54 bb3d b21b 103d 4226 fcbd
00000190: 1ff8 633d 289c f2bd d43e b2bd 7d72 03bd
000001a0: 9767 fdbd 0e94 a0bd 3aa0 0ebe 62d4 97bd
000001b0: 7d46 4fbd ca51 33be dc51 81bc afeb b0bc
000001c0: 90bf 073d b9f5 7a3d 60b4 8ebe 4ff8 b83c
000001d0: 2612 f13d 4af5 25be 1a63 f6bd b47a 073d
000001e0: 72e3 2f3d c5cc 2c3e 73f4 c03c e5ec d4bd
000001f0: d781 2fbe eb4b a3bb 0c63 503d 9b5e abbd
00000200: 3059 cdbd d2df 80bd 101d 6dbd 82dc e33d
00000210: 9636 89bd a7ba ebbd 48a3 56be 2090 b6bb
00000220: 4420 be3d 50c9 033c dc88 a7bd 6b3c fdbd
00000230: 522b e4bd 184a bf3d 9bc5 4bbe 7c8d 82be
00000240: d445 f53d f17d 31bb c850 b03c 440d 35bd
00000250: 4a46 3dbd c0d9 0dbd 7a36 bdbd 7217 93bd
00000260: 7e9e 0ebe 4684 cebd a45f 333d 8a7c 06be
00000270: 40ab 75bb 2831 6abc 9ef5 bb3d aa0a 8abd
00000280: 70ea 8abc 709d 53bc 40fc 23bc 200f 483c
00000290: 00ff 703c 74f8 21bd 18a3 f6bd 0017 25bc
000002a0: 94c1 73be fea2 083d 54be 5cbe 4ace 553d
000002b0: a77d 87bd 06ea a1bd 9ae9 b3bd 4ea3 c4bd
000002c0: fcbe 09bd 3768 11bc 6076 873c af70 ddbd
000002d0: 0059 cbbd 0cf3 563d 48e4 cfbd 78f2 e03c
000002e0: 5884 4bbe 6ad5 aabd 185f ea3d 2e1c 0dbd
000002f0: a4b3 59bd 044e 1ebd dc4f 5dbd cd26 853c
00000300: 5fa4 a8bd 27f5 353c c46b 49bd ed9f 62bd
00000310: 5022 40bd c626 22be fefe bfbd 38cd bfbc
00000320: 78fd fdbc 23e0 07bd 22c6 633d d842 cfbc
00000330: b866 43bd c0d7 edbd 90cf 01be b720 08be
00000340: 4dbc d8bd 248e 1b3d 8893 6bbe 0aed c93c
00000350: 941b 10bd f8f4 1d3d bd0d a8bc 2ce3 53bd
00000360: d2b2 f1bd 66ff a4be fafc b6bd 38cb e03d
00000370: 8a29 efbd 9c2c fdbd e68b 5b3d 3081 55bd
00000380: 3606 1cbe 0022 6bbd 3baf 90bc 4021 cfbb
00000390: eca6 483c 0804 2cbd 2a95 bebd 9204 09be
000003a0: f03b 28be d483 3f3d 9d28 20be a49e ad3d
000003b0: 19dd 05be b97f 363c cb41 88bd fa2f 70be
000003c0: 3484 b5bd 3c81 81be a59a 8abe b4a1 613b
000003d0: 8897 d9bc 9e91 74be b028 76bd b876 013d
000003e0: 26d8 ef3d 4c2f 3bbd 9a3d dfbd 029a 953a
000003f0: 43f8 bebd 0b08 2abd 76b5 0b3c 71bd 67be

network.2.bias f4 [32]
-0.2910929 -0.26580182 -0.20155808 -0.43152258 -0.037806988 -0.4388456 -0.5264422 -0.4029012
-0.3496379 -0.48972562 2.690524 -0.45368883 3.0802448 -0.13736662 -0.5425435 -0.07456812
-0.12627566 -0.10605544 -0.45197755 0.084986284 -0.32310987 1.7774736 -0.1511692 2.2633102
-0.31760302 -0.46193507 -0.43803576 -0.32194695 -0.18641788 -0.06746545 -0.16050795 -0.30480418
00000000: 210a 95be 2d17 88be 3e65 4ebe 87f0 dcbe
00000010: 80db 1abd 5fb0 e0be ebc4 06bf 1149 cebe
00000020: bd03 b3be 51bd fabe 8c31 2c40 e749 e8be
00000030: bb22 4540 d6a9 0cbe 21e4 0abf 2cb7 98bd
00000040: 684e 01be 9833 d9bd 9a69 e7be 4a0d ae3d
00000050: a86e a5be 4184 e33f 19cc 1abe 13da 1040
00000060: dd9c a2be c182 ecbe 3946 e0be 3bd6 a4be
00000070: 54e4 3ebe 532b 8abd 325c 24be 4b0f 9cbe

network.4.weight f4 [3, 32]
0.14747506 -0.0019538933 0.047789525 0.28654936 0.019921722 -0.1502647 0.14071146 -0.05160608
-0.27925563 -0.16892661 4.0508294 0.25542614 -3.6761577 -0.1419646 0.10003089 0.052102912
0.027951315 0.09495782 0.025400845 2.189779 -0.0784869 3.1279483 0.06855386 1.8750913
-0.13477945 0.18078668 0.0073143956 0.029208817 -0.028630609 0.09582927 0.19932164 -0.006894018
-0.007440058 -0.014070381 -0.023020055 -0.013397974 -0.028948005 0.4540657 0.27025324 0.19367418
-0.51296514 -0.014636698 3.678526 0.10667761 -3.4454145 0.037759356 0.1594426 0.084908776
0.045901056 0.08372987 -0.293953 2.1593728 0.31842852 3.2476077 -0.030409383 1.8907934
-0.012912032 0.011348516 -0.10530626 0.02570091 -0.0042122276 -0.01016992 -0.06495327 -0.036309123
0.18353234 0.033756915 0.11678897 0.08556136 0.05041101 0.48820797 0.094727695 -0.30386347
0.5746487 0.07713442 4.048629 -0.02870583 -3.290685 0.08234274 0.187015 -0.027362479
-0.06854881 -0.19784804 0.09832813 1.9878076 -0.104878895 2.7781312 -0.16587336 2.0729291
0.18120396 0.17337777 -0.23567042 0.15589246 -0.047978897 0.030362578 0.09975412 -0.02113687
00000000: b403 173e e40c 00bb f3be 433d 99b6 923e
00000010: e132 a33c fdde 19be aa16 103e e660 53bd
00000020: 98fa 8ebe 19fb 2cbe 65a0 8140 37c7 823e
00000030: 2b46 6bc0 2b5f 11be ffdc cc3d dd69 553d
00000040: 28fa e43c 3f79 c23d 6f15 d03c 5725 0c40
00000050: bdbd a0bd 4e30 4840 f765 8c3d fe02 f03f
00000060: a003 0abe 2520 393e 99ad ef3b 5447 ef3c
00000070: bd8a eabc 2342 c43d f91a 4c3e 37e7 e1bb
00000080: bbcb f3bb 7587 66bc 8e94 bcbc 2d83 5bbc
00000090: 5e24 edbc 4d7b e83e a25e 8a3e 8652 463e
000000a0: af51 03bf c3ce 6fbc f86c 6b40 ca79 da3d
000000b0: ac81 5cc0 8ea9 1a3d ec44 233e a7e4 ad3d
000000c0: bf02 3c3d 917a ab3d 0281 96be 2a33 0a40
000000d0: 1009 a33e ced8 4f40 191d f9bc 8505 f23f
000000e0: fd8c 53bc 20ef 393c cfaa d7bd b78a d23c
000000f0: ba06 8abb bc9f 26bc 3806 85bd e0b8 14bd
00000100: e7ef 3b3e b144 0a3d 0e2f ef3d cb3a af3d
00000110: c67b 4e3d 65f6 f93e 9800 c23d fe93 9bbe
00000120: 2d1c 133f a7f8 9d3d 5e8e 8140 7d28 ebbc
00000130: 959a 52c0 4fa3 a83d dc80 3f3e 4727 e0bc
00000140: 5263 8cbd ad98 4abe 4260 c93d 7b70 fe3f
00000150: bfca d6bd e7cc 3140 b5da 29be dfaa 0440
00000160: 888d 393e f189 313e 9653 71be 46a2 1f3e
00000170: 8585 44bd f1ba f83c e34b cc3d 3b27 adbc

network.4.bias f4 [3]
6.7767015 6.605809 5.554932
00000000: bdda d840 ca62 d340 01c2 b140

network.0.weight f4 [64, 6]
-2.4954088 -2.8738031 -0.10894228 -0.2721774 0.08501512 -0.3808784 0.2499714 0.02072094
0.01672489 0.14930117 -0.10577404 -0.16840713 0.17513299 0.14234093 -0.24410564 -0.007001087
0.12565336 -0.26675755 -0.665411 -0.11003658 0.21019103 0.10887608 -0.22286278 0.064017445
-2.792049 -3.760324 0.17915876 -1.6298636 0.25021598 0.41162878 -0.67034674 -0.43007568
0.22146125 -0.10278006 0.02500965 -0.33558342 -0.04054483 -0.74684346 -0.053728778 -0.11869893
0.04034348 -0.7867523 -0.6385181 -0.8460242 0.21071391 -0.057122618 -0.24447215 -0.39195555
-0.35496497 0.038459916 -0.08688177 0.0335792 0.2051083 -0.22018631 -0.8181329 -0.85647476
-0.10155048 -0.039614476 -0.10171561 -0.086304285 0.112957016 -0.42473975 0.20718615 -0.20414662
-0.029336205 -0.4596482 -0.0042173276 0.11727314 -0.041272245 0.07050664 0.06912135 0.12375388
-0.46053973 -0.031293526 -0.107637875 -0.042338848 0.068127215 -0.26980686 -0.030994456 -0.38792083
0.12183872 0.11829977 0.05177833 -0.4671692 -10.324421 -7.273463 -0.32967702 -0.60905385
-0.21689679 0.7966508 -7.4079623 -1.6653707 0.01671002 -1.358654 0.02209487 0.69216996
0.10038913 -0.03134841 0.10277805 0.056420643 -0.21341337 0.12825567 -0.23836094 -0.6747125
0.24545655 0.01125428 0.082957216 -0.50857544 -3.8248243 1.9309111 -0.019607266 -0.15466474
0.07172947 -0.6622785 -1.1486086 0.08621357 -0.06036818 0.09355305 0.14964981 0.042488255
-0.7681146 -0.49323007 0.1191993 -0.09923165 0.39926544 -0.87584996 -0.30481648 0.39440265
0.08626555 0.023830522 -0.20053998 -0.4074568 -0.50753474 -0.1693629 0.0868746 -0.0993694
0.08357992 -0.64409345 -0.4025429 0.33541632 0.107354015 0.07359943 -0.15007712 -0.22934185
-0.29795983 0.07461424 0.16815276 -0.1051388 0.100600235 -0.47993624 -4.8980937 2.2108707
0.49699318 -1.755175 0.5149444 0.13576728 -1.0322621 -0.513671 0.020960415 -0.08806066
0.20734319 -0.9608954 0.1433031 -0.051661063 0.12149429 0.05939995 -0.098019145 -0.5006587
0.015618991 -0.045207046 -0.11660648 0.1026173 0.29264262 -0.0005932767 -0.065120675 -0.11466425
-0.052543733 0.09381986 -0.08693477 -0.40765142 -7.619953 2.8666713 -0.56323594 -1.1157695
-0.33433393 0.9883567 -0.16090254 -0.46255916 0.03752303 -0.058241487 0.27945268 -0.27353418
0.31139183 -0.49547052 -0.103213556 -0.10215574 0.2391029 -0.3230187 -0.066703774 0.08552445
0.25850525 0.041148767 -0.2473686 -0.174586 -0.33972293 -0.19920117 0.136712 0.07636683
0.12912403 -0.50897604 0.051008496 -0.03372758 0.21151528 0.018406065 -0.33150274 -0.0125710005
-0.5922215 -0.53135914 -0.025043117 0.2058027 0.09597686 -0.12712371 -0.3494626 0.046572022
-0.3434231 -0.012641417 0.26844835 -0.17260933 -0.04678803 -0.06861979 0.23503044 0.14140087
-0.28220627 -0.2161646 0.030351073 -0.8169147 0.36708274 -0.044764005 -0.06891824 -0.56517524
-0.22880018 -1.0308592 -0.20323454 -0.07256646 0.24706298 -0.49817914 -0.4258416 -0.4912484
-0.10619684 0.025714729 0.25572857 -0.37361684 -0.67536885 -0.8767614 0.052982584 -0.1264185
00000000: c7b4 1fc0 64ec 37c0 211d dfbd d65a 8bbe
00000010: 681c ae3d 7e02 c3be 81f8 7f3e f6be a93c
00000020: a302 893c 68e2 183e 0fa0 d8bd eb72 2cbe
00000030: 1056 333e d2c1 113e d4f6 79be 6069 e5bb
00000040: 46ab 003e 7294 88be 6058 2abf dc5a e1bd
00000050: 513c 573e 6cfa de3d 2436 64be 941b 833d
00000060: eeb0 32c0 26a9 70c0 6575 373e 5f9f d0bf
00000070: 4f1c 803e 02c1 d23e d89b 2bbf e132 dcbe
00000080: bdc6 623e 5a7e d2bd 0ae1 cc3c 97d1 abbe
00000090: 5612 26bd 2231 3fbf b512 5cbd 6d18 f3bd
000000a0: 343f 253d 9968 49bf ec75 23bf 0b95 58bf
000000b0: 63c5 573e 68f9 69bd e856 7abe 66ae c8be
000000c0: f8bd b5be 2588 1d3d 12ef b1bd 588a 093d
000000d0: e907 523e 8578 61be 2871 51bf ee41 5bbf
000000e0: b3f9 cfbd ca42 22bd 4650 d0bd 4dc0 b0bd
000000f0: 0256 e73d 7d77 d9be 9b28 543e d00b 51be
00000100: 7b52 f0bc 0257 ebbe 8231 8abb e62c f03d
00000110: 160d 29bd c965 903d 7f8f 8d3d ad72 fd3d
00000120: ddcb ebbe a42d 00bd 3f71 dcbd 806b 2dbd
00000130: 4886 8b3d 2024 8abe 16e8 fdbc 8f9d c6be
00000140: 9486 f93d 2647 f23d 8415 543d cd30 efbe
00000150: d430 25c1 35c0 e8c0 6dcb a8be f4ea 1bbf
00000160: 311a 5ebe 4ff1 4b3f 070e edc0 de2a d5bf
00000170: 74e3 883c 60e8 adbf 4d00 b53c 0d32 313f
00000180: d198 cd3d 3167 00bd 4c7d d23d 5519 673d
00000190: 0989 5abe 7455 033e e414 74be f5b9 2cbf
000001a0: f658 7b3e df63 383c 79e5 a93d 0032 02bf
000001b0: ecc9 74c0 1828 f73f 6b9f a0bc 6f60 1ebe
000001c0: e6e6 923d 158b 29bf 9b05 93bf bd90 b03d
000001d0: a044 77bd be98 bf3d cd3d 193e 2a08 2e3d
000001e0: 29a3 44bf a788 fcbe c31e f43d f739 cbbd
000001f0: 856c cc3e b437 60bf e810 9cbe 25ef c93e
00000200: feab b03d 3a38 c33c 5a5a 4dbe 2d9e d0be
00000210: cced 01bf 786d 2dbe 4feb b13d 2f82 cbbd
00000220: f32b ab3d 4fe3 24bf 1a1a cebe b0bb ab3e
00000230: 6cdc db3d 4cbb 963d d1ad 19be 97d8 6abe
00000240: 318e 98be 5acf 983d 3d30 2c3e 0353 d7bd
00000250: 7f07 ce3d 34ba f5be 2fbd 9cc0 e87e 0d40
00000260: e475 fe3e 93a9 e0bf 65d3 033f 9406 0b3e
00000270: 2a21 84bf f17f 03bf 2db5 ab3c 2659 b4bd
00000280: c651 543e 3efd 75bf 0cbe 123e 8d9a 53bd
00000290: 00d2 f83d 5d4d 733d 43be c8bd 2b2b 00bf
000002a0: cce6 7f3c 062b 39bd 61cf eebd 0529 d23d
000002b0: 41d5 953e 2086 1bba fd5d 85bd 17d5 eabd
000002c0: 1938 57bd a024 c03d db0a b2bd b0b7 d0be
000002d0: a8d6 f3c0 8b77 3740 3b30 10bf 89d1 8ebf
000002e0: d12d abbe f204 7d3f a3c3 24be 8ed4 ecbe
000002f0: c0b1 193d a08e 6ebd 6c14 8f3e ac0c 8cbe
00000300: c06e 9f3e 50ae fdbe a161 d3bd 0737 d1bd
00000310: 64d7 743e b562 a5be fd9b 88bd 7127 af3d
00000320: cd5a 843e 9c8b 283d 324e 7dbe acc6 32be
00000330: 2af0 adbe 64fb 4bbe 3bfe 0b3e 3666 9c3d
00000340: 1739 043e 414c 02bf 49ee 503d ee25 0abd
00000350: 7697 583e 51c8 963c baba a9be 99f6 4dbc
00000360: d49b 17bf 2707 08bf 3927 cdbc f1bd 523e
00000370: 848f c43d b82c 02be c3ec b2be 4ec2 3e3d
00000380: 27d5 afbe f21d 4fbc 1072 893e 80c0 30be
00000390: cea4 3fbd 8888 8cbd d2ab 703e 64cb 103e
000003a0: 577d 90be 415a 5dbe d0a2 f83c 5221 51bf
000003b0: 45f2 bb3e 765a 37bd 0225 8dbd 53af 10bf
000003c0: 984a 6abe 32f3 83bf b71c 50be b99d 94bd
000003d0: 14fe 7c3e 5611 ffbe e907 dabe e984 fbbe
000003e0: bb7d d9bd b2a7 d23c dbee 823e b54a bfbe
000003f0: f9e4 2cbf 6f73 60bf 4404 593d da73 01be

network.0.bias f4 [64]
-0.4374805 -0.60209996 -0.38203627 -0.4780016 0.6073169 -0.34645262 -0.88557535 -0.45833954
0.03534479 -0.7645624 -0.48121604 -0.5110005 -0.086431086 -0.12120865 0.8645329 1.1990937
-0.42842478 -0.7381799 -0.5949496 -0.31280664 -0.2658757 -0.18150252 -0.40378976 -0.27748463
-0.34992567 -0.092701934 -0.27721527 -0.20036395 -0.65378886 -0.2349727 0.8470826 -0.28910992
-0.1570901 -0.4551917 -0.1912034 -0.32195106 -0.3461539 -0.38224977 -0.34304395 -0.43072143
-0.72245675 -0.09181371 -0.56176454 -0.7031872 -0.23981093 0.7033092 -0.7264198 0.50322825
-0.30559057 -0.64497274 0.079169735 -0.3489479 -0.40289333 -0.32304466 -0.14006115 -0.40295166
-0.099340424 -0.4180724 -0.18934685 -0.46192712 -0.6297718 -0.11896633 -0.8464935 -0.5127665
00000000: 72fd dfbe 3923 1abf 429a c3be a0bc f4be
00000010: 1f79 1b3f 3d62 b1be 11b5 62bf 7bab eabe
00000020: b3c5 103d 5dba 43bf f361 f6be eed0 02bf
00000030: c802 b1bd 3e3c f8bd 0752 5d3f e77b 993f
00000040: 7e5a dbbe 5cf9 3cbf 9e4e 18bf 3128 a0be
00000050: dc20 88be ccdb 39be 88bd cebe 7712 8ebe
00000060: 7529 b3be 83da bdbd 29ef 8dbe 352c 4dbe
00000070: b55e 27bf af9c 70be 68da 583f 3706 94be
00000080: 3adc 20be e30e e9be d3ca 43be c5d6 a4be
00000090: 153b b1be 3eb6 c3be 75a3 afbe 8587 dcbe
000000a0: edf2 38bf d408 bcbd cdcf 0fbf 1404 34bf
000000b0: ff90 75be 120c 343f a6f6 39bf 91d3 003f
000000c0: 5e76 9cbe ef1c 25bf be23 a23d 4da9 b2be
000000d0: 0948 cebe 1c66 a5be 316c 0fbe ae4f cebe
000000e0: fe72 cbbd 960d d6be 24e4 41be b681 ecbe
000000f0: ba38 21bf 9fa4 f3bd ccb3 58bf aa44 03bf

network.2.weight f4 [32, 64]
-0.22526555 0.004673311 -0.073710576 -0.09060293 -0.12288103 0.0578816 -0.13222247 -0.11279717
0.055354908 -0.05747512 -0.01810781 0.068268925 -0.039503235 0.034825634 -0.17633116 -0.27113578
0.0033497268 0.043968216 -0.36951336 0.011485258 0.1984763 -0.08876881 -0.14845823 0.0095579475
0.08709186 0.067830056 0.2631397 0.018400058 -0.04388213 -0.022319704 -0.26331982 0.037708476
-0.09133926 -0.037108675 -0.03885443 0.030761823 -0.03510633 0.013406083 0.052067995 -0.16697554
-0.1823829 0.09157543 -0.16155753 -0.05959271 -0.09885265 -0.1656211 0.1371253 -0.052799262
-0.07164317 -0.017183872 -0.3509573 0.00036741572 0.015752092 -0.060407355 -0.120744914 -0.06383644
0.030142099 0.031501457 0.003594786 -0.054660678 -0.098016016 -0.108139366 -0.05944262 -0.20617269
-0.06886198 -0.12023791 0.08033693 -0.15134025 -0.17668344 -0.13026294 0.11252325 -0.074377246
-0.04499753 0.02658759 0.044646908 0.02397593 -0.07465392 -0.0985353 -0.3783198 0.048525356
-0.17095049 -0.05596484 0.032414045 0.030356051 -0.15867563 -0.00092591345 -0.01631366 0.0659858
0.04345351 -0.08984301 0.058042184 0.03136996 -0.08062182 -0.01841771 -0.09727917 -0.09180935
-0.16617279 0.09147011 0.035182662 -0.123119846 0.05565655 -0.11846191 -0.0870339 -0.032091606
-0.12373274 -0.07840739 -0.13928309 -0.07413556 -0.050604332 -0.17511669 -0.015786104 -0.021596758
0.033141673 0.061269496 -0.2787199 0.02257934 0.1177104 -0.16206852 -0.12030621 0.033076003
0.042941518 0.16874988 0.023554062 -0.103967465 -0.17139374 -0.0049834154 0.05087571 -0.08367654
-0.10026777 -0.0629269 -0.057889044 0.11126043 -0.066998646 -0.115102105 -0.20960724 -0.0055713803
0.09283498 0.008043602 -0.08180401 -0.123650394 -0.11141075 0.09340304 -0.19899599 -0.2549857
0.11976209 -0.0027083124 0.021522895 -0.044202104 -0.04620961 -0.03463149 -0.09238906 -0.07182206
-0.13927647 -0.10083823 0.043792382 -0.13133445 -0.0037486106 -0.014293946 0.09177707 -0.06740315
-0.016957492 -0.012915954 -0.010008872 0.012210637 0.014709234 -0.039543584 -0.120428264 -0.010076284
-0.23804313 0.033358566 -0.2155698 0.052198686 -0.06615763 -0.079059646 -0.0878479 -0.096014604
-0.033629403 -0.008874944 0.016535938 -0.10812508 -0.09929085 0.05247788 -0.10150963 0.027459368
-0.19874704 -0.08341487 0.11443919 -0.034450702 -0.053149834 -0.03864862 -0.054031238 0.016253853
-0.08234476 0.011105812 -0.04917504 -0.0553283 -0.046907723 -0.15835103 -0.09374808 -0.023413286
-0.031004652 -0.033172738 0.055608876 -0.025300428 -0.047705382 -0.11613417 -0.12676835 -0.1329373
-0.105827905 0.037977353 -0.23005497 0.024649162 -0.03518255 0.0385637 -0.020514363 -0.05173032
-0.118016854 -0.32226104 -0.0893497 0.10976261 -0.11677845 -0.12362024 0.053600214 -0.052125156
-0.15236744 -0.05740547 -0.017661681 -0.0063211024 0.0122468285 -0.041996032 -0.093057945 -0.1338065
-0.16429114 0.04675658 -0.15640493 0.08477524 -0.13072623 0.01113885 -0.06653174 -0.23455802
-0.08863106 -0.2529391 -0.2707111 0.0034428658 -0.026561514 -0.23883674 -0.060097396 0.03160736
0.11711149 -0.045699403 -0.109004214 0.0011413696 -0.09324696 -0.041511577 0.00852715 -0.2263086
00000000: 03ac 66be 9322 993b 92f5 96bd 078e b9bd
00000010: 0da9 fbbd 4215 6d3d 5465 07be 3402 e7bd
00000020: d4bb 623d 086b 6bbd d456 94bc 94d0 8b3d
00000030: 25ce 21bd 53a5 0e3d 2890 34be 4fd2 8abe
00000040: 1787 5b3b 0418 343d db30 bdbe aa2c 3c3c
00000050: 5f3d 4b3e 6ccc b5bd 6f05 18be f098 1c3c
00000060: 385d b23d 7cea 8a3d 3fba 863e b8bb 963c
00000070: c0bd 33bd d0d7 b6bc dbd1 86be 3474 1a3d
00000080: 1410 bbbd 44ff 17bd d325 1fbd 3800 fc3c
00000090: a8cb 0fbd 30a5 5b3c 4045 553d a3fb 2abe
000000a0: 95c2 3abe e68b bb3d 566f 25be 7c17 74bd
000000b0: 4273 cabd 9498 29be 936a 0c3e 0a44 58bd
000000c0: a8b9 92bd 31c5 8cbc adb0 b3be b4a1 c039
000000d0: 880a 813c b46d 77bd 1c49 f7bd aebc 82bd
000000e0: 90ec f63c ac07 013d 8096 6b3b e0e3 5fbd
000000f0: 9fbc c8bd 2c78 ddbd 1b7a 73bd ef1e 53be
00000100: 8307 8dbd 4b3f f6bd b087 a43d f0f8 1abe
00000110: 81ec 34be a663 05be 9772 e63d 1953 98bd
00000120: 544f 38bd 38ce d93c addf 363d 2b69 c43c
00000130: 28e4 98bd e0cc c9bd 22b3 c1be 86c2 463d
00000140: a50d 2fbe 633b 65bd 97c4 043d 41ad f83c
00000150: dd7b 22be 00b9 72ba 3aa4 85bc 9023 873d
00000160: 4ffc 313d 9dff b7bd a4bd 6d3d ca7d 003d
00000170: 0e1d a5bd bde0 96bc 4d3a c7bd 8a06 bcbd
00000180: 3329 2abe ae54 bb3d b21b 103d 4226 fcbd
00000190: 1ff8 633d 289c f2bd d43e b2bd 7d72 03bd
000001a0: 9767 fdbd 0e94 a0bd 3aa0 0ebe 62d4 97bd
000001b0: 7d46 4fbd ca51 33be dc51 81bc afeb b0bc
000001c0: 90bf 073d b9f5 7a3d 60b4 8ebe 4ff8 b83c
000001d0: 2612 f13d 4af5 25be 1a63 f6bd b47a 073d
000001e0: 72e3 2f3d c5cc 2c3e 73f4 c03c e5ec d4bd
000001f0: d781 2fbe eb4b a3bb 0c63 503d 9b5e abbd
00000200: 3059 cdbd d2df 80bd 101d 6dbd 82dc e33d
00000210: 9636 89bd a7ba ebbd 48a3 56be 2090 b6bb
00000220: 4420 be3d 50c9 033c dc88 a7bd 6b3c fdbd
00000230: 522b e4bd 184a bf3d 9bc5 4bbe 7c8d 82be
00000240: d445 f53d f17d 31bb c850 b03c 440d 35bd
00000250: 4a46 3dbd c0d9 0dbd 7a36 bdbd 7217 93bd
00000260: 7e9e 0ebe 4684 cebd a45f 333d 8a7c 06be
00000270: 40ab 75bb 2831 6abc 9ef5 bb3d aa0a 8abd
00000280: 70ea 8abc 709d 53bc 40fc 23bc 200f 483c
00000290: 00ff 703c 74f8 21bd 18a3 f6bd 0017 25bc
000002a0: 94c1 73be fea2 083d 54be 5cbe 4ace 553d
000002b0: a77d 87bd 06ea a1bd 9ae9 b3bd 4ea3 c4bd
000002c0: fcbe 09bd 3768 11bc 6076 873c af70 ddbd
000002d0: 0059 cbbd 0cf3 563d 48e4 cfbd 78f2 e03c
000002e0: 5884 4bbe 6ad5 aabd 185f ea3d 2e1c 0dbd
000002f0: a4b3 59bd 044e 1ebd dc4f 5dbd cd26 853c
00000300: 5fa4 a8bd 27f5 353c c46b 49bd ed9f 62bd
00000310: 5022 40bd c626 22be fefe bfbd 38cd bfbc
00000320: 78fd fdbc 23e0 07bd 22c6 633d d842 cfbc
00000330: b866 43bd c0d7 edbd 90cf 01be b720 08be
00000340: 4dbc d8bd 248e 1b3d 8893 6bbe 0aed c93c
00000350: 941b 10bd f8f4 1d3d bd0d a8bc 2ce3 53bd
00000360: d2b2 f1bd 66ff a4be fafc b6bd 38cb e03d
00000370: 8a29 efbd 9c2c fdbd e68b 5b3d 3081 55bd
00000380: 3606 1cbe 0022 6bbd 3baf 90bc 4021 cfbb
00000390: eca6 483c 0804 2cbd 2a95 bebd 9204 09be
000003a0: f03b 28be d483 3f3d 9d28 20be a49e ad3d
000003b0: 19dd 05be b97f 363c cb41 88bd fa2f 70be
000003c0: 3484 b5bd 3c81 81be a59a 8abe b4a1 613b
000003d0: 8897 d9bc 9e91 74be b028 76bd b876 013d
000003e0: 26d8 ef3d 4c2f 3bbd 9a3d dfbd 029a 953a
000003f0: 43f8 bebd 0b08 2abd 76b5 0b3c 71bd 67be

network.2.bias f4 [32]
-0.2910929 -0.26580182 -0.20155808 -0.43152258 -0.037806988 -0.4388456 -0.5264422 -0.4029012
-0.3496379 -0.48972562 2.6535478 -0.45368883 3.0592153 -0.13736662 -0.5425435 -0.07456812
-0.12627566 -0.10605544 -0.45197755 0.09171581 -0.32310987 1.7709568 -0.1511692 2.3226013
-0.31760302 -0.46193507 -0.43803576 -0.32194695 -0.18641788 -0.06746545 -0.16050795 -0.30480418
00000000: 210a 95be 2d17 88be 3e65 4ebe 87f0 dcbe
00000010: 80db 1abd 5fb0 e0be ebc4 06bf 1149 cebe
00000020: bd03 b3be 51bd fabe bad3 2940 e749 e8be
00000030: 2fca 4340 d6a9 0cbe 21e4 0abf 2cb7 98bd
00000040: 684e 01be 9833 d9bd 9a69 e7be 80d5 bb3d
00000050: a86e a5be b6ae e23f 19cc 1abe 80a5 1440
00000060: dd9c a2be c182 ecbe 3946 e0be 3bd6 a4be
00000070: 54e4 3ebe 532b 8abd 325c 24be 4b0f 9cbe

network.4.weight f4 [3, 32]
0.14747506 -0.0019538933 0.047789525 0.28654936 0.019921722 -0.1502647 0.14071146 -0.05160608
-0.27925563 -0.16892661 4.0168033 0.25542614 -3.714711 -0.1419646 0.10003089 0.052102912
0.027951315 0.09495782 0.025400845 2.1888273 -0.0784869 3.1197953 0.06855386 1.875148
-0.13477945 0.18078668 0.0073143956 0.029208817 -0.028630609 0.09582927 0.19932164 -0.006894018
-0.007440058 -0.014070381 -0.023020055 -0.013397974 -0.028948005 0.4540657 0.27025324 0.19367418
-0.51296514 -0.014636698 3.6275742 0.10667761 -3.410509 0.037759356 0.1594426 0.084908776
0.045901056 0.08372987 -0.293953 2.0943203 0.31842852 3.2718575 -0.030409383 1.8893665
-0.012912032 0.011348516 -0.10530626 0.02570091 -0.0042122276 -0.01016992 -0.06495327 -0.036309123
0.18353234 0.033756915 0.11678897 0.08556136 0.05041101 0.48820797 0.094727695 -0.30386347
0.5746487 0.07713442 4.0154605 -0.02870583 -3.2697334 0.08234274 0.187015 -0.027362479
-0.06854881 -0.19784804 0.09832813 2.0825818 -0.104878895 2.7371016 -0.16587336 2.0581434
0.18120396 0.17337777 -0.23567042 0.15589246 -0.047978897 0.030362578 0.09975412 -0.02113687
00000000: b403 173e e40c 00bb f3be 433d 99b6 923e
00000010: e132 a33c fdde 19be aa16 103e e660 53bd
00000020: 98fa 8ebe 19fb 2cbe a789 8040 37c7 823e
00000030: d3bd 6dc0 2b5f 11be ffdc cc3d dd69 553d
00000040: 28fa e43c 3f79 c23d 6f15 d03c bf15 0c40
00000050: bdbd a0bd baaa 4740 f765 8c3d da04 f03f
00000060: a003 0abe 2520 393e 99ad ef3b 5447 ef3c
00000070: bd8a eabc 2342 c43d f91a 4c3e 37e7 e1bb
00000080: bbcb f3bb 7587 66bc 8e94 bcbc 2d83 5bbc
00000090: 5e24 edbc 4d7b e83e a25e 8a3e 8652 463e
000000a0: af51 03bf c3ce 6fbc 2d2a 6840 ca79 da3d
000000b0: c845 5ac0 8ea9 1a3d ec44 233e a7e4 ad3d
000000c0: bf02 3c3d 917a ab3d 0281 96be 5809 0640
000000d0: 1009 a33e 1d66 5140 191d f9bc c3d6 f13f
000000e0: fd8c 53bc 20ef 393c cfaa d7bd b78a d23c
000000f0: ba06 8abb bc9f 26bc 3806 85bd e0b8 14bd
00000100: e7ef 3b3e b144 0a3d 0e2f ef3d cb3a af3d
00000110: c67b 4e3d 65f6 f93e 9800 c23d fe93 9bbe
00000120: 2d1c 133f a7f8 9d3d a77e 8040 7d28 ebbc
00000130: 5043 51c0 4fa3 a83d dc80 3f3e 4727 e0bc
00000140: 5263 8cbd ad98 4abe 4260 c93d 0549 0540
00000150: bfca d6bd ac2c 2f40 b5da 29be 9fb8 0340
00000160: 888d 393e f189 313e 9653 71be 46a2 1f3e
00000170: 8585 44bd f1ba f83c e34b cc3d 3b27 adbc

network.4.bias f4 [3]
6.7512503 6.567366 5.5953217
00000000: 3e0a d840 dd27 d240 e00c b340

exp_avg f4 [64, 6]
6e-45 6e-45 -6e-45 -6e-45 -6e-45 6e-45 6e-45 6e-45
-6e-45 6e-45 -6e-45 6e-45 0.0 0.0 0.0 0.0
0.0 0.0 6e-45 6e-45 6e-45 6e-45 6e-45 6e-45
-0.026811993 -0.012857235 0.045650113 0.08121129 0.027390057 -0.068017185 6e-45 6e-45
6e-45 -6e-45 6e-45 6e-45 -6e-45 6e-45 6e-45 6e-45
6e-45 6e-45 6e-45 6e-45 -6e-45 6e-45 -6e-45 6e-45
0.0 0.0 0.0 0.0 0.0 0.0 6e-45 6e-45
-6e-45 -6e-45 -6e-45 6e-45 6e-45 6e-45 6e-45 -6e-45
6e-45 6e-45 6e-45 6e-45 -6e-45 6e-45 -6e-45 6e-45
6e-45 6e-45 6e-45 -6e-45 6e-45 6e-45 6e-45 6e-45
6e-45 6e-45 6e-45 6e-45 -0.038071528 -0.0015592505 1.8740441 -1.8430029
1.1244266 -0.98175246 -0.016334567 -0.007460072 -0.04291959 0.11738672 -0.02575176 -0.082262985
6e-45 6e-45 6e-45 6e-45 6e-45 6e-45 6e-45 6e-45
-6e-45 6e-45 -6e-45 6e-45 6e-45 6e-45 -6e-45 -6e-45
-6e-45 6e-45 6e-45 6e-45 6e-45 6e-45 6e-45 6e-45
6e-45 6e-45 -6e-45 6e-45 -6e-45 6e-45 0.0 0.0
0.0 0.0 0.0 0.0 6e-45 6e-45 6e-45 -6e-45
6e-45 6e-45 6e-45 6e-45 -6e-45 6e-45 -6e-45 6e-45
6e-45 6e-45 -6e-45 6e-45 -6e-45 6e-45 -0.040800568 -0.012952337
0.22976138 0.01107858 0.13785684 -0.038867265 6e-45 6e-45 6e-45 -6e-45
6e-45 6e-45 6e-45 6e-45 -6e-45 -6e-45 -6e-45 6e-45
6e-45 6e-45 6e-45 6e-45 6e-45 6e-45 6e-45 6e-45
-6e-45 -6e-45 -6e-45 6e-45 -0.10949959 -0.0548769 1.4802626 -1.1059378
0.8881575 -0.6727997 -6e-45 6e-45 6e-45 6e-45 6e-45 6e-45
6e-45 6e-45 6e-45 -6e-45 6e-45 6e-45 6e-45 6e-45
6e-45 6e-45 6e-45 6e-45 6e-45 6e-45 6e-45 6e-45
6e-45 6e-45 6e-45 6e-45 -6e-45 6e-45 -6e-45 6e-45
6e-45 6e-45 6e-45 6e-45 6e-45 6e-45 6e-45 6e-45
-6e-45 6e-45 -6e-45 6e-45 6e-45 6e-45 6e-45 6e-45
6e-45 6e-45 6e-45 6e-45 6e-45 -6e-45 6e-45 6e-45
6e-45 6e-45 6e-45 6e-45 6e-45 6e-45 6e-45 6e-45
-6e-45 6e-45 -6e-45 6e-45 6e-45 6e-45 6e-45 -6e-45
00000000: 0400 0000 0400 0000 0400 0080 0400 0080
00000010: 0400 0080 0400 0000 0400 0000 0400 0000
00000020: 0400 0080 0400 0000 0400 0080 0400 0000
00000030: 0000 0000 0000 0000 0000 0000 0000 0000
00000040: 0000 0000 0000 0000 0400 0000 0400 0000
00000050: 0400 0000 0400 0000 0400 0000 0400 0000
00000060: d3a4 dbbc 27a7 52bc 9dfb 3a3d 1b52 a63d
00000070: 1d61 e03c 984c 8bbd 0400 0000 0400 0000
00000080: 0400 0000 0400 0080 0400 0000 0400 0000
00000090: 0400 0080 0400 0000 0400 0000 0400 0000
000000a0: 0400 0000 0400 0000 0400 0000 0400 0000
000000b0: 0400 0080 0400 0000 0400 0080 0400 0000
000000c0: 0000 0000 0000 0000 0000 0000 0000 0000
000000d0: 0000 0000 0000 0000 0400 0000 0400 0000
000000e0: 0400 0080 0400 0080 0400 0080 0400 0000
000000f0: 0400 0000 0400 0000 0400 0000 0400 0080
00000100: 0400 0000 0400 0000 0400 0000 0400 0000
00000110: 0400 0080 0400 0000 0400 0080 0400 0000
00000120: 0400 0000 0400 0000 0400 0000 0400 0080
00000130: 0400 0000 0400 0000 0400 0000 0400 0000
00000140: 0400 0000 0400 0000 0400 0000 0400 0000
00000150: e4f0 1bbd c45f ccba ade0 ef3f 85e7 ebbf
00000160: 36ed 8f3f 2154 7bbf 12d0 85bc 9f73 f4bb
00000170: 74cc 2fbd 7368 f03d 5bf5 d2bc 7f79 a8bd
00000180: 0400 0000 0400 0000 0400 0000 0400 0000
00000190: 0400 0000 0400 0000 0400 0000 0400 0000
000001a0: 0400 0080 0400 0000 0400 0080 0400 0000
000001b0: 0400 0000 0400 0000 0400 0080 0400 0080
000001c0: 0400 0080 0400 0000 0400 0000 0400 0000
000001d0: 0400 0000 0400 0000 0400 0000 0400 0000
000001e0: 0400 0000 0400 0000 0400 0080 0400 0000
000001f0: 0400 0080 0400 0000 0000 0000 0000 0000
00000200: 0000 0000 0000 0000 0000 0000 0000 0000
00000210: 0400 0000 0400 0000 0400 0000 0400 0080
00000220: 0400 0000 0400 0000 0400 0000 0400 0000
00000230: 0400 0080 0400 0000 0400 0080 0400 0000
00000240: 0400 0000 0400 0000 0400 0080 0400 0000
00000250: 0400 0080 0400 0000 7f1e 27bd 0a36 54bc
00000260: 9146 6b3e ef82 353c 582a 0d3e 4833 1fbd
00000270: 0400 0000 0400 0000 0400 0000 0400 0080
00000280: 0400 0000 0400 0000 0400 0000 0400 0000
00000290: 0400 0080 0400 0080 0400 0080 0400 0000
000002a0: 0400 0000 0400 0000 0400 0000 0400 0000
000002b0: 0400 0000 0400 0000 0400 0000 0400 0000
000002c0: 0400 0080 0400 0080 0400 0080 0400 0000
000002d0: 5241 e0bd 9ac6 60bd 3f79 bd3f 5f8f 8dbf
000002e0: 4a5e 633f 9a3c 2cbf 0400 0080 0400 0000
000002f0: 0400 0000 0400 0000 0400 0000 0400 0000
00000300: 0400 0000 0400 0000 0400 0000 0400 0080
00000310: 0400 0000 0400 0000 0400 0000 0400 0000
00000320: 0400 0000 0400 0000 0400 0000 0400 0000
00000330: 0400 0000 0400 0000 0400 0000 0400 0000
00000340: 0400 0000 0400 0000 0400 0000 0400 0000
00000350: 0400 0080 0400 0000 0400 0080 0400 0000
00000360: 0400 0000 0400 0000 0400 0000 0400 0000
00000370: 0400 0000 0400 0000 0400 0000 0400 0000
00000380: 0400 0080 0400 0000 0400 0080 0400 0000
00000390: 0400 0000 0400 0000 0400 0000 0400 0000
000003a0: 0400 0000 0400 0000 0400 0000 0400 0000
000003b0: 0400 0000 0400 0080 0400 0000 0400 0000
000003c0: 0400 0000 0400 0000 0400 0000 0400 0000
000003d0: 0400 0000 0400 0000 0400 0000 0400 0000
000003e0: 0400 0080 0400 0000 0400 0080 0400 0000
000003f0: 0400 0000 0400 0000 0400 0000 0400 0080

exp_avg_sq f4 [64, 6]
3.3132434e-07 9.467431e-08 3.7186215e-05 3.7185677e-05 1.3387003e-05 1.2888938e-05 4.581707e-19 2.2869742e-19
2.5536763e-18 2.2036333e-18 9.193278e-19 9.360195e-19 0.0 0.0 0.0 0.0
0.0 0.0 2.4523645e-21 3.872551e-21 6.2025835e-20 6.2025835e-20 2.2329052e-20 1.9474467e-20
0.0154547505 0.009990315 0.80081 0.8015101 0.28829172 0.28819647 1.7691929e-12 1.3787111e-12
2.9186556e-11 2.9186556e-11 1.0507193e-11 1.1170899e-11 1.7288708e-20 1.4593707e-20 3.0767078e-15 3.0767078e-15
1.1076154e-15 1.0544237e-15 9.246728e-21 1.0381591e-20 2.831033e-19 2.8044672e-19 1.019166e-19 1.2042168e-19
0.0 0.0 0.0 0.0 0.0 0.0 1.5811876e-24 1.0154243e-23
9.207166e-22 9.207166e-22 3.3145585e-22 3.7801712e-22 2.7729077e-21 5.843284e-21 1.0267446e-19 1.0267446e-19
3.6962747e-20 3.0231542e-20 1.2341687e-22 1.89497e-22 4.9918258e-21 4.9918258e-21 1.7970424e-21 1.8751223e-21
8.450261e-21 2.2204208e-20 3.8810397e-19 3.938788e-19 1.3971777e-19 1.1422865e-19 1.9869282e-21 3.2434636e-21
5.5522515e-20 5.6081314e-20 1.9988017e-20 1.657955e-20 0.03852065 0.0008797928 11.174222 11.100425
4.0227265 4.107391 0.008027708 0.0069397935 0.8185554 0.82166123 0.29467985 0.29725912
4.0293317e-21 1.1671348e-20 1.9534205e-19 1.9810852e-19 7.0323574e-20 5.8128315e-20 4.6357574e-13 3.1139295e-13
3.0266523e-12 3.0266523e-12 1.0896019e-12 9.999465e-13 1.1002477e-11 2.52763e-08 8.460221e-07 8.46022e-07
3.0456724e-07 3.849634e-07 7.278252e-19 3.8743018e-19 5.0403957e-18 4.383696e-18 1.814558e-18 1.9993592e-18
1.3052994e-15 3.7786208e-22 6.43965e-13 6.43965e-13 2.3182685e-13 1.6728548e-13 0.0 0.0
0.0 0.0 0.0 0.0 4.3952315e-21 6.965593e-21 1.3280097e-19 1.3280097e-19
4.7808587e-20 3.8701322e-20 3.2920124e-30 2.2718422e-27 3.1710976e-26 3.1710976e-26 1.1415868e-26 1.1294136e-26
2.176141e-22 1.7722572e-22 2.982343e-21 2.982343e-21 1.0736432e-21 9.061174e-22 0.09818791 0.06525818
4.11873 4.2003236 1.4827435 1.5114279 1.8545485e-16 6.425303e-17 7.9062984e-14 7.9062984e-14
2.846278e-14 2.0509964e-14 1.5781166e-22 1.5139201e-22 2.5544076e-21 2.5544076e-21 9.195887e-22 9.097791e-22
3.807665e-23 1.5886263e-22 3.2572912e-21 3.1557167e-21 1.1726238e-21 1.0727279e-21 1.3326413e-21 1.1528482e-21
1.8209556e-20 1.7616727e-20 6.5554124e-21 6.5780092e-21 8.322663 7.420067 33.224762 32.603466
11.960904 13.030208 5.503951e-29 4.162338e-24 6.729469e-23 6.729469e-23 2.4226076e-23 1.981434e-23
1.2204738e-20 2.0201151e-20 3.428877e-19 3.428877e-19 1.2344002e-19 1.02417006e-19 2.3763111e-24 1.4837134e-22
2.44883e-21 2.44883e-21 8.815795e-22 7.210298e-22 2.1733738e-20 3.662137e-20 6.276205e-19 6.276205e-19
2.259449e-19 1.8794649e-19 1.4100873e-23 4.4438838e-23 1.029052e-21 1.2217644e-21 3.7045633e-22 3.4302732e-22
6.9743935e-21 1.1408028e-20 2.0062335e-19 2.002768e-19 7.222493e-20 5.9743075e-20 3.4343025e-30 2.3843178e-27
3.3292103e-26 3.3292103e-26 1.1985111e-26 1.1857297e-26 1.8188707e-25 1.4613527e-23 2.4154595e-22 2.4154595e-22
8.695673e-23 7.112151e-23 2.6979441e-13 1.812992e-13 1.7889531e-12 1.7889531e-12 6.440238e-13 5.9006104e-13
5.7442016e-16 5.21287e-17 1.0736555e-14 1.0736555e-14 3.865181e-15 3.1468572e-15 1.930873e-24 1.1010797e-23
2.0965075e-22 2.0965075e-22 7.5474185e-23 7.449802e-23 1.094945e-17 6.9345367e-18 1.3157999e-16 1.3840984e-16
00000000: dfe0 b134 c14f cb33 65f8 1b38 d1f7 1b38
00000010: bd98 6037 913d 5837 663a 0721 c7ff 8620
00000020: 956d 3c22 7599 2222 39ab 8721 d121 8a21
00000030: 0000 0000 0000 0000 0000 0000 0000 0000
00000040: 0000 0000 0000 0000 a14b 391d 044d 921d
00000050: 5174 921f 5174 921f 56e4 d21e 5fee b71e
00000060: ec35 7d3c 6bae 233c e201 4d3f c42f 4d3f
00000070: f99a 933e 7d8e 933e e4fd f82b 4d09 c22b
00000080: 245d 002e 245d 002e 31d8 382d 4285 442d
00000090: 8849 a31e 6bd5 891e 3eb3 5d27 3eb3 5d27
000000a0: cc9f 9f26 5ef5 9726 6faa 2e1e 4b1a 441e
000000b0: 5c1d a720 e98b a520 cea4 f01f 382b 0e20
000000c0: 0000 0000 0000 0000 0000 0000 0000 0000
000000d0: 0000 0000 0000 0000 4bad f417 6069 4419
000000e0: 8022 8b1c 8022 8b1c 4f5a c81b 517f e41b
000000f0: d683 511d c6c0 dc1d e76e f21f e76e f21f
00000100: 388d 2e1f b1c3 0e1f ac33 151b 7b16 651b
00000110: fa95 bc1d fa95 bc1d dbc7 071d 24ae 0d1d
00000120: f49e 1f1e 7bb6 d11e 9d18 e520 4881 e820
00000130: 1bf3 2420 7edb 0620 c820 161d b611 751d
00000140: 4d19 831f 136b 841f 0fc8 bc1e e496 9c1e
00000150: d4c7 1d3d e5a1 663a 9dc9 3241 579b 3141
00000160: 2dba 8040 bf6f 8340 a686 033c 3567 e33b
00000170: d98c 513f 6458 523f 47e0 963e 5932 983e
00000180: 4e39 981d 2d77 5c1e 839e 6620 a0e2 6920
00000190: fe0b a61f 6940 891f 277c 022b 744c af2a
000001a0: 52fb 542c 52fb 542c 0c59 992b dfba 8c2b
000001b0: c08e 412d 2c1f d932 321a 6335 301a 6335
000001c0: 6783 a334 f8ac ce34 ebd0 5621 cbb2 e420
000001d0: 31f5 b922 d7ba a122 08e4 0522 d486 1322
000001e0: 0c1d bc26 5367 e41b 9242 352b 9242 352b
000001f0: c581 822a c258 3c2a 0000 0000 0000 0000
00000200: 0000 0000 0000 0000 0000 0000 0000 0000
00000210: 120c a61d 8a93 031e a1c8 1c20 a1c8 1c20
00000220: 09c5 611f 07c3 361f 368a 850e 6ffe 3313
00000230: 7006 1d15 7006 1d15 541d 6214 13b4 5f14
00000240: 278a 831b b440 561b e756 611d e756 611d
00000250: 8f3e a21c b8ed 881c be16 c93d 15a6 853d
00000260: a3cc 8340 0d69 8640 8aca bd3f 7876 c13f
00000270: 9cd0 5525 4b28 9424 b508 b229 b508 b229
00000280: 5a2f 0029 c2bc b828 58c8 3e1b 8f05 371b
00000290: 6e01 411d 6e01 411d ddf6 8a1c 607b 891c
000002a0: 9c20 381a 9a0d 401b 2d1d 761d 7070 6e1d
000002b0: b033 b11c 271b a21c 1062 c91c a836 ae1c
000002c0: 01fc ab1e a262 a61e 0fa8 f71d 9a82 f81d
000002d0: a129 0541 3071 ed40 28e6 0442 f369 0242
000002e0: dd5f 3f41 bb7b 5041 af8a 8b10 cd05 a118
000002f0: 65b5 a21a 65b5 a21a dc4c ea19 eea1 bf19
00000300: 7e8a 661e 63cb be1e b967 ca20 b967 ca20
00000310: 75bb 1120 48d3 f11f b1db 3718 b55e 331b
00000320: 4307 391d 4307 391d 7438 851c fbea 591c
00000330: f444 cd1e 85f0 2c1f aa3d 3921 aa3d 3921
00000340: d45f 8520 57e3 5d20 1260 8819 9ee4 561a
00000350: 8581 9b1c b9a0 b81c 57ed df1b e858 cf1b
00000360: 19be 031e d77d 571e b0da 6c20 f371 6c20
00000370: 4b89 aa1f 7910 8d1f d64f 8b0e b6e7 3c13
00000380: c1da 2415 c1da 2415 bc63 6d14 a3db 6a14
00000390: 502a 6116 5755 8d19 6d01 921b 6d01 921b
000003a0: 9c3f d21a 15f6 ab1a 79e1 972a f01f 4c2a
000003b0: d4c5 fb2b d4c5 fb2b ce46 352b 6116 262b
000003c0: ba90 2526 b566 7024 9f69 4128 9f69 4128
000003d0: 0142 8b27 45c1 6227 e164 1518 d3fa 5419
000003e0: c473 7d1b c473 7d1b 427c b61a 0a20 b41a
000003f0: 51fb 4923 d9d6 ff22 8fb3 1725 6093 1f25

exp_avg f4 [64]
6e-45 6e-45 0.0 6e-45 -0.06801718 6e-45 6e-45 6e-45
0.0 6e-45 6e-45 6e-45 6e-45 6e-45 -0.9817524 -0.082262985
6e-45 6e-45 6e-45 6e-45 6e-45 0.0 6e-45 6e-45
6e-45 -0.038867284 6e-45 6e-45 6e-45 6e-45 -0.6727997 6e-45
6e-45 6e-45 6e-45 6e-45 6e-45 6e-45 6e-45 6e-45
6e-45 6e-45 6e-45 6e-45 6e-45 -0.16436124 6e-45 -0.0752486
6e-45 6e-45 0.18486428 6e-45 6e-45 6e-45 6e-45 6e-45
6e-45 6e-45 6e-45 6e-45 6e-45 6e-45 6e-45 6e-45
00000000: 0400 0000 0400 0000 0000 0000 0400 0000
00000010: 974c 8bbd 0400 0000 0400 0000 0400 0000
00000020: 0000 0000 0400 0000 0400 0000 0400 0000
00000030: 0400 0000 0400 0000 2054 7bbf 7f79 a8bd
00000040: 0400 0000 0400 0000 0400 0000 0400 0000
00000050: 0400 0000 0000 0000 0400 0000 0400 0000
00000060: 0400 0000 4d33 1fbd 0400 0000 0400 0000
00000070: 0400 0000 0400 0000 9a3c 2cbf 0400 0000
00000080: 0400 0000 0400 0000 0400 0000 0400 0000
00000090: 0400 0000 0400 0000 0400 0000 0400 0000
000000a0: 0400 0000 0400 0000 0400 0000 0400 0000
000000b0: 0400 0000 504e 28be 0400 0000 f01b 9abd
000000c0: 0400 0000 0400 0000 104d 3d3e 0400 0000
000000d0: 0400 0000 0400 0000 0400 0000 0400 0000
000000e0: 0400 0000 0400 0000 0400 0000 0400 0000
000000f0: 0400 0000 0400 0000 0400 0000 0400 0000

exp_avg_sq f4 [64]
1.2888938e-05 9.360195e-19 0.0 1.9474467e-20 0.28819647 1.1170899e-11 1.0544237e-15 1.2042168e-19
0.0 3.7801712e-22 3.0231542e-20 1.8751223e-21 1.1422865e-19 1.657955e-20 4.107391 0.29725912
5.8128315e-20 9.999465e-13 3.849634e-07 1.9993592e-18 1.6728548e-13 0.0 3.8701322e-20 1.1294136e-26
9.061174e-22 1.5114279 2.0509964e-14 9.097791e-22 1.0727279e-21 6.5780092e-21 13.030208 1.981434e-23
1.02417006e-19 7.210298e-22 1.8794649e-19 3.4302732e-22 5.9743075e-20 1.1857297e-26 7.112151e-23 5.9006104e-13
3.1468572e-15 7.449802e-23 4.790096e-17 4.431884e-22 1.2573279e-18 1.8774416 4.918551e-19 0.19897544
2.3119229e-22 2.0835401e-19 6.6247315 4.5307718e-14 6.970292e-22 7.270111e-13 7.62232e-21 1.7346658e-21
4.3150596e-22 1.7040056e-21 5.3673314e-21 1.2383002e-09 4.2269993e-13 7.381729e-20 1.6969061e-17 2.2819607e-19
00000000: 913d 5837 d121 8a21 0000 0000 5fee b71e
00000010: 7d8e 933e 4285 442d 5ef5 9726 382b 0e20
00000020: 0000 0000 517f e41b b1c3 0e1f 24ae 0d1d
00000030: 7edb 0620 e496 9c1e bf6f 8340 5932 983e
00000040: 6940 891f dfba 8c2b f8ac ce34 d486 1322
00000050: c258 3c2a 0000 0000 07c3 361f 13b4 5f14
00000060: b8ed 881c 7876 c13f c2bc b828 607b 891c
00000070: 271b a21c 9a82 f81d bb7b 5041 eea1 bf19
00000080: 48d3 f11f fbea 591c 57e3 5d20 e858 cf1b
00000090: 7910 8d1f a3db 6a14 15f6 ab1a 6116 262b
000000a0: 45c1 6227 0a20 b41a 79e7 5c24 0bf2 051c
000000b0: 818c b921 0250 f03f 852b 1121 38c0 4b3e
000000c0: 46bf 8b1b 23fb 7520 cdfd d340 3e0c 4c29
000000d0: 06aa 521c aca2 4c2b 47fb 0f1e 5111 031d
000000e0: 286a 021c 43c0 001d a5c5 ca1d d130 aa30
000000f0: 7bf5 ed2a d04b ae1f 1083 9c23 04b4 8620
