models/paddle_dqn_model_checkpoint_130000.pth (torch, 52821 bytes, 24 tensors)

network.0.weight f4 [64, 6]
00000000: c7b4 1fc0 64ec 37c0 211d dfbd d65a 8bbe
00000010: 681c ae3d 7e02 c3be 81f8 7f3e f6be a93c
00000020: a302 893c 68e2 183e 0fa0 d8bd eb72 2cbe
00000030: 1056 333e d2c1 113e d4f6 79be 6069 e5bb
00000040: 46ab 003e 7294 88be 6058 2abf dc5a e1bd
00000050: 513c 573e 6cfa de3d 2436 64be 941b 833d
00000060: 7ca1 2ebf 1d23 c3c0 1776 1cbf 4799 fabf
00000070: 1645 0abf d6dc ecbf d89b 2bbf e132 dcbe
00000080: bdc6 623e 5a7e d2bd 0ae1 cc3c 97d1 abbe
00000090: 5612 26bd 2231 3fbf b512 5cbd 6d18 f3bd
000000a0: 343f 253d 9968 49bf ec75 23bf 0b95 58bf
000000b0: 63c5 573e 68f9 69bd e856 7abe 66ae c8be
000000c0: f8bd b5be 2588 1d3d 12ef b1bd 588a 093d
000000d0: e907 523e 8578 61be 2871 51bf ee41 5bbf
000000e0: b3f9 cfbd ca42 22bd 4650 d0bd 4dc0 b0bd
000000f0: 0256 e73d 7d77 d9be 9b28 543e d00b 51be
00000100: 7b52 f0bc 0257 ebbe 8231 8abb e62c f03d
00000110: 160d 29bd c965 903d 7f8f 8d3d ad72 fd3d
00000120: ddcb ebbe a42d 00bd 3f71 dcbd 806b 2dbd
00000130: 4886 8b3d 2024 8abe 16e8 fdbc 8f9d c6be
00000140: 9486 f93d 2647 f23d 8415 543d cd30 efbe
00000150: db69 39c1 9eef e4be ab55 00c0 bc58 78c0
00000160: d13b f2bf 33f3 bfbe 24a3 dcc0 6b23 c43f
00000170: 48c1 b73f cfee 60c0 cc71 b83f 7845 2abe
00000180: d198 cd3d 3167 00bd 4c7d d23d 5519 673d
00000190: 0989 5abe 7455 033e e414 74be f5b9 2cbf
000001a0: f658 7b3e df63 383c 79e5 a93d 0032 02bf
000001b0: c2b3 8ec0 d6d9 a53f 6dbf a0bc 6d5c 1ebe
000001c0: 29e6 923d d914 a6bf 4f00 7cbf da94 99be
000001d0: 4fa6 abbd 4d9e afbd 453c 013e f74a 9bbe
000001e0: 29a3 44bf a788 fcbe c31e f43d f739 cbbd
000001f0: 856c cc3e b437 60bf e810 9cbe 25ef c93e
00000200: feab b03d 3a38 c33c 5a5a 4dbe 2d9e d0be
00000210: cced 01bf 786d 2dbe 4feb b13d 2f82 cbbd
00000220: f32b ab3d 4fe3 24bf 1a1a cebe b0bb ab3e
00000230: 6cdc db3d 4cbb 963d d1ad 19be 97d8 6abe
00000240: 318e 98be 5acf 983d 3d30 2c3e 0353 d7bd
00000250: 7f07 ce3d 34ba f5be 3390 0fc1 6e3e d140
00000260: bf22 d63e be7d 2ac0 8653 df3e 75d2 7ebf
00000270: 2a21 84bf f17f 03bf 2db5 ab3c 2659 b4bd
00000280: c651 543e 3efd 75bf 0cbe 123e 8d9a 53bd
00000290: 00d2 f83d 5d4d 733d 43be c8bd 2b2b 00bf
000002a0: cce6 7f3c 062b 39bd 61cf eebd 0529 d23d
000002b0: 41d5 953e 2086 1bba fd5d 85bd 17d5 eabd
000002c0: 1938 57bd a024 c03d db0a b2bd b0b7 d0be
000002d0: 8bb7 14c1 7043 14c0 37c9 92be 3707 69c0
000002e0: 23b9 6cbd 727d 1940 a3c3 24be 8ed4 ecbe
000002f0: c0b1 193d a08e 6ebd 6c14 8f3e ac0c 8cbe
00000300: c06e 9f3e 50ae fdbe a161 d3bd 0737 d1bd
00000310: 64d7 743e b562 a5be fd9b 88bd 7127 af3d
00000320: cd5a 843e 9c8b 283d 324e 7dbe acc6 32be
00000330: 2af0 adbe 64fb 4bbe 3bfe 0b3e 3666 9c3d
00000340: 1739 043e 414c 02bf 49ee 503d ee25 0abd
00000350: 7697 583e 51c8 963c baba a9be 99f6 4dbc
00000360: d49b 17bf 2707 08bf 3927 cdbc f1bd 523e
00000370: 848f c43d b82c 02be c3ec b2be 4ec2 3e3d
00000380: 27d5 afbe f21d 4fbc 1072 893e 80c0 30be
00000390: cea4 3fbd 8888 8cbd d2ab 703e 64cb 103e
000003a0: 577d 90be 415a 5dbe d0a2 f83c 5221 51bf
000003b0: 45f2 bb3e 765a 37bd 0225 8dbd 53af 10bf
000003c0: 984a 6abe 32f3 83bf b71c 50be b99d 94bd
000003d0: 14fe 7c3e 5611 ffbe e907 dabe e984 fbbe
000003e0: bb7d d9bd b2a7 d23c dbee 823e b54a bfbe
000003f0: f9e4 2cbf 6f73 60bf 4404 593d da73 01be
-2.4954088 -2.8738031 -0.10894228 -0.2721774 0.08501512 -0.3808784 0.2499714 0.02072094
0.01672489 0.14930117 -0.10577404 -0.16840713 0.17513299 0.14234093 -0.24410564 -0.007001087
0.12565336 -0.26675755 -0.665411 -0.11003658 0.21019103 0.10887608 -0.22286278 0.064017445
-0.68215156 -6.0980363 -0.6111769 -1.9578027 -0.54011667 -1.8504894 -0.67034674 -0.43007568
0.22146125 -0.10278006 0.02500965 -0.33558342 -0.04054483 -0.74684346 -0.053728778 -0.11869893
0.04034348 -0.7867523 -0.6385181 -0.8460242 0.21071391 -0.057122618 -0.24447215 -0.39195555
-0.35496497 0.038459916 -0.08688177 0.0335792 0.2051083 -0.22018631 -0.8181329 -0.85647476
-0.10155048 -0.039614476 -0.10171561 -0.086304285 0.112957016 -0.42473975 0.20718615 -0.20414662
-0.029336205 -0.4596482 -0.0042173276 0.11727314 -0.041272245 0.07050664 0.06912135 0.12375388
-0.46053973 -0.031293526 -0.107637875 -0.042338848 0.068127215 -0.26980686 -0.030994456 -0.38792083
0.12183872 0.11829977 0.05177833 -0.4671692 -11.588344 -0.44714063 -2.0052288 -3.880416
-1.8924505 -0.37490234 -6.8949146 1.5323309 1.435586 -3.5145757 1.4409728 -0.16628063
0.10038913 -0.03134841 0.10277805 0.056420643 -0.21341337 0.12825567 -0.23836094 -0.6747125
0.24545655 0.01125428 0.082957216 -0.50857544 -4.459443 1.2957103 -0.019622529 -0.15464945
0.07172806 -1.2975112 -0.9843797 -0.29996377 -0.0838133 -0.08575115 0.12620647 -0.3033063
-0.7681146 -0.49323007 0.1191993 -0.09923165 0.39926544 -0.87584996 -0.30481648 0.39440265
0.08626555 0.023830522 -0.20053998 -0.4074568 -0.50753474 -0.1693629 0.0868746 -0.0993694
0.08357992 -0.64409345 -0.4025429 0.33541632 0.107354015 0.07359943 -0.15007712 -0.22934185
-0.29795983 0.07461424 0.16815276 -0.1051388 0.100600235 -0.47993624 -8.972705 6.538871
0.41823384 -2.6639247 0.4361841 -0.9953988 -1.0322621 -0.513671 0.020960415 -0.08806066
0.20734319 -0.9608954 0.1433031 -0.051661063 0.12149429 0.05939995 -0.098019145 -0.5006587
0.015618991 -0.045207046 -0.11660648 0.1026173 0.29264262 -0.0005932767 -0.065120675 -0.11466425
-0.052543733 0.09381986 -0.08693477 -0.40765142 -9.29481 -2.316616 -0.2866914 -3.6410654
-0.057793748 2.3982816 -0.16090254 -0.46255916 0.03752303 -0.058241487 0.27945268 -0.27353418
0.31139183 -0.49547052 -0.103213556 -0.10215574 0.2391029 -0.3230187 -0.066703774 0.08552445
0.25850525 0.041148767 -0.2473686 -0.174586 -0.33972293 -0.19920117 0.136712 0.07636683
0.12912403 -0.50897604 0.051008496 -0.03372758 0.21151528 0.018406065 -0.33150274 -0.0125710005
-0.5922215 -0.53135914 -0.025043117 0.2058027 0.09597686 -0.12712371 -0.3494626 0.046572022
-0.3434231 -0.012641417 0.26844835 -0.17260933 -0.04678803 -0.06861979 0.23503044 0.14140087
-0.28220627 -0.2161646 0.030351073 -0.8169147 0.36708274 -0.044764005 -0.06891824 -0.56517524
-0.22880018 -1.0308592 -0.20323454 -0.07256646 0.24706298 -0.49817914 -0.4258416 -0.4912484
-0.10619684 0.025714729 0.25572857 -0.37361684 -0.67536885 -0.8767614 0.052982584 -0.1264185

network.0.bias f4 [64]
00000000: 72fd dfbe 3923 1abf 429a c3be a0bc f4be
00000010: 74d0 d3bf 3d62 b1be 11b5 62bf 7bab eabe
00000020: b3c5 103d 5dba 43bf f361 f6be eed0 02bf
00000030: c802 b1bd 3e3c f8bd 4b30 9dbe d468 ae3e
00000040: 7e5a dbbe 5cf9 3cbf 9d76 9dbf 189a 28bf
00000050: dc20 88be ccdb 39be 88bd cebe 7712 8ebe
00000060: 7529 b3be 85a7 9cbf 29ef 8dbe 352c 4dbe
00000070: b55e 27bf af9c 70be d872 1040 3706 94be
00000080: 3adc 20be e30e e9be d3ca 43be c5d6 a4be
00000090: 153b b1be 3eb6 c3be 75a3 afbe 8587 dcbe
000000a0: edf2 38bf d408 bcbd cdcf 0fbf 1404 34bf
000000b0: ff90 75be 4806 c63f a6f6 39bf 6abe 96bf
000000c0: 5e76 9cbe ef1c 25bf aa4f b2be 4da9 b2be
000000d0: 0948 cebe 1c66 a5be 316c 0fbe ae4f cebe
000000e0: fe72 cbbd 960d d6be 24e4 41be b681 ecbe
000000f0: ba38 21bf 9fa4 f3bd ccb3 58bf aa44 03bf
-0.4374805 -0.60209996 -0.38203627 -0.4780016 -1.654799 -0.34645262 -0.88557535 -0.45833954
0.03534479 -0.7645624 -0.48121604 -0.5110005 -0.086431086 -0.12120865 -0.30700907 0.34064353
-0.42842478 -0.7381799 -1.2301823 -0.6586013 -0.2658757 -0.18150252 -0.40378976 -0.27748463
-0.34992567 -1.2238623 -0.27721527 -0.20036395 -0.65378886 -0.2349727 2.2570095 -0.28910992
-0.1570901 -0.4551917 -0.1912034 -0.32195106 -0.3461539 -0.38224977 -0.34304395 -0.43072143
-0.72245675 -0.09181371 -0.56176454 -0.7031872 -0.23981093 1.5470667 -0.7264198 -1.177686
-0.30559057 -0.64497274 -0.34826404 -0.3489479 -0.40289333 -0.32304466 -0.14006115 -0.40295166
-0.099340424 -0.4180724 -0.18934685 -0.46192712 -0.6297718 -0.11896633 -0.8464935 -0.5127665

network.2.weight f4 [32, 64]
00000000: 03ac 66be 9322 993b 92f5 96bd 078e b9bd
00000010: 0da9 fbbd 4215 6d3d 5465 07be 3402 e7bd
00000020: d4bb 623d 086b 6bbd d456 94bc 94d0 8b3d
00000030: 25ce 21bd 53a5 0e3d 2890 34be 4fd2 8abe
00000040: 1787 5b3b 0418 343d db30 bdbe aa2c 3c3c
00000050: 5f3d 4b3e 6ccc b5bd 6f05 18be f098 1c3c
00000060: 385d b23d 7cea 8a3d 3fba 863e b8bb 963c
00000070: c0bd 33bd d0d7 b6bc dbd1 86be 3474 1a3d
00000080: 1410 bbbd 44ff 17bd d325 1fbd 3800 fc3c
00000090: a8cb 0fbd 30a5 5b3c 4045 553d a3fb 2abe
000000a0: 95c2 3abe e68b bb3d 566f 25be 7c17 74bd
000000b0: 4273 cabd 9498 29be 936a 0c3e 0a44 58bd
000000c0: a8b9 92bd 31c5 8cbc adb0 b3be b4a1 c039
000000d0: 880a 813c b46d 77bd 1c49 f7bd aebc 82bd
000000e0: 90ec f63c ac07 013d 8096 6b3b e0e3 5fbd
000000f0: 9fbc c8bd 2c78 ddbd 1b7a 73bd ef1e 53be
00000100: 8307 8dbd 4b3f f6bd b087 a43d f0f8 1abe
00000110: 81ec 34be a663 05be 9772 e63d 1953 98bd
00000120: 544f 38bd 38ce d93c addf 363d 2b69 c43c
00000130: 28e4 98bd e0cc c9bd 22b3 c1be 86c2 463d
00000140: a50d 2fbe 633b 65bd 97c4 043d 41ad f83c
00000150: dd7b 22be 00b9 72ba 3aa4 85bc 9023 873d
00000160: 4ffc 313d 9dff b7bd a4bd 6d3d ca7d 003d
00000170: 0e1d a5bd bde0 96bc 4d3a c7bd 8a06 bcbd
00000180: 3329 2abe ae54 bb3d b21b 103d 4226 fcbd
00000190: 1ff8 633d 289c f2bd d43e b2bd 7d72 03bd
000001a0: 9767 fdbd 0e94 a0bd 3aa0 0ebe 62d4 97bd
000001b0: 7d46 4fbd ca51 33be dc51 81bc afeb b0bc
000001c0: 90bf 073d b9f5 7a3d 60b4 8ebe 4ff8 b83c
000001d0: 2612 f13d 4af5 25be 1a63 f6bd b47a 073d
000001e0: 72e3 2f3d c5cc 2c3e 73f4 c03c e5ec d4bd
000001f0: d781 2fbe eb4b a3bb 0c63 503d 9b5e abbd
00000200: 3059 cdbd d2df 80bd 101d 6dbd 82dc e33d
00000210: 9636 89bd a7ba ebbd 48a3 56be 2090 b6bb
00000220: 4420 be3d 50c9 033c dc88 a7bd 6b3c fdbd
00000230: 522b e4bd 184a bf3d 9bc5 4bbe 7c8d 82be
00000240: d445 f53d f17d 31bb c850 b03c 440d 35bd
00000250: 4a46 3dbd c0d9 0dbd 7a36 bdbd 7217 93bd
00000260: 7e9e 0ebe 1ea0 cebd a45f 333d 8a7c 06be
00000270: 40ab 75bb 2831 6abc 3d7e 2fbc aa0a 8abd
00000280: 70ea 8abc 709d 53bc 40fc 23bc 200f 483c
00000290: 00ff 703c 74f8 21bd 18a3 f6bd 0017 25bc
000002a0: 94c1 73be fea2 083d 54be 5cbe 4ace 553d
000002b0: a77d 87bd 06ea a1bd 9ae9 b3bd 57ca d3be
000002c0: fcbe 09bd 3768 11bc 6076 873c af70 ddbd
000002d0: 0059 cbbd 0cf3 563d 48e4 cfbd 78f2 e03c
000002e0: 5884 4bbe 6ad5 aabd 185f ea3d 2e1c 0dbd
000002f0: a4b3 59bd 044e 1ebd dc4f 5dbd cd26 853c
00000300: 5fa4 a8bd 27f5 353c c46b 49bd ed9f 62bd
00000310: 5022 40bd c626 22be fefe bfbd 38cd bfbc
00000320: 78fd fdbc 23e0 07bd 22c6 633d d842 cfbc
00000330: b866 43bd c0d7 edbd 90cf 01be b720 08be
00000340: 4dbc d8bd 248e 1b3d 8893 6bbe 0aed c93c
00000350: 941b 10bd f8f4 1d3d bd0d a8bc 2ce3 53bd
00000360: d2b2 f1bd 66ff a4be fafc b6bd 38cb e03d
00000370: 8a29 efbd 9c2c fdbd e68b 5b3d 3081 55bd
00000380: 3606 1cbe 0022 6bbd 3baf 90bc 4021 cfbb
00000390: eca6 483c 0804 2cbd 2a95 bebd 9204 09be
000003a0: f03b 28be d483 3f3d 9d28 20be a49e ad3d
000003b0: 19dd 05be b97f 363c cb41 88bd fa2f 70be
000003c0: 3484 b5bd 3c81 81be a59a 8abe b4a1 613b
000003d0: 8897 d9bc 9e91 74be b028 76bd b876 013d
000003e0: 26d8 ef3d 4c2f 3bbd 9a3d dfbd 029a 953a
000003f0: 43f8 bebd 0b08 2abd 76b5 0b3c 71bd 67be
-0.22526555 0.004673311 -0.073710576 -0.09060293 -0.12288103 0.0578816 -0.13222247 -0.11279717
0.055354908 -0.05747512 -0.01810781 0.068268925 -0.039503235 0.034825634 -0.17633116 -0.27113578
0.0033497268 0.043968216 -0.36951336 0.011485258 0.1984763 -0.08876881 -0.14845823 0.0095579475
0.08709186 0.067830056 0.2631397 0.018400058 -0.04388213 -0.022319704 -0.26331982 0.037708476
-0.09133926 -0.037108675 -0.03885443 0.030761823 -0.03510633 0.013406083 0.052067995 -0.16697554
-0.1823829 0.09157543 -0.16155753 -0.05959271 -0.09885265 -0.1656211 0.1371253 -0.052799262
-0.07164317 -0.017183872 -0.3509573 0.00036741572 0.015752092 -0.060407355 -0.120744914 -0.06383644
0.030142099 0.031501457 0.003594786 -0.054660678 -0.098016016 -0.108139366 -0.05944262 -0.20617269
-0.06886198 -0.12023791 0.08033693 -0.15134025 -0.17668344 -0.13026294 0.11252325 -0.074377246
-0.04499753 0.02658759 0.044646908 0.02397593 -0.07465392 -0.0985353 -0.3783198 0.048525356
-0.17095049 -0.05596484 0.032414045 0.030356051 -0.15867563 -0.00092591345 -0.01631366 0.0659858
0.04345351 -0.08984301 0.058042184 0.03136996 -0.08062182 -0.01841771 -0.09727917 -0.09180935
-0.16617279 0.09147011 0.035182662 -0.123119846 0.05565655 -0.11846191 -0.0870339 -0.032091606
-0.12373274 -0.07840739 -0.13928309 -0.07413556 -0.050604332 -0.17511669 -0.015786104 -0.021596758
0.033141673 0.061269496 -0.2787199 0.02257934 0.1177104 -0.16206852 -0.12030621 0.033076003
0.042941518 0.16874988 0.023554062 -0.103967465 -0.17139374 -0.0049834154 0.05087571 -0.08367654
-0.10026777 -0.0629269 -0.057889044 0.11126043 -0.066998646 -0.115102105 -0.20960724 -0.0055713803
0.09283498 0.008043602 -0.08180401 -0.123650394 -0.11141075 0.09340304 -0.19899599 -0.2549857
0.11976209 -0.0027083124 0.021522895 -0.044202104 -0.04620961 -0.03463149 -0.09238906 -0.07182206
-0.13927647 -0.10089134 0.043792382 -0.13133445 -0.0037486106 -0.014293946 -0.01071125 -0.06740315
-0.016957492 -0.012915954 -0.010008872 0.012210637 0.014709234 -0.039543584 -0.120428264 -0.010076284
-0.23804313 0.033358566 -0.2155698 0.052198686 -0.06615763 -0.079059646 -0.0878479 -0.4136531
-0.033629403 -0.008874944 0.016535938 -0.10812508 -0.09929085 0.05247788 -0.10150963 0.027459368
-0.19874704 -0.08341487 0.11443919 -0.034450702 -0.053149834 -0.03864862 -0.054031238 0.016253853
-0.08234476 0.011105812 -0.04917504 -0.0553283 -0.046907723 -0.15835103 -0.09374808 -0.023413286
-0.031004652 -0.033172738 0.055608876 -0.025300428 -0.047705382 -0.11613417 -0.12676835 -0.1329373
-0.105827905 0.037977353 -0.23005497 0.024649162 -0.03518255 0.0385637 -0.020514363 -0.05173032
-0.118016854 -0.32226104 -0.0893497 0.10976261 -0.11677845 -0.12362024 0.053600214 -0.052125156
-0.15236744 -0.05740547 -0.017661681 -0.0063211024 0.0122468285 -0.041996032 -0.093057945 -0.1338065
-0.16429114 0.04675658 -0.15640493 0.08477524 -0.13072623 0.01113885 -0.06653174 -0.23455802
-0.08863106 -0.2529391 -0.2707111 0.0034428658 -0.026561514 -0.23883674 -0.060097396 0.03160736
0.11711149 -0.045699403 -0.109004214 0.0011413696 -0.09324696 -0.041511577 0.00852715 -0.2263086

network.2.bias f4 [32]
00000000: 210a 95be 2d17 88be a9ee 12bf 87f0 dcbe
00000010: 80db 1abd 5fb0 e0be ebc4 06bf 1149 cebe
00000020: bd03 b3be 51bd fabe 691f b6bc e749 e8be
00000030: 33e2 d53f c5f7 e8be 21e4 0abf 03c5 c8be
00000040: cd35 e3be e3e1 03bf 9a69 e7be 9ad7 753f
00000050: a86e a5be cbc5 d13f a203 f0be 1365 383e
00000060: dd9c a2be c182 ecbe 3946 e0be 3bd6 a4be
00000070: 54e4 3ebe 532b 8abd 325c 24be 4b0f 9cbe
-0.2910929 -0.26580182 -0.57395416 -0.43152258 -0.037806988 -0.4388456 -0.5264422 -0.4029012
-0.3496379 -0.48972562 -0.022231774 -0.45368883 1.6709656 -0.45501533 -0.5425435 -0.39212808
-0.44376984 -0.5151655 -0.45197755 0.96032107 -0.32310987 1.6388487 -0.46877772 0.18007307
-0.31760302 -0.46193507 -0.43803576 -0.32194695 -0.18641788 -0.06746545 -0.16050795 -0.30480418

network.4.weight f4 [3, 32]
00000000: b403 173e e40c 00bb 3e2b 8abe 99b6 923e
00000010: e132 a33c fdde 19be aa16 103e e660 53bd
00000020: 98fa 8ebe 19fb 2cbe 409b 5840 37c7 823e
00000030: bb4e 42c0 e6bf 333e ffdc cc3d dd69 553d
00000040: c101 92be 12f6 86be 6f15 d03c d086 35c0
00000050: bdbd a0bd 7811 2440 f765 8c3d d8b1 e83e
00000060: a003 0abe 2520 393e 99ad ef3b 5447 ef3c
00000070: bd8a eabc 2342 c43d f91a 4c3e 37e7 e1bb
00000080: bbcb f3bb 7587 66bc 33b8 c1bd 2d83 5bbc
00000090: 5e24 edbc 4d7b e83e a25e 8a3e 8652 463e
000000a0: af51 03bf c3ce 6fbc 25f1 4f40 ca79 da3d
000000b0: df41 3fc0 8ea9 1a3d ec44 233e a7e4 ad3d
000000c0: bf02 3c3d 20ce e03e 0281 96be 0293 32c0
000000d0: 1009 a33e 7ab0 2d40 191d f9bc 6d3c 0e3e
000000e0: fd8c 53bc 20ef 393c cfaa d7bd b78a d23c
000000f0: ba06 8abb bc9f 26bc 3806 85bd e0b8 14bd
00000100: e7ef 3b3e b144 0a3d 0e2f ef3d cb3a af3d
00000110: c67b 4e3d 65f6 f93e 9800 c23d fe93 9bbe
00000120: 2d1c 133f a7f8 9d3d fd87 1340 7d28 ebbc
00000130: f507 3dc0 4fa3 a83d dc80 3f3e db82 943e
00000140: 5263 8cbd abcb 963d 4260 c93d 93d0 7dbf
00000150: bfca d6bd deb2 0b40 c556 183e f2b3 e1bd
00000160: 888d 393e f189 313e 9653 71be 46a2 1f3e
00000170: 8585 44bd f1ba f83c e34b cc3d 3b27 adbc
0.14747506 -0.0019538933 -0.26986116 0.28654936 0.019921722 -0.1502647 0.14071146 -0.05160608
-0.27925563 -0.16892661 3.3844757 0.25542614 -3.0360553 0.17553672 0.10003089 0.052102912
-0.28516963 -0.26359612 0.025400845 -2.8363533 -0.0784869 2.5635662 0.06855386 0.45448184
-0.13477945 0.18078668 0.0073143956 0.029208817 -0.028630609 0.09582927 0.19932164 -0.006894018
-0.007440058 -0.014070381 -0.09458961 -0.013397974 -0.028948005 0.4540657 0.27025324 0.19367418
-0.51296514 -0.014636698 3.2490933 0.10667761 -2.9883955 0.037759356 0.1594426 0.084908776
0.045901056 0.4390726 -0.293953 -2.7902226 0.31842852 2.7138963 -0.030409383 0.13890238
-0.012912032 0.011348516 -0.10530626 0.02570091 -0.0042122276 -0.01016992 -0.06495327 -0.036309123
0.18353234 0.033756915 0.11678897 0.08556136 0.05041101 0.48820797 0.094727695 -0.30386347
0.5746487 0.07713442 2.305175 -0.02870583 -2.9536107 0.08234274 0.187015 0.29006085
-0.06854881 0.07363065 0.09832813 -0.99146384 -0.104878895 2.1827922 0.1487685 -0.1102065
0.18120396 0.17337777 -0.23567042 0.15589246 -0.047978897 0.030362578 0.09975412 -0.02113687

network.4.bias f4 [3]
00000000: d1d2 8541 5954 8441 0ecc 7c41
16.727938 16.541185 15.799818

network.0.weight f4 [64, 6]
00000000: c7b4 1fc0 64ec 37c0 211d dfbd d65a 8bbe
00000010: 681c ae3d 7e02 c3be 81f8 7f3e f6be a93c
00000020: a302 893c 68e2 183e 0fa0 d8bd eb72 2cbe
00000030: 1056 333e d2c1 113e d4f6 79be 6069 e5bb
00000040: 46ab 003e 7294 88be 6058 2abf dc5a e1bd
00000050: 513c 573e 6cfa de3d 2436 64be 941b 833d
00000060: 7ca1 2ebf 1d23 c3c0 1776 1cbf 4799 fabf
00000070: 1645 0abf d6dc ecbf d89b 2bbf e132 dcbe
00000080: bdc6 623e 5a7e d2bd 0ae1 cc3c 97d1 abbe
00000090: 5612 26bd 2231 3fbf b512 5cbd 6d18 f3bd
000000a0: 343f 253d 9968 49bf ec75 23bf 0b95 58bf
000000b0: 63c5 573e 68f9 69bd e856 7abe 66ae c8be
000000c0: f8bd b5be 2588 1d3d 12ef b1bd 588a 093d
000000d0: e907 523e 8578 61be 2871 51bf ee41 5bbf
000000e0: b3f9 cfbd ca42 22bd 4650 d0bd 4dc0 b0bd
000000f0: 0256 e73d 7d77 d9be 9b28 543e d00b 51be
00000100: 7b52 f0bc 0257 ebbe 8231 8abb e62c f03d
00000110: 160d 29bd c965 903d 7f8f 8d3d ad72 fd3d
00000120: ddcb ebbe a42d 00bd 3f71 dcbd 806b 2dbd
00000130: 4886 8b3d 2024 8abe 16e8 fdbc 8f9d c6be
00000140: 9486 f93d 2647 f23d 8415 543d cd30 efbe
00000150: ef7b 39c1 4d89 e6be 8057 ffbf ceae 77c0
00000160: f7e7 f0bf 1a94 c4be 24a3 dcc0 6b23 c43f
00000170: 48c1 b73f cfee 60c0 cc71 b83f 7845 2abe
00000180: d198 cd3d 3167 00bd 4c7d d23d 5519 673d
00000190: 0989 5abe 7455 033e e414 74be f5b9 2cbf
000001a0: f658 7b3e df63 383c 79e5 a93d 0032 02bf
000001b0: c2b3 8ec0 d6d9 a53f 6dbf a0bc 6d5c 1ebe
000001c0: 29e6 923d d914 a6bf 4f00 7cbf da94 99be
000001d0: 4fa6 abbd 4d9e afbd 453c 013e f74a 9bbe
000001e0: 29a3 44bf a788 fcbe c31e f43d f739 cbbd
000001f0: 856c cc3e b437 60bf e810 9cbe 25ef c93e
00000200: feab b03d 3a38 c33c 5a5a 4dbe 2d9e d0be
00000210: cced 01bf 786d 2dbe 4feb b13d 2f82 cbbd
00000220: f32b ab3d 4fe3 24bf 1a1a cebe b0bb ab3e
00000230: 6cdc db3d 4cbb 963d d1ad 19be 97d8 6abe
00000240: 318e 98be 5acf 983d 3d30 2c3e 0353 d7bd
00000250: 7f07 ce3d 34ba f5be 3390 0fc1 6e3e d140
00000260: bf22 d63e be7d 2ac0 8653 df3e 75d2 7ebf
00000270: 2a21 84bf f17f 03bf 2db5 ab3c 2659 b4bd
00000280: c651 543e 3efd 75bf 0cbe 123e 8d9a 53bd
00000290: 00d2 f83d 5d4d 733d 43be c8bd 2b2b 00bf
000002a0: cce6 7f3c 062b 39bd 61cf eebd 0529 d23d
000002b0: 41d5 953e 2086 1bba fd5d 85bd 17d5 eabd
000002c0: 1938 57bd a024 c03d db0a b2bd b0b7 d0be
000002d0: 4ce5 14c1 b6fd 13c0 6699 91be cd71 68c0
000002e0: a43a 63bd 77a7 1840 a3c3 24be 8ed4 ecbe
000002f0: c0b1 193d a08e 6ebd 6c14 8f3e ac0c 8cbe
00000300: c06e 9f3e 50ae fdbe a161 d3bd 0737 d1bd
00000310: 64d7 743e b562 a5be fd9b 88bd 7127 af3d
00000320: cd5a 843e 9c8b 283d 324e 7dbe acc6 32be
00000330: 2af0 adbe 64fb 4bbe 3bfe 0b3e 3666 9c3d
00000340: 1739 043e 414c 02bf 49ee 503d ee25 0abd
00000350: 7697 583e 51c8 963c baba a9be 99f6 4dbc
00000360: d49b 17bf 2707 08bf 3927 cdbc f1bd 523e
00000370: 848f c43d b82c 02be c3ec b2be 4ec2 3e3d
00000380: 27d5 afbe f21d 4fbc 1072 893e 80c0 30be
00000390: cea4 3fbd 8888 8cbd d2ab 703e 64cb 103e
000003a0: 577d 90be 415a 5dbe d0a2 f83c 5221 51bf
000003b0: 45f2 bb3e 765a 37bd 0225 8dbd 53af 10bf
000003c0: 984a 6abe 32f3 83bf b71c 50be b99d 94bd
000003d0: 14fe 7c3e 5611 ffbe e907 dabe e984 fbbe
000003e0: bb7d d9bd b2a7 d23c dbee 823e b54a bfbe
000003f0: f9e4 2cbf 6f73 60bf 4404 593d da73 01be
-2.4954088 -2.8738031 -0.10894228 -0.2721774 0.08501512 -0.3808784 0.2499714 0.02072094
0.01672489 0.14930117 -0.10577404 -0.16840713 0.17513299 0.14234093 -0.24410564 -0.007001087
0.12565336 -0.26675755 -0.665411 -0.11003658 0.21019103 0.10887608 -0.22286278 0.064017445
-0.68215156 -6.0980363 -0.6111769 -1.9578027 -0.54011667 -1.8504894 -0.67034674 -0.43007568
0.22146125 -0.10278006 0.02500965 -0.33558342 -0.04054483 -0.74684346 -0.053728778 -0.11869893
0.04034348 -0.7867523 -0.6385181 -0.8460242 0.21071391 -0.057122618 -0.24447215 -0.39195555
-0.35496497 0.038459916 -0.08688177 0.0335792 0.2051083 -0.22018631 -0.8181329 -0.85647476
-0.10155048 -0.039614476 -0.10171561 -0.086304285 0.112957016 -0.42473975 0.20718615 -0.20414662
-0.029336205 -0.4596482 -0.0042173276 0.11727314 -0.041272245 0.07050664 0.06912135 0.12375388
-0.46053973 -0.031293526 -0.107637875 -0.042338848 0.068127215 -0.26980686 -0.030994456 -0.38792083
0.12183872 0.11829977 0.05177833 -0.4671692 -11.592757 -0.45026627 -1.9948578 -3.8700442
-1.882079 -0.38394243 -6.8949146 1.5323309 1.435586 -3.5145757 1.4409728 -0.16628063
0.10038913 -0.03134841 0.10277805 0.056420643 -0.21341337 0.12825567 -0.23836094 -0.6747125
0.24545655 0.01125428 0.082957216 -0.50857544 -4.459443 1.2957103 -0.019622529 -0.15464945
0.07172806 -1.2975112 -0.9843797 -0.29996377 -0.0838133 -0.08575115 0.12620647 -0.3033063
-0.7681146 -0.49323007 0.1191993 -0.09923165 0.39926544 -0.87584996 -0.30481648 0.39440265
0.08626555 0.023830522 -0.20053998 -0.4074568 -0.50753474 -0.1693629 0.0868746 -0.0993694
0.08357992 -0.64409345 -0.4025429 0.33541632 0.107354015 0.07359943 -0.15007712 -0.22934185
-0.29795983 0.07461424 0.16815276 -0.1051388 0.100600235 -0.47993624 -8.972705 6.538871
0.41823384 -2.6639247 0.4361841 -0.9953988 -1.0322621 -0.513671 0.020960415 -0.08806066
0.20734319 -0.9608954 0.1433031 -0.051661063 0.12149429 0.05939995 -0.098019145 -0.5006587
0.015618991 -0.045207046 -0.11660648 0.1026173 0.29264262 -0.0005932767 -0.065120675 -0.11466425
-0.052543733 0.09381986 -0.08693477 -0.40765142 -9.305981 -2.3123603 -0.28437346 -3.6319458
-0.055475846 2.3852212 -0.16090254 -0.46255916 0.03752303 -0.058241487 0.27945268 -0.27353418
0.31139183 -0.49547052 -0.103213556 -0.10215574 0.2391029 -0.3230187 -0.066703774 0.08552445
0.25850525 0.041148767 -0.2473686 -0.174586 -0.33972293 -0.19920117 0.136712 0.07636683
0.12912403 -0.50897604 0.051008496 -0.03372758 0.21151528 0.018406065 -0.33150274 -0.0125710005
-0.5922215 -0.53135914 -0.025043117 0.2058027 0.09597686 -0.12712371 -0.3494626 0.046572022
-0.3434231 -0.012641417 0.26844835 -0.17260933 -0.04678803 -0.06861979 0.23503044 0.14140087
-0.28220627 -0.2161646 0.030351073 -0.8169147 0.36708274 -0.044764005 -0.06891824 -0.56517524
-0.22880018 -1.0308592 -0.20323454 -0.07256646 0.24706298 -0.49817914 -0.4258416 -0.4912484
-0.10619684 0.025714729 0.25572857 -0.37361684 -0.67536885 -0.8767614 0.052982584 -0.1264185

network.0.bias f4 [64]
00000000: 72fd dfbe 3923 1abf 429a c3be a0bc f4be
00000010: 74d0 d3bf 3d62 b1be 11b5 62bf 7bab eabe
00000020: b3c5 103d 5dba 43bf f361 f6be eed0 02bf
00000030: c802 b1bd 3e3c f8bd 32d1 a1be d468 ae3e
00000040: 7e5a dbbe 5cf9 3cbf 9d76 9dbf 189a 28bf
00000050: dc20 88be ccdb 39be 88bd cebe 7712 8ebe
00000060: 7529 b3be 85a7 9cbf 29ef 8dbe 352c 4dbe
00000070: b55e 27bf af9c 70be dd9c 0f40 3706 94be
00000080: 3adc 20be e30e e9be d3ca 43be c5d6 a4be
00000090: 153b b1be 3eb6 c3be 75a3 afbe 8587 dcbe
000000a0: edf2 38bf d408 bcbd cdcf 0fbf 1404 34bf
000000b0: ff90 75be 602f c63f a6f6 39bf 6abe 96bf
000000c0: 5e76 9cbe ef1c 25bf bead b3be 4da9 b2be
000000d0: 0948 cebe 1c66 a5be 316c 0fbe ae4f cebe
000000e0: fe72 cbbd 960d d6be 24e4 41be b681 ecbe
000000f0: ba38 21bf 9fa4 f3bd ccb3 58bf aa44 03bf
-0.4374805 -0.60209996 -0.38203627 -0.4780016 -1.654799 -0.34645262 -0.88557535 -0.45833954
0.03534479 -0.7645624 -0.48121604 -0.5110005 -0.086431086 -0.12120865 -0.31604916 0.34064353
-0.42842478 -0.7381799 -1.2301823 -0.6586013 -0.2658757 -0.18150252 -0.40378976 -0.27748463
-0.34992567 -1.2238623 -0.27721527 -0.20036395 -0.65378886 -0.2349727 2.2439492 -0.28910992
-0.1570901 -0.4551917 -0.1912034 -0.32195106 -0.3461539 -0.38224977 -0.34304395 -0.43072143
-0.72245675 -0.09181371 -0.56176454 -0.7031872 -0.23981093 1.5483208 -0.7264198 -1.177686
-0.30559057 -0.64497274 -0.35093492 -0.3489479 -0.40289333 -0.32304466 -0.14006115 -0.40295166
-0.099340424 -0.4180724 -0.18934685 -0.46192712 -0.6297718 -0.11896633 -0.8464935 -0.5127665

network.2.weight f4 [32, 64]
00000000: 03ac 66be 9322 993b 92f5 96bd 078e b9bd
00000010: 0da9 fbbd 4215 6d3d 5465 07be 3402 e7bd
00000020: d4bb 623d 086b 6bbd d456 94bc 94d0 8b3d
00000030: 25ce 21bd 53a5 0e3d 2890 34be 4fd2 8abe
00000040: 1787 5b3b 0418 343d db30 bdbe aa2c 3c3c
00000050: 5f3d 4b3e 6ccc b5bd 6f05 18be f098 1c3c
00000060: 385d b23d 7cea 8a3d 3fba 863e b8bb 963c
00000070: c0bd 33bd d0d7 b6bc dbd1 86be 3474 1a3d
00000080: 1410 bbbd 44ff 17bd d325 1fbd 3800 fc3c
00000090: a8cb 0fbd 30a5 5b3c 4045 553d a3fb 2abe
000000a0: 95c2 3abe e68b bb3d 566f 25be 7c17 74bd
000000b0: 4273 cabd 9498 29be 936a 0c3e 0a44 58bd
000000c0: a8b9 92bd 31c5 8cbc adb0 b3be b4a1 c039
000000d0: 880a 813c b46d 77bd 1c49 f7bd aebc 82bd
000000e0: 90ec f63c ac07 013d 8096 6b3b e0e3 5fbd
000000f0: 9fbc c8bd 2c78 ddbd 1b7a 73bd ef1e 53be
00000100: 8307 8dbd 4b3f f6bd b087 a43d f0f8 1abe
00000110: 81ec 34be a663 05be 9772 e63d 1953 98bd
00000120: 544f 38bd 38ce d93c addf 363d 2b69 c43c
00000130: 28e4 98bd e0cc c9bd 22b3 c1be 86c2 463d
00000140: a50d 2fbe 633b 65bd 97c4 043d 41ad f83c
00000150: dd7b 22be 00b9 72ba 3aa4 85bc 9023 873d
00000160: 4ffc 313d 9dff b7bd a4bd 6d3d ca7d 003d
00000170: 0e1d a5bd bde0 96bc 4d3a c7bd 8a06 bcbd
00000180: 3329 2abe ae54 bb3d b21b 103d 4226 fcbd
00000190: 1ff8 633d 289c f2bd d43e b2bd 7d72 03bd
000001a0: 9767 fdbd 0e94 a0bd 3aa0 0ebe 62d4 97bd
000001b0: 7d46 4fbd ca51 33be dc51 81bc afeb b0bc
000001c0: 90bf 073d b9f5 7a3d 60b4 8ebe 4ff8 b83c
000001d0: 2612 f13d 4af5 25be 1a63 f6bd b47a 073d
000001e0: 72e3 2f3d c5cc 2c3e 73f4 c03c e5ec d4bd
000001f0: d781 2fbe eb4b a3bb 0c63 503d 9b5e abbd
00000200: 3059 cdbd d2df 80bd 101d 6dbd 82dc e33d
00000210: 9636 89bd a7ba ebbd 48a3 56be 2090 b6bb
00000220: 4420 be3d 50c9 033c dc88 a7bd 6b3c fdbd
00000230: 522b e4bd 184a bf3d 9bc5 4bbe 7c8d 82be
00000240: d445 f53d f17d 31bb c850 b03c 440d 35bd
00000250: 4a46 3dbd c0d9 0dbd 7a36 bdbd 7217 93bd
00000260: 7e9e 0ebe 1ea0 cebd a45f 333d 8a7c 06be
00000270: 40ab 75bb 2831 6abc 3d7e 2fbc aa0a 8abd
00000280: 70ea 8abc 709d 53bc 40fc 23bc 200f 483c
00000290: 00ff 703c 74f8 21bd 18a3 f6bd 0017 25bc
000002a0: 94c1 73be fea2 083d 54be 5cbe 4ace 553d
000002b0: a77d 87bd 06ea a1bd 9ae9 b3bd 57ca d3be
000002c0: fcbe 09bd 3768 11bc 6076 873c af70 ddbd
000002d0: 0059 cbbd 0cf3 563d 48e4 cfbd 78f2 e03c
000002e0: 5884 4bbe 6ad5 aabd 185f ea3d 2e1c 0dbd
000002f0: a4b3 59bd 044e 1ebd dc4f 5dbd cd26 853c
00000300: 5fa4 a8bd 27f5 353c c46b 49bd ed9f 62bd
00000310: 5022 40bd c626 22be fefe bfbd 38cd bfbc
00000320: 78fd fdbc 23e0 07bd 22c6 633d d842 cfbc
00000330: b866 43bd c0d7 edbd 90cf 01be b720 08be
00000340: 4dbc d8bd 248e 1b3d 8893 6bbe 0aed c93c
00000350: 941b 10bd f8f4 1d3d bd0d a8bc 2ce3 53bd
00000360: d2b2 f1bd 66ff a4be fafc b6bd 38cb e03d
00000370: 8a29 efbd 9c2c fdbd e68b 5b3d 3081 55bd
00000380: 3606 1cbe 0022 6bbd 3baf 90bc 4021 cfbb
00000390: eca6 483c 0804 2cbd 2a95 bebd 9204 09be
000003a0: f03b 28be d483 3f3d 9d28 20be a49e ad3d
000003b0: 19dd 05be b97f 363c cb41 88bd fa2f 70be
000003c0: 3484 b5bd 3c81 81be a59a 8abe b4a1 613b
000003d0: 8897 d9bc 9e91 74be b028 76bd b876 013d
000003e0: 26d8 ef3d 4c2f 3bbd 9a3d dfbd 029a 953a
000003f0: 43f8 bebd 0b08 2abd 76b5 0b3c 71bd 67be
-0.22526555 0.004673311 -0.073710576 -0.09060293 -0.12288103 0.0578816 -0.13222247 -0.11279717
0.055354908 -0.05747512 -0.01810781 0.068268925 -0.039503235 0.034825634 -0.17633116 -0.27113578
0.0033497268 0.043968216 -0.36951336 0.011485258 0.1984763 -0.08876881 -0.14845823 0.0095579475
0.08709186 0.067830056 0.2631397 0.018400058 -0.04388213 -0.022319704 -0.26331982 0.037708476
-0.09133926 -0.037108675 -0.03885443 0.030761823 -0.03510633 0.013406083 0.052067995 -0.16697554
-0.1823829 0.09157543 -0.16155753 -0.05959271 -0.09885265 -0.1656211 0.1371253 -0.052799262
-0.07164317 -0.017183872 -0.3509573 0.00036741572 0.015752092 -0.060407355 -0.120744914 -0.06383644
0.030142099 0.031501457 0.003594786 -0.054660678 -0.098016016 -0.108139366 -0.05944262 -0.20617269
-0.06886198 -0.12023791 0.08033693 -0.15134025 -0.17668344 -0.13026294 0.11252325 -0.074377246
-0.04499753 0.02658759 0.044646908 0.02397593 -0.07465392 -0.0985353 -0.3783198 0.048525356
-0.17095049 -0.05596484 0.032414045 0.030356051 -0.15867563 -0.00092591345 -0.01631366 0.0659858
0.04345351 -0.08984301 0.058042184 0.03136996 -0.08062182 -0.01841771 -0.09727917 -0.09180935
-0.16617279 0.09147011 0.035182662 -0.123119846 0.05565655 -0.11846191 -0.0870339 -0.032091606
-0.12373274 -0.07840739 -0.13928309 -0.07413556 -0.050604332 -0.17511669 -0.015786104 -0.021596758
0.033141673 0.061269496 -0.2787199 0.02257934 0.1177104 -0.16206852 -0.12030621 0.033076003
0.042941518 0.16874988 0.023554062 -0.103967465 -0.17139374 -0.0049834154 0.05087571 -0.08367654
-0.10026777 -0.0629269 -0.057889044 0.11126043 -0.066998646 -0.115102105 -0.20960724 -0.0055713803
0.09283498 0.008043602 -0.08180401 -0.123650394 -0.11141075 0.09340304 -0.19899599 -0.2549857
0.11976209 -0.0027083124 0.021522895 -0.044202104 -0.04620961 -0.03463149 -0.09238906 -0.07182206
-0.13927647 -0.10089134 0.043792382 -0.13133445 -0.0037486106 -0.014293946 -0.01071125 -0.06740315
-0.016957492 -0.012915954 -0.010008872 0.012210637 0.014709234 -0.039543584 -0.120428264 -0.010076284
-0.23804313 0.033358566 -0.2155698 0.052198686 -0.06615763 -0.079059646 -0.0878479 -0.4136531
-0.033629403 -0.008874944 0.016535938 -0.10812508 -0.09929085 0.05247788 -0.10150963 0.027459368
-0.19874704 -0.08341487 0.11443919 -0.034450702 -0.053149834 -0.03864862 -0.054031238 0.016253853
-0.08234476 0.011105812 -0.04917504 -0.0553283 -0.046907723 -0.15835103 -0.09374808 -0.023413286
-0.031004652 -0.033172738 0.055608876 -0.025300428 -0.047705382 -0.11613417 -0.12676835 -0.1329373
-0.105827905 0.037977353 -0.23005497 0.024649162 -0.03518255 0.0385637 -0.020514363 -0.05173032
-0.118016854 -0.32226104 -0.0893497 0.10976261 -0.11677845 -0.12362024 0.053600214 -0.052125156
-0.15236744 -0.05740547 -0.017661681 -0.0063211024 0.0122468285 -0.041996032 -0.093057945 -0.1338065
-0.16429114 0.04675658 -0.15640493 0.08477524 -0.13072623 0.01113885 -0.06653174 -0.23455802
-0.08863106 -0.2529391 -0.2707111 0.0034428658 -0.026561514 -0.23883674 -0.060097396 0.03160736
0.11711149 -0.045699403 -0.109004214 0.0011413696 -0.09324696 -0.041511577 0.00852715 -0.2263086

network.2.bias f4 [32]
00000000: 210a 95be 2d17 88be a9ee 12bf 87f0 dcbe
00000010: 80db 1abd 5fb0 e0be ebc4 06bf 1149 cebe
00000020: bd03 b3be 51bd fabe 7853 a2bc e749 e8be
00000030: e5df d73f c5f7 e8be 21e4 0abf 03c5 c8be
00000040: cd35 e3be e3e1 03bf 9a69 e7be fc59 723f
00000050: a86e a5be 839b d13f a203 f0be be34 133e
00000060: dd9c a2be c182 ecbe 3946 e0be 3bd6 a4be
00000070: 54e4 3ebe 532b 8abd 325c 24be 4b0f 9cbe
-0.2910929 -0.26580182 -0.57395416 -0.43152258 -0.037806988 -0.4388456 -0.5264422 -0.4029012
-0.3496379 -0.48972562 -0.019815192 -0.45368883 1.6865202 -0.45501533 -0.5425435 -0.39212808
-0.44376984 -0.5151655 -0.45197755 0.94668555 -0.32310987 1.6375583 -0.46877772 0.14375588
-0.31760302 -0.46193507 -0.43803576 -0.32194695 -0.18641788 -0.06746545 -0.16050795 -0.30480418

network.4.weight f4 [3, 32]
00000000: b403 173e e40c 00bb 3e2b 8abe 99b6 923e
00000010: e132 a33c fdde 19be aa16 103e e660 53bd
00000020: 98fa 8ebe 19fb 2cbe 8d3a 5840 37c7 823e
00000030: 2ff7 42c0 e6bf 333e ffdc cc3d dd69 553d
00000040: c101 92be 12f6 86be 6f15 d03c 1411 33c0
00000050: bdbd a0bd 5fa4 2640 f765 8c3d 203a c03e
00000060: a003 0abe 2520 393e 99ad ef3b 5447 ef3c
00000070: bd8a eabc 2342 c43d f91a 4c3e 37e7 e1bb
00000080: bbcb f3bb 7587 66bc 33b8 c1bd 2d83 5bbc
00000090: 5e24 edbc 4d7b e83e a25e 8a3e 8652 463e
000000a0: af51 03bf c3ce 6fbc 3732 4f40 ca79 da3d
000000b0: 6308 43c0 8ea9 1a3d ec44 233e a7e4 ad3d
000000c0: bf02 3c3d 20ce e03e 0281 96be a729 33c0
000000d0: 1009 a33e 0f82 2e40 191d f9bc e03b 833d
000000e0: fd8c 53bc 20ef 393c cfaa d7bd b78a d23c
000000f0: ba06 8abb bc9f 26bc 3806 85bd e0b8 14bd
00000100: e7ef 3b3e b144 0a3d 0e2f ef3d cb3a af3d
00000110: c67b 4e3d 65f6 f93e 9800 c23d fe93 9bbe
00000120: 2d1c 133f a7f8 9d3d 2348 1140 7d28 ebbc
00000130: aba8 3ec0 4fa3 a83d dc80 3f3e db82 943e
00000140: 5263 8cbd abcb 963d 4260 c93d 5b58 84bf
00000150: bfca d6bd e2a8 0a40 c556 183e f954 11be
00000160: 888d 393e f189 313e 9653 71be 46a2 1f3e
00000170: 8585 44bd f1ba f83c e34b cc3d 3b27 adbc
0.14747506 -0.0019538933 -0.26986116 0.28654936 0.019921722 -0.1502647 0.14071146 -0.05160608
-0.27925563 -0.16892661 3.3785737 0.25542614 -3.046337 0.17553672 0.10003089 0.052102912
-0.28516963 -0.26359612 0.025400845 -2.7979174 -0.0784869 2.6037824 0.06855386 0.37544346
-0.13477945 0.18078668 0.0073143956 0.029208817 -0.028630609 0.09582927 0.19932164 -0.006894018
-0.007440058 -0.014070381 -0.09458961 -0.013397974 -0.028948005 0.4540657 0.27025324 0.19367418
-0.51296514 -0.014636698 3.2374399 0.10667761 -3.047387 0.037759356 0.1594426 0.084908776
0.045901056 0.4390726 -0.293953 -2.7994173 0.31842852 2.7266881 -0.030409383 0.064079046
-0.012912032 0.011348516 -0.10530626 0.02570091 -0.0042122276 -0.01016992 -0.06495327 -0.036309123
0.18353234 0.033756915 0.11678897 0.08556136 0.05041101 0.48820797 0.094727695 -0.30386347
0.5746487 0.07713442 2.2700279 -0.02870583 -2.9790447 0.08234274 0.187015 0.29006085
-0.06854881 0.07363065 0.09832813 -1.0339464 -0.104878895 2.1665578 0.1487685 -0.14192571
0.18120396 0.17337777 -0.23567042 0.15589246 -0.047978897 0.030362578 0.09975412 -0.02113687

network.4.bias f4 [3]
00000000: 297f 8541 d01a 8441 b684 7c41
16.68709 16.513092 15.7824

exp_avg f4 [64, 6]
00000000: 0400 0000 0400 0000 0400 0080 0400 0080
00000010: 0400 0080 0400 0000 0400 0000 0400 0000
00000020: 0400 0080 0400 0000 0400 0080 0400 0000
00000030: 0000 0000 0000 0000 0000 0000 0000 0000
00000040: 0000 0000 0000 0000 0400 0000 0400 0000
00000050: 0400 0000 0400 0000 0400 0000 0400 0000
00000060: 0400 0000 0400 0000 0400 0080 0400 0080
00000070: 0400 0080 0400 0000 0400 0000 0400 0000
00000080: 0400 0000 0400 0080 0400 0000 0400 0000
00000090: 0400 0080 0400 0000 0400 0000 0400 0000
000000a0: 0400 0000 0400 0000 0400 0000 0400 0000
000000b0: 0400 0080 0400 0000 0400 0080 0400 0000
000000c0: 0000 0000 0000 0000 0000 0000 0000 0000
000000d0: 0000 0000 0000 0000 0400 0000 0400 0000
000000e0: 0400 0080 0400 0080 0400 0080 0400 0000
000000f0: 0400 0000 0400 0000 0400 0000 0400 0080
00000100: 0400 0000 0400 0000 0400 0000 0400 0000
00000110: 0400 0080 0400 0000 0400 0080 0400 0000
00000120: 0400 0000 0400 0000 0400 0000 0400 0080
00000130: 0400 0000 0400 0000 0400 0000 0400 0000
00000140: 0400 0000 0400 0000 0400 0000 0400 0000
00000150: 3aed 113d 558d bc3c dd7c 93bd dd7c 93bd
00000160: 3dfc 30bd 30fa 243d 0400 0000 0400 0000
00000170: 0400 0080 0400 0080 0400 0080 0400 0000
00000180: 0400 0000 0400 0000 0400 0000 0400 0000
00000190: 0400 0000 0400 0000 0400 0000 0400 0000
000001a0: 0400 0080 0400 0000 0400 0080 0400 0000
000001b0: 0400 0000 0400 0000 0400 0080 0400 0000
000001c0: 0400 0080 0400 0000 0400 0000 0400 0000
000001d0: 0400 0080 0400 0080 0400 0080 0400 0000
000001e0: 0400 0000 0400 0000 0400 0080 0400 0000
000001f0: 0400 0080 0400 0000 0000 0000 0000 0000
00000200: 0000 0000 0000 0000 0000 0000 0000 0000
00000210: 0400 0000 0400 0000 0400 0000 0400 0080
00000220: 0400 0000 0400 0000 0400 0000 0400 0000
00000230: 0400 0080 0400 0000 0400 0080 0400 0000
00000240: 0400 0000 0400 0000 0400 0080 0400 0000
00000250: 0400 0080 0400 0000 0400 0000 0400 0000
00000260: 0400 0080 0400 0080 0400 0080 0400 0000
00000270: 0400 0000 0400 0000 0400 0000 0400 0080
00000280: 0400 0000 0400 0000 0400 0000 0400 0000
00000290: 0400 0080 0400 0080 0400 0080 0400 0000
000002a0: 0400 0000 0400 0000 0400 0000 0400 0000
000002b0: 0400 0000 0400 0000 0400 0000 0400 0000
000002c0: 0400 0080 0400 0080 0400 0080 0400 0000
000002d0: ad68 98be 2d81 49be 73eb 1c3f 4580 1c3f
000002e0: bd4d bc3e 5779 b0be 0400 0080 0400 0000
000002f0: 0400 0000 0400 0000 0400 0000 0400 0000
00000300: 0400 0000 0400 0000 0400 0000 0400 0080
00000310: 0400 0000 0400 0000 0400 0000 0400 0000
00000320: 0400 0000 0400 0000 0400 0000 0400 0000
00000330: 0400 0000 0400 0000 0400 0000 0400 0000
00000340: 0400 0000 0400 0000 0400 0000 0400 0000
00000350: 0400 0080 0400 0000 0400 0080 0400 0000
00000360: 0400 0000 0400 0000 0400 0000 0400 0000
00000370: 0400 0000 0400 0000 0400 0000 0400 0000
00000380: 0400 0080 0400 0000 0400 0080 0400 0000
00000390: 0400 0000 0400 0000 0400 0000 0400 0000
000003a0: 0400 0000 0400 0000 0400 0000 0400 0000
000003b0: 0400 0000 0400 0080 0400 0000 0400 0000
000003c0: 0400 0000 0400 0000 0400 0000 0400 0000
000003d0: 0400 0000 0400 0000 0400 0000 0400 0000
000003e0: 0400 0080 0400 0000 0400 0080 0400 0000
000003f0: 0400 0000 0400 0000 0400 0000 0400 0080
6e-45 6e-45 -6e-45 -6e-45 -6e-45 6e-45 6e-45 6e-45
-6e-45 6e-45 -6e-45 6e-45 0.0 0.0 0.0 0.0
0.0 0.0 6e-45 6e-45 6e-45 6e-45 6e-45 6e-45
6e-45 6e-45 -6e-45 -6e-45 -6e-45 6e-45 6e-45 6e-45
6e-45 -6e-45 6e-45 6e-45 -6e-45 6e-45 6e-45 6e-45
6e-45 6e-45 6e-45 6e-45 -6e-45 6e-45 -6e-45 6e-45
0.0 0.0 0.0 0.0 0.0 0.0 6e-45 6e-45
-6e-45 -6e-45 -6e-45 6e-45 6e-45 6e-45 6e-45 -6e-45
6e-45 6e-45 6e-45 6e-45 -6e-45 6e-45 -6e-45 6e-45
6e-45 6e-45 6e-45 -6e-45 6e-45 6e-45 6e-45 6e-45
6e-45 6e-45 6e-45 6e-45 0.035626628 0.023016611 -0.0720155 -0.0720155
-0.043209303 0.04027766 6e-45 6e-45 -6e-45 -6e-45 -6e-45 6e-45
6e-45 6e-45 6e-45 6e-45 6e-45 6e-45 6e-45 6e-45
-6e-45 6e-45 -6e-45 6e-45 6e-45 6e-45 -6e-45 6e-45
-6e-45 6e-45 6e-45 6e-45 -6e-45 -6e-45 -6e-45 6e-45
6e-45 6e-45 -6e-45 6e-45 -6e-45 6e-45 0.0 0.0
0.0 0.0 0.0 0.0 6e-45 6e-45 6e-45 -6e-45
6e-45 6e-45 6e-45 6e-45 -6e-45 6e-45 -6e-45 6e-45
6e-45 6e-45 -6e-45 6e-45 -6e-45 6e-45 6e-45 6e-45
-6e-45 -6e-45 -6e-45 6e-45 6e-45 6e-45 6e-45 -6e-45
6e-45 6e-45 6e-45 6e-45 -6e-45 -6e-45 -6e-45 6e-45
6e-45 6e-45 6e-45 6e-45 6e-45 6e-45 6e-45 6e-45
-6e-45 -6e-45 -6e-45 6e-45 -0.2976736 -0.19678183 0.61296767 0.61133224
0.3677806 -0.34467575 -6e-45 6e-45 6e-45 6e-45 6e-45 6e-45
6e-45 6e-45 6e-45 -6e-45 6e-45 6e-45 6e-45 6e-45
6e-45 6e-45 6e-45 6e-45 6e-45 6e-45 6e-45 6e-45
6e-45 6e-45 6e-45 6e-45 -6e-45 6e-45 -6e-45 6e-45
6e-45 6e-45 6e-45 6e-45 6e-45 6e-45 6e-45 6e-45
-6e-45 6e-45 -6e-45 6e-45 6e-45 6e-45 6e-45 6e-45
6e-45 6e-45 6e-45 6e-45 6e-45 -6e-45 6e-45 6e-45
6e-45 6e-45 6e-45 6e-45 6e-45 6e-45 6e-45 6e-45
-6e-45 6e-45 -6e-45 6e-45 6e-45 6e-45 6e-45 -6e-45

exp_avg_sq f4 [64, 6]
00000000: f401 0000 f401 0000 f401 0000 f401 0000
00000010: f401 0000 f401 0000 f401 0000 f401 0000
00000020: f401 0000 f401 0000 f401 0000 f401 0000
00000030: 0000 0000 0000 0000 0000 0000 0000 0000
00000040: 0000 0000 0000 0000 f401 0000 f401 0000
00000050: f401 0000 f401 0000 f401 0000 f401 0000
00000060: 0fec 6935 f390 5834 435b 9536 435b 9536
00000070: d412 d735 f83b 9c35 f401 0000 f401 0000
00000080: f401 0000 f401 0000 f401 0000 f401 0000
00000090: f401 0000 f401 0000 f401 0000 f401 0000
000000a0: f401 0000 f401 0000 f401 0000 f401 0000
000000b0: f401 0000 f401 0000 f401 0000 f401 0000
000000c0: 0000 0000 0000 0000 0000 0000 0000 0000
000000d0: 0000 0000 0000 0000 f401 0000 f401 0000
000000e0: f401 0000 f401 0000 f401 0000 f401 0000
000000f0: f401 0000 f401 0000 f401 0000 f401 0000
00000100: f401 0000 f401 0000 f401 0000 f401 0000
00000110: f401 0000 f401 0000 f401 0000 f401 0000
00000120: f401 0000 f401 0000 f401 0000 f401 0000
00000130: f401 0000 f401 0000 f401 0000 f401 0000
00000140: f401 0000 f401 0000 f401 0000 f401 0000
00000150: 02be 153d cb22 943c 32f4 073e 32f4 073e
00000160: 23c6 433d 2933 3d3d 4141 eb3b 71a8 e33b
00000170: 5271 013d 5271 013d ee65 3a3c 391b 283c
00000180: f401 0000 f401 0000 f401 0000 f401 0000
00000190: f401 0000 f401 0000 f401 0000 f401 0000
000001a0: f401 0000 f401 0000 f401 0000 f401 0000
000001b0: 0ab4 0200 615c 9c01 7e9e 5303 7e9e 5303
000001c0: 685d 9802 e1bc 6502 f401 0000 f401 0000
000001d0: f202 0000 f401 0000 f401 0000 f401 0000
000001e0: f401 0000 f401 0000 f401 0000 f401 0000
000001f0: f401 0000 f401 0000 0000 0000 0000 0000
00000200: 0000 0000 0000 0000 0000 0000 0000 0000
00000210: f401 0000 f401 0000 f401 0000 f401 0000
00000220: f401 0000 f401 0000 f401 0000 f401 0000
00000230: f401 0000 f401 0000 f401 0000 f401 0000
00000240: f401 0000 f401 0000 f401 0000 f401 0000
00000250: f401 0000 f401 0000 d163 a437 f3f6 9037
00000260: 97cd 9938 97cd 9938 0d7a dd37 f0df dc37
00000270: f401 0000 f401 0000 f401 0000 f401 0000
00000280: f401 0000 f401 0000 f401 0000 f401 0000
00000290: f401 0000 f401 0000 f401 0000 f401 0000
000002a0: f401 0000 f401 0000 f401 0000 f401 0000
000002b0: f401 0000 f401 0000 f401 0000 f401 0000
000002c0: f401 0000 f401 0000 f401 0000 f401 0000
000002d0: 3a1a 0240 428d 9f3f 80d3 e340 268b de40
000002e0: ec08 2440 c5a2 2f40 f401 0000 f401 0000
000002f0: f401 0000 f401 0000 f401 0000 f401 0000
00000300: f401 0000 f401 0000 f401 0000 f401 0000
00000310: f401 0000 f401 0000 f401 0000 f401 0000
00000320: f401 0000 f401 0000 f401 0000 f401 0000
00000330: f401 0000 f401 0000 f401 0000 f401 0000
00000340: f401 0000 f401 0000 f401 0000 f401 0000
00000350: f401 0000 f401 0000 f401 0000 f401 0000
00000360: f401 0000 f401 0000 f401 0000 f401 0000
00000370: f401 0000 f401 0000 f401 0000 f401 0000
00000380: f401 0000 f401 0000 f401 0000 f401 0000
00000390: f401 0000 f401 0000 f401 0000 f401 0000
000003a0: f401 0000 f401 0000 f401 0000 f401 0000
000003b0: f401 0000 f401 0000 f401 0000 f401 0000
000003c0: f401 0000 f401 0000 f401 0000 f401 0000
000003d0: f401 0000 f401 0000 f401 0000 f401 0000
000003e0: f401 0000 f401 0000 f401 0000 f401 0000
000003f0: f401 0000 f401 0000 f401 0000 f401 0000
7e-43 7e-43 7e-43 7e-43 7e-43 7e-43 7e-43 7e-43
7e-43 7e-43 7e-43 7e-43 0.0 0.0 0.0 0.0
0.0 0.0 7e-43 7e-43 7e-43 7e-43 7e-43 7e-43
8.7142774e-07 2.01693e-07 4.4511703e-06 4.4511703e-06 1.6024228e-06 1.1640359e-06 7e-43 7e-43
7e-43 7e-43 7e-43 7e-43 7e-43 7e-43 7e-43 7e-43
7e-43 7e-43 7e-43 7e-43 7e-43 7e-43 7e-43 7e-43
0.0 0.0 0.0 0.0 0.0 0.0 7e-43 7e-43
7e-43 7e-43 7e-43 7e-43 7e-43 7e-43 7e-43 7e-43
7e-43 7e-43 7e-43 7e-43 7e-43 7e-43 7e-43 7e-43
7e-43 7e-43 7e-43 7e-43 7e-43 7e-43 7e-43 7e-43
7e-43 7e-43 7e-43 7e-43 0.03655816 0.018082997 0.13276747 0.13276747
0.04779638 0.04619137 0.0071794097 0.00694757 0.03160221 0.03160221 0.011376841 0.010260397
7e-43 7e-43 7e-43 7e-43 7e-43 7e-43 7e-43 7e-43
7e-43 7e-43 7e-43 7e-43 2.48257e-40 5.7437907e-38 6.2189267e-37 6.2189267e-37
2.2388005e-37 1.6878468e-37 7e-43 7e-43 1.057e-42 7e-43 7e-43 7e-43
7e-43 7e-43 7e-43 7e-43 7e-43 7e-43 0.0 0.0
0.0 0.0 0.0 0.0 7e-43 7e-43 7e-43 7e-43
7e-43 7e-43 7e-43 7e-43 7e-43 7e-43 7e-43 7e-43
7e-43 7e-43 7e-43 7e-43 7e-43 7e-43 1.9596804e-05 1.7281132e-05
7.3339026e-05 7.3339026e-05 2.6402087e-05 2.6330323e-05 7e-43 7e-43 7e-43 7e-43
7e-43 7e-43 7e-43 7e-43 7e-43 7e-43 7e-43 7e-43
7e-43 7e-43 7e-43 7e-43 7e-43 7e-43 7e-43 7e-43
7e-43 7e-43 7e-43 7e-43 2.0328507 1.2464983 7.119568 6.954486
2.5630445 2.7443097 7e-43 7e-43 7e-43 7e-43 7e-43 7e-43
7e-43 7e-43 7e-43 7e-43 7e-43 7e-43 7e-43 7e-43
7e-43 7e-43 7e-43 7e-43 7e-43 7e-43 7e-43 7e-43
7e-43 7e-43 7e-43 7e-43 7e-43 7e-43 7e-43 7e-43
7e-43 7e-43 7e-43 7e-43 7e-43 7e-43 7e-43 7e-43
7e-43 7e-43 7e-43 7e-43 7e-43 7e-43 7e-43 7e-43
7e-43 7e-43 7e-43 7e-43 7e-43 7e-43 7e-43 7e-43
7e-43 7e-43 7e-43 7e-43 7e-43 7e-43 7e-43 7e-43
7e-43 7e-43 7e-43 7e-43 7e-43 7e-43 7e-43 7e-43

exp_avg f4 [64]
00000000: 0400 0000 0400 0000 0000 0000 0400 0000
00000010: 0400 0000 0400 0000 0400 0000 0400 0000
00000020: 0000 0000 0400 0000 0400 0000 0400 0000
00000030: 0400 0000 0400 0000 30fa 243d 0400 0000
00000040: 0400 0000 0400 0000 0400 0000 0400 0000
00000050: 0400 0000 0000 0000 0400 0000 0400 0000
00000060: 0400 0000 0400 0000 0400 0000 0400 0000
00000070: 0400 0000 0400 0000 5879 b0be 0400 0000
00000080: 0400 0000 0400 0000 0400 0000 0400 0000
00000090: 0400 0000 0400 0000 0400 0000 0400 0000
000000a0: 0400 0000 0400 0000 0400 0000 0400 0000
000000b0: 0400 0000 df50 d13f 0400 0000 0400 0000
000000c0: 0400 0000 0400 0000 c36d f2be 0400 0000
000000d0: 0400 0000 0400 0000 0400 0000 0400 0000
000000e0: 0400 0000 0400 0000 0400 0000 0400 0000
000000f0: 0400 0000 0400 0000 0400 0000 0400 0000
6e-45 6e-45 0.0 6e-45 6e-45 6e-45 6e-45 6e-45
0.0 6e-45 6e-45 6e-45 6e-45 6e-45 0.04027766 6e-45
6e-45 6e-45 6e-45 6e-45 6e-45 0.0 6e-45 6e-45
6e-45 6e-45 6e-45 6e-45 6e-45 6e-45 -0.34467578 6e-45
6e-45 6e-45 6e-45 6e-45 6e-45 6e-45 6e-45 6e-45
6e-45 6e-45 6e-45 6e-45 6e-45 1.6352805 6e-45 6e-45
6e-45 6e-45 -0.47349367 6e-45 6e-45 6e-45 6e-45 6e-45
6e-45 6e-45 6e-45 6e-45 6e-45 6e-45 6e-45 6e-45

exp_avg_sq f4 [64]
00000000: f401 0000 f401 0000 0000 0000 f401 0000
00000010: f83b 9c35 f401 0000 f401 0000 f401 0000
00000020: 0000 0000 f401 0000 f401 0000 f401 0000
00000030: f401 0000 f401 0000 2933 3d3d 391b 283c
00000040: f401 0000 f401 0000 e1bc 6502 f401 0000
00000050: f401 0000 0000 0000 f401 0000 f401 0000
00000060: f401 0000 f0df dc37 f401 0000 f401 0000
00000070: f401 0000 f401 0000 c5a2 2f40 f401 0000
00000080: f401 0000 f401 0000 f401 0000 f401 0000
00000090: f401 0000 f401 0000 f401 0000 f401 0000
000000a0: f401 0000 f401 0000 f401 0000 f401 0000
000000b0: f401 0000 332f 1841 f401 0000 a8ad a737
000000c0: f401 0000 f401 0000 052b 4840 f401 0000
000000d0: f401 0000 f401 0000 f401 0000 f401 0000
000000e0: f401 0000 f401 0000 f401 0000 f401 0000
000000f0: f401 0000 f401 0000 f401 0000 f401 0000
7e-43 7e-43 0.0 7e-43 1.1640359e-06 7e-43 7e-43 7e-43
0.0 7e-43 7e-43 7e-43 7e-43 7e-43 0.04619137 0.010260397
7e-43 7e-43 1.6878468e-37 7e-43 7e-43 0.0 7e-43 7e-43
7e-43 2.6330323e-05 7e-43 7e-43 7e-43 7e-43 2.7443097 7e-43
7e-43 7e-43 7e-43 7e-43 7e-43 7e-43 7e-43 7e-43
7e-43 7e-43 7e-43 7e-43 7e-43 9.511523 7e-43 1.9988816e-05
7e-43 7e-43 3.1276257 7e-43 7e-43 7e-43 7e-43 7e-43
7e-43 7e-43 7e-43 7e-43 7e-43 7e-43 7e-43 7e-43
