models/paddle_dqn_model_checkpoint_80000.pth (torch, 52785 bytes, 24 tensors)

network.0.weight f4 [64, 6]
-2.4954088 -2.8738031 -0.10894228 -0.2721774 0.08501512 -0.3808784 0.2499714 0.02072094
0.01672489 0.14930117 -0.10577404 -0.16840713 0.17513299 0.14234093 -0.24410564 -0.007001087
0.12565336 -0.26675755 -0.665411 -0.11003658 0.21019103 0.10887608 -0.22286278 0.064017445
-1.8456028 -3.9767964 -0.64601314 -1.9926558 -0.574953 -1.1532174 -0.67034674 -0.43007568
0.22146125 -0.10278006 0.02500965 -0.33558342 -0.04054483 -0.74684346 -0.053728778 -0.11869893
0.04034348 -0.7867523 -0.6385181 -0.8460242 0.21071391 -0.057122618 -0.24447215 -0.39195555
-0.35496497 0.038459916 -0.08688177 0.0335792 0.2051083 -0.22018631 -0.8181329 -0.85647476
-0.10155048 -0.039614476 -0.10171561 -0.086304285 0.112957016 -0.42473975 0.20718615 -0.20414662
-0.029336205 -0.4596482 -0.0042173276 0.11727314 -0.041272245 0.07050664 0.06912135 0.12375388
-0.46053973 -0.031293526 -0.107637875 -0.042338848 0.068127215 -0.26980686 -0.030994456 -0.38792083
0.12183872 0.11829977 0.05177833 -0.4671692 -13.713916 0.5682281 -1.0484008 -2.1130364
-0.93561995 0.5771665 -7.519454 1.7052835 0.33454767 -2.1812172 0.33993268 -0.04160258
0.10038913 -0.03134841 0.10277805 0.056420643 -0.21341337 0.12825567 -0.23836094 -0.6747125
0.24545655 0.01125428 0.082957216 -0.50857544 -4.459443 1.2957103 -0.019622529 -0.15464945
0.07172806 -1.2975112 -0.9843797 -0.29996377 -0.0838133 -0.08575115 0.12620647 -0.3033063
-0.7681146 -0.49323007 0.1191993 -0.09923165 0.39926544 -0.87584996 -0.30481648 0.39440265
0.08626555 0.023830522 -0.20053998 -0.4074568 -0.50753474 -0.1693629 0.0868746 -0.0993694
0.08357992 -0.64409345 -0.4025429 0.33541632 0.107354015 0.07359943 -0.15007712 -0.22934185
-0.29795983 0.07461424 0.16815276 -0.1051388 0.100600235 -0.47993624 -6.3230996 3.2712452
0.24390562 -3.1604478 0.26185793 -0.83633983 -1.0322621 -0.513671 0.020960415 -0.08806066
0.20734319 -0.9608954 0.1433031 -0.051661063 0.12149429 0.05939995 -0.098019145 -0.5006587
0.015618991 -0.045207046 -0.11660648 0.1026173 0.29264262 -0.0005932767 -0.065120675 -0.11466425
-0.052543733 0.09381986 -0.08693477 -0.40765142 -8.412058 -0.96113175 -0.13090885 -2.9526558
0.09798838 2.0210834 -0.16090254 -0.46255916 0.03752303 -0.058241487 0.27945268 -0.27353418
0.31139183 -0.49547052 -0.103213556 -0.10215574 0.2391029 -0.3230187 -0.066703774 0.08552445
0.25850525 0.041148767 -0.2473686 -0.174586 -0.33972293 -0.19920117 0.136712 0.07636683
0.12912403 -0.50897604 0.051008496 -0.03372758 0.21151528 0.018406065 -0.33150274 -0.0125710005
-0.5922215 -0.53135914 -0.025043117 0.2058027 0.09597686 -0.12712371 -0.3494626 0.046572022
-0.3434231 -0.012641417 0.26844835 -0.17260933 -0.04678803 -0.06861979 0.23503044 0.14140087
-0.28220627 -0.2161646 0.030351073 -0.8169147 0.36708274 -0.044764005 -0.06891824 -0.56517524
-0.22880018 -1.0308592 -0.20323454 -0.07256646 0.24706298 -0.49817914 -0.4258416 -0.4912484
-0.10619684 0.025714729 0.25572857 -0.37361684 -0.67536885 -0.8767614 0.052982584 -0.1264185
00000000: c7b4 1fc0 64ec 37c0 211d dfbd d65a 8bbe
00000010: 681c ae3d 7e02 c3be 81f8 7f3e f6be a93c
00000020: a302 893c 68e2 183e 0fa0 d8bd eb72 2cbe
00000030: 1056 333e d2c1 113e d4f6 79be 6069 e5bb
00000040: 46ab 003e 7294 88be 6058 2abf dc5a e1bd
00000050: 513c 573e 6cfa de3d 2436 64be 941b 833d
00000060: b63c ecbf d583 7ec0 1e61 25bf 580f ffbf
00000070: 1f30 13bf a19c 93bf d89b 2bbf e132 dcbe
00000080: bdc6 623e 5a7e d2bd 0ae1 cc3c 97d1 abbe
00000090: 5612 26bd 2231 3fbf b512 5cbd 6d18 f3bd
000000a0: 343f 253d 9968 49bf ec75 23bf 0b95 58bf
000000b0: 63c5 573e 68f9 69bd e856 7abe 66ae c8be
000000c0: f8bd b5be 2588 1d3d 12ef b1bd 588a 093d
000000d0: e907 523e 8578 61be 2871 51bf ee41 5bbf
000000e0: b3f9 cfbd ca42 22bd 4650 d0bd 4dc0 b0bd
000000f0: 0256 e73d 7d77 d9be 9b28 543e d00b 51be
00000100: 7b52 f0bc 0257 ebbe 8231 8abb e62c f03d
00000110: 160d 29bd c965 903d 7f8f 8d3d ad72 fd3d
00000120: ddcb ebbe a42d 00bd 3f71 dcbd 806b 2dbd
00000130: 4886 8b3d 2024 8abe 16e8 fdbc 8f9d c6be
00000140: 9486 f93d 2647 f23d 8415 543d cd30 efbe
00000150: 336c 5bc1 6677 113f ff31 86bf fd3b 07c0
00000160: ca84 6fbf 2fc1 133f 5e9f f0c0 bb46 da3f
00000170: d549 ab3e 1099 0bc0 a80b ae3e 7867 2abd
00000180: d198 cd3d 3167 00bd 4c7d d23d 5519 673d
00000190: 0989 5abe 7455 033e e414 74be f5b9 2cbf
000001a0: f658 7b3e df63 383c 79e5 a93d 0032 02bf
000001b0: c2b3 8ec0 d6d9 a53f 6dbf a0bc 6d5c 1ebe
000001c0: 29e6 923d d914 a6bf 4f00 7cbf da94 99be
000001d0: 4fa6 abbd 4d9e afbd 453c 013e f74a 9bbe
000001e0: 29a3 44bf a788 fcbe c31e f43d f739 cbbd
000001f0: 856c cc3e b437 60bf e810 9cbe 25ef c93e
00000200: feab b03d 3a38 c33c 5a5a 4dbe 2d9e d0be
00000210: cced 01bf 786d 2dbe 4feb b13d 2f82 cbbd
00000220: f32b ab3d 4fe3 24bf 1a1a cebe b0bb ab3e
00000230: 6cdc db3d 4cbb 963d d1ad 19be 97d8 6abe
00000240: 318e 98be 5acf 983d 3d30 2c3e 0353 d7bd
00000250: 7f07 ce3d 34ba f5be d556 cac0 155c 5140
00000260: 65c2 793e c744 4ac0 3e12 863e 5e1a 56bf
00000270: 2a21 84bf f17f 03bf 2db5 ab3c 2659 b4bd
00000280: c651 543e 3efd 75bf 0cbe 123e 8d9a 53bd
00000290: 00d2 f83d 5d4d 733d 43be c8bd 2b2b 00bf
000002a0: cce6 7f3c 062b 39bd 61cf eebd 0529 d23d
000002b0: 41d5 953e 2086 1bba fd5d 85bd 17d5 eabd
000002c0: 1938 57bd a024 c03d db0a b2bd b0b7 d0be
000002d0: ca97 06c1 bb0c 76bf f80c 06be 50f8 3cc0
000002e0: 22ae c83d 6e59 0140 a3c3 24be 8ed4 ecbe
000002f0: c0b1 193d a08e 6ebd 6c14 8f3e ac0c 8cbe
00000300: c06e 9f3e 50ae fdbe a161 d3bd 0737 d1bd
00000310: 64d7 743e b562 a5be fd9b 88bd 7127 af3d
00000320: cd5a 843e 9c8b 283d 324e 7dbe acc6 32be
00000330: 2af0 adbe 64fb 4bbe 3bfe 0b3e 3666 9c3d
00000340: 1739 043e 414c 02bf 49ee 503d ee25 0abd
00000350: 7697 583e 51c8 963c baba a9be 99f6 4dbc
00000360: d49b 17bf 2707 08bf 3927 cdbc f1bd 523e
00000370: 848f c43d b82c 02be c3ec b2be 4ec2 3e3d
00000380: 27d5 afbe f21d 4fbc 1072 893e 80c0 30be
00000390: cea4 3fbd 8888 8cbd d2ab 703e 64cb 103e
000003a0: 577d 90be 415a 5dbe d0a2 f83c 5221 51bf
000003b0: 45f2 bb3e 765a 37bd 0225 8dbd 53af 10bf
000003c0: 984a 6abe 32f3 83bf b71c 50be b99d 94bd
000003d0: 14fe 7c3e 5611 ffbe e907 dabe e984 fbbe
000003e0: bb7d d9bd b2a7 d23c dbee 823e b54a bfbe
000003f0: f9e4 2cbf 6f73 60bf 4404 593d da73 01be

network.0.bias f4 [64]
-0.4374805 -0.60209996 -0.38203627 -0.4780016 -0.9575269 -0.34645262 -0.88557535 -0.45833954
0.03534479 -0.7645624 -0.48121604 -0.5110005 -0.086431086 -0.12120865 0.6450549 0.46532413
-0.42842478 -0.7381799 -1.2301823 -0.6586013 -0.2658757 -0.18150252 -0.40378976 -0.27748463
-0.34992567 -1.0648046 -0.27721527 -0.20036395 -0.65378886 -0.2349727 1.8798078 -0.28910992
-0.1570901 -0.4551917 -0.1912034 -0.32195106 -0.3461539 -0.38224977 -0.34304395 -0.43072143
-0.72245675 -0.09181371 -0.56176454 -0.7031872 -0.23981093 1.3180505 -0.7264198 -0.6043456
-0.30559057 -0.64497274 -0.13549852 -0.3489479 -0.40289333 -0.32304466 -0.14006115 -0.40295166
-0.099340424 -0.4180724 -0.18934685 -0.46192712 -0.6297718 -0.11896633 -0.8464935 -0.5127665
00000000: 72fd dfbe 3923 1abf 429a c3be a0bc f4be
00000010: 7c20 75bf 3d62 b1be 11b5 62bf 7bab eabe
00000020: b3c5 103d 5dba 43bf f361 f6be eed0 02bf
00000030: c802 b1bd 3e3c f8bd 5122 253f f73e ee3e
00000040: 7e5a dbbe 5cf9 3cbf 9d76 9dbf 189a 28bf
00000050: dc20 88be ccdb 39be 88bd cebe 7712 8ebe
00000060: 7529 b3be 844b 88bf 29ef 8dbe 352c 4dbe
00000070: b55e 27bf af9c 70be 8b9d f03f 3706 94be
00000080: 3adc 20be e30e e9be d3ca 43be c5d6 a4be
00000090: 153b b1be 3eb6 c3be 75a3 afbe 8587 dcbe
000000a0: edf2 38bf d408 bcbd cdcf 0fbf 1404 34bf
000000b0: ff90 75be e1b5 a83f a6f6 39bf 65b6 1abf
000000c0: 5e76 9cbe ef1c 25bf 20c0 0abe 4da9 b2be
000000d0: 0948 cebe 1c66 a5be 316c 0fbe ae4f cebe
000000e0: fe72 cbbd 960d d6be 24e4 41be b681 ecbe
000000f0: ba38 21bf 9fa4 f3bd ccb3 58bf aa44 03bf

network.2.weight f4 [32, 64]
-0.22526555 0.004673311 -0.073710576 -0.09060293 -0.12288103 0.0578816 -0.13222247 -0.11279717
0.055354908 -0.05747512 -0.01810781 0.068268925 -0.039503235 0.034825634 -0.17633116 -0.27113578
0.0033497268 0.043968216 -0.36951336 0.011485258 0.1984763 -0.08876881 -0.14845823 0.0095579475
0.08709186 0.067830056 0.2631397 0.018400058 -0.04388213 -0.022319704 -0.26331982 0.037708476
-0.09133926 -0.037108675 -0.03885443 0.030761823 -0.03510633 0.013406083 0.052067995 -0.16697554
-0.1823829 0.09157543 -0.16155753 -0.05959271 -0.09885265 -0.1656211 0.1371253 -0.052799262
-0.07164317 -0.017183872 -0.3509573 0.00036741572 0.015752092 -0.060407355 -0.120744914 -0.06383644
0.030142099 0.031501457 0.003594786 -0.054660678 -0.098016016 -0.108139366 -0.05944262 -0.20617269
-0.06886198 -0.12023791 0.08033693 -0.15134025 -0.17668344 -0.13026294 0.11252325 -0.074377246
-0.04499753 0.02658759 0.044646908 0.02397593 -0.07465392 -0.0985353 -0.3783198 0.048525356
-0.17095049 -0.05596484 0.032414045 0.030356051 -0.15867563 -0.00092591345 -0.01631366 0.0659858
0.04345351 -0.08984301 0.058042184 0.03136996 -0.08062182 -0.01841771 -0.09727917 -0.09180935
-0.16617279 0.09147011 0.035182662 -0.123119846 0.05565655 -0.11846191 -0.0870339 -0.032091606
-0.12373274 -0.07840739 -0.13928309 -0.07413556 -0.050604332 -0.17511669 -0.015786104 -0.021596758
0.033141673 0.061269496 -0.2787199 0.02257934 0.1177104 -0.16206852 -0.12030621 0.033076003
0.042941518 0.16874988 0.023554062 -0.103967465 -0.17139374 -0.0049834154 0.05087571 -0.08367654
-0.10026777 -0.0629269 -0.057889044 0.11126043 -0.066998646 -0.115102105 -0.20960724 -0.0055713803
0.09283498 0.008043602 -0.08180401 -0.123650394 -0.11141075 0.09340304 -0.19899599 -0.2549857
0.11976209 -0.0027083124 0.021522895 -0.044202104 -0.04620961 -0.03463149 -0.09238906 -0.07182206
-0.13927647 -0.10089134 0.043792382 -0.13133445 -0.0037486106 -0.014293946 -0.01071125 -0.06740315
-0.016957492 -0.012915954 -0.010008872 0.012210637 0.014709234 -0.039543584 -0.120428264 -0.010076284
-0.23804313 0.033358566 -0.2155698 0.052198686 -0.06615763 -0.079059646 -0.0878479 -0.4136531
-0.033629403 -0.008874944 0.016535938 -0.10812508 -0.09929085 0.05247788 -0.10150963 0.027459368
-0.19874704 -0.08341487 0.11443919 -0.034450702 -0.053149834 -0.03864862 -0.054031238 0.016253853
-0.08234476 0.011105812 -0.04917504 -0.0553283 -0.046907723 -0.15835103 -0.09374808 -0.023413286
-0.031004652 -0.033172738 0.055608876 -0.025300428 -0.047705382 -0.11613417 -0.12676835 -0.1329373
-0.105827905 0.037977353 -0.23005497 0.024649162 -0.03518255 0.0385637 -0.020514363 -0.05173032
-0.118016854 -0.32226104 -0.0893497 0.10976261 -0.11677845 -0.12362024 0.053600214 -0.052125156
-0.15236744 -0.05740547 -0.017661681 -0.0063211024 0.0122468285 -0.041996032 -0.093057945 -0.1338065
-0.16429114 0.04675658 -0.15640493 0.08477524 -0.13072623 0.01113885 -0.06653174 -0.23455802
-0.08863106 -0.2529391 -0.2707111 0.0034428658 -0.026561514 -0.23883674 -0.060097396 0.03160736
0.11711149 -0.045699403 -0.109004214 0.0011413696 -0.09324696 -0.041511577 0.00852715 -0.2263086
00000000: 03ac 66be 9322 993b 92f5 96bd 078e b9bd
00000010: 0da9 fbbd 4215 6d3d 5465 07be 3402 e7bd
00000020: d4bb 623d 086b 6bbd d456 94bc 94d0 8b3d
00000030: 25ce 21bd 53a5 0e3d 2890 34be 4fd2 8abe
00000040: 1787 5b3b 0418 343d db30 bdbe aa2c 3c3c
00000050: 5f3d 4b3e 6ccc b5bd 6f05 18be f098 1c3c
00000060: 385d b23d 7cea 8a3d 3fba 863e b8bb 963c
00000070: c0bd 33bd d0d7 b6bc dbd1 86be 3474 1a3d
00000080: 1410 bbbd 44ff 17bd d325 1fbd 3800 fc3c
00000090: a8cb 0fbd 30a5 5b3c 4045 553d a3fb 2abe
000000a0: 95c2 3abe e68b bb3d 566f 25be 7c17 74bd
000000b0: 4273 cabd 9498 29be 936a 0c3e 0a44 58bd
000000c0: a8b9 92bd 31c5 8cbc adb0 b3be b4a1 c039
000000d0: 880a 813c b46d 77bd 1c49 f7bd aebc 82bd
000000e0: 90ec f63c ac07 013d 8096 6b3b e0e3 5fbd
000000f0: 9fbc c8bd 2c78 ddbd 1b7a 73bd ef1e 53be
00000100: 8307 8dbd 4b3f f6bd b087 a43d f0f8 1abe
00000110: 81ec 34be a663 05be 9772 e63d 1953 98bd
00000120: 544f 38bd 38ce d93c addf 363d 2b69 c43c
00000130: 28e4 98bd e0cc c9bd 22b3 c1be 86c2 463d
00000140: a50d 2fbe 633b 65bd 97c4 043d 41ad f83c
00000150: dd7b 22be 00b9 72ba 3aa4 85bc 9023 873d
00000160: 4ffc 313d 9dff b7bd a4bd 6d3d ca7d 003d
00000170: 0e1d a5bd bde0 96bc 4d3a c7bd 8a06 bcbd
00000180: 3329 2abe ae54 bb3d b21b 103d 4226 fcbd
00000190: 1ff8 633d 289c f2bd d43e b2bd 7d72 03bd
000001a0: 9767 fdbd 0e94 a0bd 3aa0 0ebe 62d4 97bd
000001b0: 7d46 4fbd ca51 33be dc51 81bc afeb b0bc
000001c0: 90bf 073d b9f5 7a3d 60b4 8ebe 4ff8 b83c
000001d0: 2612 f13d 4af5 25be 1a63 f6bd b47a 073d
000001e0: 72e3 2f3d c5cc 2c3e 73f4 c03c e5ec d4bd
000001f0: d781 2fbe eb4b a3bb 0c63 503d 9b5e abbd
00000200: 3059 cdbd d2df 80bd 101d 6dbd 82dc e33d
00000210: 9636 89bd a7ba ebbd 48a3 56be 2090 b6bb
00000220: 4420 be3d 50c9 033c dc88 a7bd 6b3c fdbd
00000230: 522b e4bd 184a bf3d 9bc5 4bbe 7c8d 82be
00000240: d445 f53d f17d 31bb c850 b03c 440d 35bd
00000250: 4a46 3dbd c0d9 0dbd 7a36 bdbd 7217 93bd
00000260: 7e9e 0ebe 1ea0 cebd a45f 333d 8a7c 06be
00000270: 40ab 75bb 2831 6abc 3d7e 2fbc aa0a 8abd
00000280: 70ea 8abc 709d 53bc 40fc 23bc 200f 483c
00000290: 00ff 703c 74f8 21bd 18a3 f6bd 0017 25bc
000002a0: 94c1 73be fea2 083d 54be 5cbe 4ace 553d
000002b0: a77d 87bd 06ea a1bd 9ae9 b3bd 57ca d3be
000002c0: fcbe 09bd 3768 11bc 6076 873c af70 ddbd
000002d0: 0059 cbbd 0cf3 563d 48e4 cfbd 78f2 e03c
000002e0: 5884 4bbe 6ad5 aabd 185f ea3d 2e1c 0dbd
000002f0: a4b3 59bd 044e 1ebd dc4f 5dbd cd26 853c
00000300: 5fa4 a8bd 27f5 353c c46b 49bd ed9f 62bd
00000310: 5022 40bd c626 22be fefe bfbd 38cd bfbc
00000320: 78fd fdbc 23e0 07bd 22c6 633d d842 cfbc
00000330: b866 43bd c0d7 edbd 90cf 01be b720 08be
00000340: 4dbc d8bd 248e 1b3d 8893 6bbe 0aed c93c
00000350: 941b 10bd f8f4 1d3d bd0d a8bc 2ce3 53bd
00000360: d2b2 f1bd 66ff a4be fafc b6bd 38cb e03d
00000370: 8a29 efbd 9c2c fdbd e68b 5b3d 3081 55bd
00000380: 3606 1cbe 0022 6bbd 3baf 90bc 4021 cfbb
00000390: eca6 483c 0804 2cbd 2a95 bebd 9204 09be
000003a0: f03b 28be d483 3f3d 9d28 20be a49e ad3d
000003b0: 19dd 05be b97f 363c cb41 88bd fa2f 70be
000003c0: 3484 b5bd 3c81 81be a59a 8abe b4a1 613b
000003d0: 8897 d9bc 9e91 74be b028 76bd b876 013d
000003e0: 26d8 ef3d 4c2f 3bbd 9a3d dfbd 029a 953a
000003f0: 43f8 bebd 0b08 2abd 76b5 0b3c 71bd 67be

network.2.bias f4 [32]
-0.2910929 -0.26580182 -0.57395416 -0.43152258 -0.037806988 -0.4388456 -0.5264422 -0.4029012
-0.3496379 -0.48972562 0.61472815 -0.45368883 1.6955646 -0.45501533 -0.5425435 -0.39212808
-0.44376984 -0.5151655 -0.45197755 1.4642221 -0.32310987 1.7511644 -0.1511692 2.2581
-0.31760302 -0.46193507 -0.43803576 -0.32194695 -0.18641788 -0.06746545 -0.16050795 -0.30480418
00000000: 210a 95be 2d17 88be a9ee 12bf 87f0 dcbe
00000010: 80db 1abd 5fb0 e0be ebc4 06bf 1149 cebe
00000020: bd03 b3be 51bd fabe d35e 1d3f e749 e8be
00000030: 4308 d93f c5f7 e8be 21e4 0abf 03c5 c8be
00000040: cd35 e3be e3e1 03bf 9a69 e7be a16b bb3f
00000050: a86e a5be 2826 e03f 19cc 1abe b684 1040
00000060: dd9c a2be c182 ecbe 3946 e0be 3bd6 a4be
00000070: 54e4 3ebe 532b 8abd 325c 24be 4b0f 9cbe

network.4.weight f4 [3, 32]
0.14747506 -0.0019538933 -0.26986116 0.28654936 0.019921722 -0.1502647 0.14071146 -0.05160608
-0.27925563 -0.16892661 3.8992662 0.25542614 -3.9685152 0.17553672 0.10003089 0.052102912
-0.28516963 -0.26359612 0.025400845 1.4573032 -0.0784869 2.5451689 0.06855386 0.32211274
-0.13477945 0.18078668 0.0073143956 0.029208817 -0.028630609 0.09582927 0.19932164 -0.006894018
-0.007440058 -0.014070381 -0.09458961 -0.013397974 -0.028948005 0.4540657 0.27025324 0.19367418
-0.51296514 -0.014636698 3.9191425 0.10667761 -3.9485052 0.037759356 0.1594426 0.084908776
0.045901056 0.4390726 -0.293953 1.6489114 0.31842852 2.651276 -0.030409383 0.42017287
-0.012912032 0.011348516 -0.10530626 0.02570091 -0.0042122276 -0.01016992 -0.06495327 -0.036309123
0.18353234 0.033756915 0.11678897 0.08556136 0.05041101 0.48820797 0.094727695 -0.30386347
0.5746487 0.07713442 3.6067812 -0.02870583 -3.582254 0.08234274 0.187015 0.29006085
-0.06854881 0.07363065 0.09832813 1.1582003 -0.104878895 2.8030932 -0.16587336 0.4202508
0.18120396 0.17337777 -0.23567042 0.15589246 -0.047978897 0.030362578 0.09975412 -0.02113687
00000000: b403 173e e40c 00bb 3e2b 8abe 99b6 923e
00000010: e132 a33c fdde 19be aa16 103e e660 53bd
00000020: 98fa 8ebe 19fb 2cbe 948d 7940 37c7 823e
00000030: 27fc 7dc0 e6bf 333e ffdc cc3d dd69 553d
00000040: c101 92be 12f6 86be 6f15 d03c e988 ba3f
00000050: bdbd a0bd 0ce4 2240 f765 8c3d f6eb a43e
00000060: a003 0abe 2520 393e 99ad ef3b 5447 ef3c
00000070: bd8a eabc 2342 c43d f91a 4c3e 37e7 e1bb
00000080: bbcb f3bb 7587 66bc 33b8 c1bd 2d83 5bbc
00000090: 5e24 edbc 4d7b e83e a25e 8a3e 8652 463e
000000a0: af51 03bf c3ce 6fbc 3bd3 7a40 ca79 da3d
000000b0: 4fb4 7cc0 8ea9 1a3d ec44 233e a7e4 ad3d
000000c0: bf02 3c3d 20ce e03e 0281 96be 870f d33f
000000d0: 1009 a33e 82ae 2940 191d f9bc e620 d73e
000000e0: fd8c 53bc 20ef 393c cfaa d7bd b78a d23c
000000f0: ba06 8abb bc9f 26bc 3806 85bd e0b8 14bd
00000100: e7ef 3b3e b144 0a3d 0e2f ef3d cb3a af3d
00000110: c67b 4e3d 65f6 f93e 9800 c23d fe93 9bbe
00000120: 2d1c 133f a7f8 9d3d 81d5 6640 7d28 ebbc
00000130: a643 65c0 4fa3 a83d dc80 3f3e db82 943e
00000140: 5263 8cbd abcb 963d 4260 c93d e83f 943f
00000150: bfca d6bd e165 3340 b5da 29be 1d2b d73e
00000160: 888d 393e f189 313e 9653 71be 46a2 1f3e
00000170: 8585 44bd f1ba f83c e34b cc3d 3b27 adbc

network.4.bias f4 [3]
10.065938 9.692033 9.866594
00000000: 150e 2141 9112 1b41 92dd 1d41

network.0.weight f4 [64, 6]
-2.4954088 -2.8738031 -0.10894228 -0.2721774 0.08501512 -0.3808784 0.2499714 0.02072094
0.01672489 0.14930117 -0.10577404 -0.16840713 0.17513299 0.14234093 -0.24410564 -0.007001087
0.12565336 -0.26675755 -0.665411 -0.11003658 0.21019103 0.10887608 -0.22286278 0.064017445
-1.8528634 -4.00053 -0.6597994 -2.0064418 -0.5887393 -1.1250185 -0.67034674 -0.43007568
0.22146125 -0.10278006 0.02500965 -0.33558342 -0.04054483 -0.74684346 -0.053728778 -0.11869893
0.04034348 -0.7867523 -0.6385181 -0.8460242 0.21071391 -0.057122618 -0.24447215 -0.39195555
-0.35496497 0.038459916 -0.08688177 0.0335792 0.2051083 -0.22018631 -0.8181329 -0.85647476
-0.10155048 -0.039614476 -0.10171561 -0.086304285 0.112957016 -0.42473975 0.20718615 -0.20414662
-0.029336205 -0.4596482 -0.0042173276 0.11727314 -0.041272245 0.07050664 0.06912135 0.12375388
-0.46053973 -0.031293526 -0.107637875 -0.042338848 0.068127215 -0.26980686 -0.030994456 -0.38792083
0.12183872 0.11829977 0.05177833 -0.4671692 -13.758293 0.48683807 -1.0594621 -2.0950525
-0.9466813 0.591734 -7.527676 1.6959767 0.3368675 -2.1764123 0.34225252 -0.04155873
0.10038913 -0.03134841 0.10277805 0.056420643 -0.21341337 0.12825567 -0.23836094 -0.6747125
0.24545655 0.01125428 0.082957216 -0.50857544 -4.459443 1.2957103 -0.019622529 -0.15464945
0.07172806 -1.2975112 -0.9843797 -0.29996377 -0.0838133 -0.08575115 0.12620647 -0.3033063
-0.7681146 -0.49323007 0.1191993 -0.09923165 0.39926544 -0.87584996 -0.30481648 0.39440265
0.08626555 0.023830522 -0.20053998 -0.4074568 -0.50753474 -0.1693629 0.0868746 -0.0993694
0.08357992 -0.64409345 -0.4025429 0.33541632 0.107354015 0.07359943 -0.15007712 -0.22934185
-0.29795983 0.07461424 0.16815276 -0.1051388 0.100600235 -0.47993624 -6.3518515 3.2375278
0.24690488 -3.157481 0.2648573 -0.8231723 -1.0322621 -0.513671 0.020960415 -0.08806066
0.20734319 -0.9608954 0.1433031 -0.051661063 0.12149429 0.05939995 -0.098019145 -0.5006587
0.015618991 -0.045207046 -0.11660648 0.1026173 0.29264262 -0.0005932767 -0.065120675 -0.11466425
-0.052543733 0.09381986 -0.08693477 -0.40765142 -8.416062 -0.95140916 -0.12537636 -2.9453611
0.1035209 2.0176427 -0.16090254 -0.46255916 0.03752303 -0.058241487 0.27945268 -0.27353418
0.31139183 -0.49547052 -0.103213556 -0.10215574 0.2391029 -0.3230187 -0.066703774 0.08552445
0.25850525 0.041148767 -0.2473686 -0.174586 -0.33972293 -0.19920117 0.136712 0.07636683
0.12912403 -0.50897604 0.051008496 -0.03372758 0.21151528 0.018406065 -0.33150274 -0.0125710005
-0.5922215 -0.53135914 -0.025043117 0.2058027 0.09597686 -0.12712371 -0.3494626 0.046572022
-0.3434231 -0.012641417 0.26844835 -0.17260933 -0.04678803 -0.06861979 0.23503044 0.14140087
-0.28220627 -0.2161646 0.030351073 -0.8169147 0.36708274 -0.044764005 -0.06891824 -0.56517524
-0.22880018 -1.0308592 -0.20323454 -0.07256646 0.24706298 -0.49817914 -0.4258416 -0.4912484
-0.10619684 0.025714729 0.25572857 -0.37361684 -0.67536885 -0.8767614 0.052982584 -0.1264185
00000000: c7b4 1fc0 64ec 37c0 211d dfbd d65a 8bbe
00000010: 681c ae3d 7e02 c3be 81f8 7f3e f6be a93c
00000020: a302 893c 68e2 183e 0fa0 d8bd eb72 2cbe
00000030: 1056 333e d2c1 113e d4f6 79be 6069 e5bb
00000040: 46ab 003e 7294 88be 6058 2abf dc5a e1bd
00000050: 513c 573e 6cfa de3d 2436 64be 941b 833d
00000060: a12a edbf 5704 80c0 9de8 28bf 8b69 00c0
00000070: 9eb7 16bf 9b00 90bf d89b 2bbf e132 dcbe
00000080: bdc6 623e 5a7e d2bd 0ae1 cc3c 97d1 abbe
00000090: 5612 26bd 2231 3fbf b512 5cbd 6d18 f3bd
000000a0: 343f 253d 9968 49bf ec75 23bf 0b95 58bf
000000b0: 63c5 573e 68f9 69bd e856 7abe 66ae c8be
000000c0: f8bd b5be 2588 1d3d 12ef b1bd 588a 093d
000000d0: e907 523e 8578 61be 2871 51bf ee41 5bbf
000000e0: b3f9 cfbd ca42 22bd 4650 d0bd 4dc0 b0bd
000000f0: 0256 e73d 7d77 d9be 9b28 543e d00b 51be
00000100: 7b52 f0bc 0257 ebbe 8231 8abb e62c f03d
00000110: 160d 29bd c965 903d 7f8f 8d3d ad72 fd3d
00000120: ddcb ebbe a42d 00bd 3f71 dcbd 806b 2dbd
00000130: 4886 8b3d 2024 8abe 16e8 fdbc 8f9d c6be
00000140: 9486 f93d 2647 f23d 8415 543d cd30 efbe
00000150: f821 5cc1 d742 f93e 749c 87bf 5715 06c0
00000160: b559 72bf e17b 173f b9e2 f0c0 c415 d93f
00000170: e679 ac3e 574a 0bc0 b93b af3e 7d39 2abd
00000180: d198 cd3d 3167 00bd 4c7d d23d 5519 673d
00000190: 0989 5abe 7455 033e e414 74be f5b9 2cbf
000001a0: f658 7b3e df63 383c 79e5 a93d 0032 02bf
000001b0: c2b3 8ec0 d6d9 a53f 6dbf a0bc 6d5c 1ebe
000001c0: 29e6 923d d914 a6bf 4f00 7cbf da94 99be
000001d0: 4fa6 abbd 4d9e afbd 453c 013e f74a 9bbe
000001e0: 29a3 44bf a788 fcbe c31e f43d f739 cbbd
000001f0: 856c cc3e b437 60bf e810 9cbe 25ef c93e
00000200: feab b03d 3a38 c33c 5a5a 4dbe 2d9e d0be
00000210: cced 01bf 786d 2dbe 4feb b13d 2f82 cbbd
00000220: f32b ab3d 4fe3 24bf 1a1a cebe b0bb ab3e
00000230: 6cdc db3d 4cbb 963d d1ad 19be 97d8 6abe
00000240: 318e 98be 5acf 983d 3d30 2c3e 0353 d7bd
00000250: 7f07 ce3d 34ba f5be 5e42 cbc0 a833 4f40
00000260: a2d4 7c3e 2b14 4ac0 609b 873e 6bbb 52bf
00000270: 2a21 84bf f17f 03bf 2db5 ab3c 2659 b4bd
00000280: c651 543e 3efd 75bf 0cbe 123e 8d9a 53bd
00000290: 00d2 f83d 5d4d 733d 43be c8bd 2b2b 00bf
000002a0: cce6 7f3c 062b 39bd 61cf eebd 0529 d23d
000002b0: 41d5 953e 2086 1bba fd5d 85bd 17d5 eabd
000002c0: 1938 57bd a024 c03d db0a b2bd b0b7 d0be
000002d0: 31a8 06c1 8d8f 73bf a962 00be cc80 3cc0
000002e0: c402 d43d 0f21 0140 a3c3 24be 8ed4 ecbe
000002f0: c0b1 193d a08e 6ebd 6c14 8f3e ac0c 8cbe
00000300: c06e 9f3e 50ae fdbe a161 d3bd 0737 d1bd
00000310: 64d7 743e b562 a5be fd9b 88bd 7127 af3d
00000320: cd5a 843e 9c8b 283d 324e 7dbe acc6 32be
00000330: 2af0 adbe 64fb 4bbe 3bfe 0b3e 3666 9c3d
00000340: 1739 043e 414c 02bf 49ee 503d ee25 0abd
00000350: 7697 583e 51c8 963c baba a9be 99f6 4dbc
00000360: d49b 17bf 2707 08bf 3927 cdbc f1bd 523e
00000370: 848f c43d b82c 02be c3ec b2be 4ec2 3e3d
00000380: 27d5 afbe f21d 4fbc 1072 893e 80c0 30be
00000390: cea4 3fbd 8888 8cbd d2ab 703e 64cb 103e
000003a0: 577d 90be 415a 5dbe d0a2 f83c 5221 51bf
000003b0: 45f2 bb3e 765a 37bd 0225 8dbd 53af 10bf
000003c0: 984a 6abe 32f3 83bf b71c 50be b99d 94bd
000003d0: 14fe 7c3e 5611 ffbe e907 dabe e984 fbbe
000003e0: bb7d d9bd b2a7 d23c dbee 823e b54a bfbe
000003f0: f9e4 2cbf 6f73 60bf 4404 593d da73 01be

network.0.bias f4 [64]
-0.4374805 -0.60209996 -0.38203627 -0.4780016 -0.92932755 -0.34645262 -0.88557535 -0.45833954
0.03534479 -0.7645624 -0.48121604 -0.5110005 -0.086431086 -0.12120865 0.6596224 0.46536797
-0.42842478 -0.7381799 -1.2301823 -0.6586013 -0.2658757 -0.18150252 -0.40378976 -0.27748463
-0.34992567 -1.0516368 -0.27721527 -0.20036395 -0.65378886 -0.2349727 1.8763684 -0.28910992
-0.1570901 -0.4551917 -0.1912034 -0.32195106 -0.3461539 -0.38224977 -0.34304395 -0.43072143
-0.72245675 -0.09181371 -0.56176454 -0.7031872 -0.23981093 1.3127954 -0.7264198 -0.6061254
-0.30559057 -0.64497274 -0.14677684 -0.3489479 -0.40289333 -0.32304466 -0.14006115 -0.40295166
-0.099340424 -0.4180724 -0.18934685 -0.46192712 -0.6297718 -0.11896633 -0.8464935 -0.5127665
00000000: 72fd dfbe 3923 1abf 429a c3be a0bc f4be
00000010: 69e8 6dbf 3d62 b1be 11b5 62bf 7bab eabe
00000020: b3c5 103d 5dba 43bf f361 f6be eed0 02bf
00000030: c802 b1bd 3e3c f8bd 03dd 283f b644 ee3e
00000040: 7e5a dbbe 5cf9 3cbf 9d76 9dbf 189a 28bf
00000050: dc20 88be ccdb 39be 88bd cebe 7712 8ebe
00000060: 7529 b3be 099c 86bf 29ef 8dbe 352c 4dbe
00000070: b55e 27bf af9c 70be d72c f03f 3706 94be
00000080: 3adc 20be e30e e9be d3ca 43be c5d6 a4be
00000090: 153b b1be 3eb6 c3be 75a3 afbe 8587 dcbe
000000a0: edf2 38bf d408 bcbd cdcf 0fbf 1404 34bf
000000b0: ff90 75be ae09 a83f a6f6 39bf 092b 1bbf
000000c0: 5e76 9cbe ef1c 25bf ab4c 16be 4da9 b2be
000000d0: 0948 cebe 1c66 a5be 316c 0fbe ae4f cebe
000000e0: fe72 cbbd 960d d6be 24e4 41be b681 ecbe
000000f0: ba38 21bf 9fa4 f3bd ccb3 58bf aa44 03bf

network.2.weight f4 [32, 64]
-0.22526555 0.004673311 -0.073710576 -0.09060293 -0.12288103 0.0578816 -0.13222247 -0.11279717
0.055354908 -0.05747512 -0.01810781 0.068268925 -0.039503235 0.034825634 -0.17633116 -0.27113578
0.0033497268 0.043968216 -0.36951336 0.011485258 0.1984763 -0.08876881 -0.14845823 0.0095579475
0.08709186 0.067830056 0.2631397 0.018400058 -0.04388213 -0.022319704 -0.26331982 0.037708476
-0.09133926 -0.037108675 -0.03885443 0.030761823 -0.03510633 0.013406083 0.052067995 -0.16697554
-0.1823829 0.09157543 -0.16155753 -0.05959271 -0.09885265 -0.1656211 0.1371253 -0.052799262
-0.07164317 -0.017183872 -0.3509573 0.00036741572 0.015752092 -0.060407355 -0.120744914 -0.06383644
0.030142099 0.031501457 0.003594786 -0.054660678 -0.098016016 -0.108139366 -0.05944262 -0.20617269
-0.06886198 -0.12023791 0.08033693 -0.15134025 -0.17668344 -0.13026294 0.11252325 -0.074377246
-0.04499753 0.02658759 0.044646908 0.02397593 -0.07465392 -0.0985353 -0.3783198 0.048525356
-0.17095049 -0.05596484 0.032414045 0.030356051 -0.15867563 -0.00092591345 -0.01631366 0.0659858
0.04345351 -0.08984301 0.058042184 0.03136996 -0.08062182 -0.01841771 -0.09727917 -0.09180935
-0.16617279 0.09147011 0.035182662 -0.123119846 0.05565655 -0.11846191 -0.0870339 -0.032091606
-0.12373274 -0.07840739 -0.13928309 -0.07413556 -0.050604332 -0.17511669 -0.015786104 -0.021596758
0.033141673 0.061269496 -0.2787199 0.02257934 0.1177104 -0.16206852 -0.12030621 0.033076003
0.042941518 0.16874988 0.023554062 -0.103967465 -0.17139374 -0.0049834154 0.05087571 -0.08367654
-0.10026777 -0.0629269 -0.057889044 0.11126043 -0.066998646 -0.115102105 -0.20960724 -0.0055713803
0.09283498 0.008043602 -0.08180401 -0.123650394 -0.11141075 0.09340304 -0.19899599 -0.2549857
0.11976209 -0.0027083124 0.021522895 -0.044202104 -0.04620961 -0.03463149 -0.09238906 -0.07182206
-0.13927647 -0.10089134 0.043792382 -0.13133445 -0.0037486106 -0.014293946 -0.01071125 -0.06740315
-0.016957492 -0.012915954 -0.010008872 0.012210637 0.014709234 -0.039543584 -0.120428264 -0.010076284
-0.23804313 0.033358566 -0.2155698 0.052198686 -0.06615763 -0.079059646 -0.0878479 -0.4136531
-0.033629403 -0.008874944 0.016535938 -0.10812508 -0.09929085 0.05247788 -0.10150963 0.027459368
-0.19874704 -0.08341487 0.11443919 -0.034450702 -0.053149834 -0.03864862 -0.054031238 0.016253853
-0.08234476 0.011105812 -0.04917504 -0.0553283 -0.046907723 -0.15835103 -0.09374808 -0.023413286
-0.031004652 -0.033172738 0.055608876 -0.025300428 -0.047705382 -0.11613417 -0.12676835 -0.1329373
-0.105827905 0.037977353 -0.23005497 0.024649162 -0.03518255 0.0385637 -0.020514363 -0.05173032
-0.118016854 -0.32226104 -0.0893497 0.10976261 -0.11677845 -0.12362024 0.053600214 -0.052125156
-0.15236744 -0.05740547 -0.017661681 -0.0063211024 0.0122468285 -0.041996032 -0.093057945 -0.1338065
-0.16429114 0.04675658 -0.15640493 0.08477524 -0.13072623 0.01113885 -0.06653174 -0.23455802
-0.08863106 -0.2529391 -0.2707111 0.0034428658 -0.026561514 -0.23883674 -0.060097396 0.03160736
0.11711149 -0.045699403 -0.109004214 0.0011413696 -0.09324696 -0.041511577 0.00852715 -0.2263086
00000000: 03ac 66be 9322 993b 92f5 96bd 078e b9bd
00000010: 0da9 fbbd 4215 6d3d 5465 07be 3402 e7bd
00000020: d4bb 623d 086b 6bbd d456 94bc 94d0 8b3d
00000030: 25ce 21bd 53a5 0e3d 2890 34be 4fd2 8abe
00000040: 1787 5b3b 0418 343d db30 bdbe aa2c 3c3c
00000050: 5f3d 4b3e 6ccc b5bd 6f05 18be f098 1c3c
00000060: 385d b23d 7cea 8a3d 3fba 863e b8bb 963c
00000070: c0bd 33bd d0d7 b6bc dbd1 86be 3474 1a3d
00000080: 1410 bbbd 44ff 17bd d325 1fbd 3800 fc3c
00000090: a8cb 0fbd 30a5 5b3c 4045 553d a3fb 2abe
000000a0: 95c2 3abe e68b bb3d 566f 25be 7c17 74bd
000000b0: 4273 cabd 9498 29be 936a 0c3e 0a44 58bd
000000c0: a8b9 92bd 31c5 8cbc adb0 b3be b4a1 c039
000000d0: 880a 813c b46d 77bd 1c49 f7bd aebc 82bd
000000e0: 90ec f63c ac07 013d 8096 6b3b e0e3 5fbd
000000f0: 9fbc c8bd 2c78 ddbd 1b7a 73bd ef1e 53be
00000100: 8307 8dbd 4b3f f6bd b087 a43d f0f8 1abe
00000110: 81ec 34be a663 05be 9772 e63d 1953 98bd
00000120: 544f 38bd 38ce d93c addf 363d 2b69 c43c
00000130: 28e4 98bd e0cc c9bd 22b3 c1be 86c2 463d
00000140: a50d 2fbe 633b 65bd 97c4 043d 41ad f83c
00000150: dd7b 22be 00b9 72ba 3aa4 85bc 9023 873d
00000160: 4ffc 313d 9dff b7bd a4bd 6d3d ca7d 003d
00000170: 0e1d a5bd bde0 96bc 4d3a c7bd 8a06 bcbd
00000180: 3329 2abe ae54 bb3d b21b 103d 4226 fcbd
00000190: 1ff8 633d 289c f2bd d43e b2bd 7d72 03bd
000001a0: 9767 fdbd 0e94 a0bd 3aa0 0ebe 62d4 97bd
000001b0: 7d46 4fbd ca51 33be dc51 81bc afeb b0bc
000001c0: 90bf 073d b9f5 7a3d 60b4 8ebe 4ff8 b83c
000001d0: 2612 f13d 4af5 25be 1a63 f6bd b47a 073d
000001e0: 72e3 2f3d c5cc 2c3e 73f4 c03c e5ec d4bd
000001f0: d781 2fbe eb4b a3bb 0c63 503d 9b5e abbd
00000200: 3059 cdbd d2df 80bd 101d 6dbd 82dc e33d
00000210: 9636 89bd a7ba ebbd 48a3 56be 2090 b6bb
00000220: 4420 be3d 50c9 033c dc88 a7bd 6b3c fdbd
00000230: 522b e4bd 184a bf3d 9bc5 4bbe 7c8d 82be
00000240: d445 f53d f17d 31bb c850 b03c 440d 35bd
00000250: 4a46 3dbd c0d9 0dbd 7a36 bdbd 7217 93bd
00000260: 7e9e 0ebe 1ea0 cebd a45f 333d 8a7c 06be
00000270: 40ab 75bb 2831 6abc 3d7e 2fbc aa0a 8abd
00000280: 70ea 8abc 709d 53bc 40fc 23bc 200f 483c
00000290: 00ff 703c 74f8 21bd 18a3 f6bd 0017 25bc
000002a0: 94c1 73be fea2 083d 54be 5cbe 4ace 553d
000002b0: a77d 87bd 06ea a1bd 9ae9 b3bd 57ca d3be
000002c0: fcbe 09bd 3768 11bc 6076 873c af70 ddbd
000002d0: 0059 cbbd 0cf3 563d 48e4 cfbd 78f2 e03c
000002e0: 5884 4bbe 6ad5 aabd 185f ea3d 2e1c 0dbd
000002f0: a4b3 59bd 044e 1ebd dc4f 5dbd cd26 853c
00000300: 5fa4 a8bd 27f5 353c c46b 49bd ed9f 62bd
00000310: 5022 40bd c626 22be fefe bfbd 38cd bfbc
00000320: 78fd fdbc 23e0 07bd 22c6 633d d842 cfbc
00000330: b866 43bd c0d7 edbd 90cf 01be b720 08be
00000340: 4dbc d8bd 248e 1b3d 8893 6bbe 0aed c93c
00000350: 941b 10bd f8f4 1d3d bd0d a8bc 2ce3 53bd
00000360: d2b2 f1bd 66ff a4be fafc b6bd 38cb e03d
00000370: 8a29 efbd 9c2c fdbd e68b 5b3d 3081 55bd
00000380: 3606 1cbe 0022 6bbd 3baf 90bc 4021 cfbb
00000390: eca6 483c 0804 2cbd 2a95 bebd 9204 09be
000003a0: f03b 28be d483 3f3d 9d28 20be a49e ad3d
000003b0: 19dd 05be b97f 363c cb41 88bd fa2f 70be
000003c0: 3484 b5bd 3c81 81be a59a 8abe b4a1 613b
000003d0: 8897 d9bc 9e91 74be b028 76bd b876 013d
000003e0: 26d8 ef3d 4c2f 3bbd 9a3d dfbd 029a 953a
000003f0: 43f8 bebd 0b08 2abd 76b5 0b3c 71bd 67be

network.2.bias f4 [32]
-0.2910929 -0.26580182 -0.57395416 -0.43152258 -0.037806988 -0.4388456 -0.5264422 -0.4029012
-0.3496379 -0.48972562 0.601245 -0.45368883 1.6991214 -0.45501533 -0.5425435 -0.39212808
-0.44376984 -0.5151655 -0.45197755 1.4622738 -0.32310987 1.7941452 -0.1511692 2.304898
-0.31760302 -0.46193507 -0.43803576 -0.32194695 -0.18641788 -0.06746545 -0.16050795 -0.30480418
00000000: 210a 95be 2d17 88be a9ee 12bf 87f0 dcbe
00000010: 80db 1abd 5fb0 e0be ebc4 06bf 1149 cebe
00000020: bd03 b3be 51bd fabe 31eb 193f e749 e8be
00000030: cf7c d93f c5f7 e8be 21e4 0abf 03c5 c8be
00000040: cd35 e3be e3e1 03bf 9a69 e7be ca2b bb3f
00000050: a86e a5be 8da6 e53f 19cc 1abe 7383 1340
00000060: dd9c a2be c182 ecbe 3946 e0be 3bd6 a4be
00000070: 54e4 3ebe 532b 8abd 325c 24be 4b0f 9cbe

network.4.weight f4 [3, 32]
0.14747506 -0.0019538933 -0.26986116 0.28654936 0.019921722 -0.1502647 0.14071146 -0.05160608
-0.27925563 -0.16892661 3.9056387 0.25542614 -3.9672534 0.17553672 0.10003089 0.052102912
-0.28516963 -0.26359612 0.025400845 1.5123309 -0.0784869 2.643238 0.06855386 0.38802338
-0.13477945 0.18078668 0.0073143956 0.029208817 -0.028630609 0.09582927 0.19932164 -0.006894018
-0.007440058 -0.014070381 -0.09458961 -0.013397974 -0.028948005 0.4540657 0.27025324 0.19367418
-0.51296514 -0.014636698 3.9219992 0.10667761 -3.9603002 0.037759356 0.1594426 0.084908776
0.045901056 0.4390726 -0.293953 1.567294 0.31842852 2.6900969 -0.030409383 0.46878484
-0.012912032 0.011348516 -0.10530626 0.02570091 -0.0042122276 -0.01016992 -0.06495327 -0.036309123
0.18353234 0.033756915 0.11678897 0.08556136 0.05041101 0.48820797 0.094727695 -0.30386347
0.5746487 0.07713442 3.5922093 -0.02870583 -3.5943081 0.08234274 0.187015 0.29006085
-0.06854881 0.07363065 0.09832813 1.1662536 -0.104878895 2.7991314 -0.16587336 0.4032178
0.18120396 0.17337777 -0.23567042 0.15589246 -0.047978897 0.030362578 0.09975412 -0.02113687
00000000: b403 173e e40c 00bb 3e2b 8abe 99b6 923e
00000010: e132 a33c fdde 19be aa16 103e e660 53bd
00000020: 98fa 8ebe 19fb 2cbe fcf5 7940 37c7 823e
00000030: 7be7 7dc0 e6bf 333e ffdc cc3d dd69 553d
00000040: c101 92be 12f6 86be 6f15 d03c 0f94 c13f
00000050: bdbd a0bd d02a 2940 f765 8c3d 00ab c63e
00000060: a003 0abe 2520 393e 99ad ef3b 5447 ef3c
00000070: bd8a eabc 2342 c43d f91a 4c3e 37e7 e1bb
00000080: bbcb f3bb 7587 66bc 33b8 c1bd 2d83 5bbc
00000090: 5e24 edbc 4d7b e83e a25e 8a3e 8652 463e
000000a0: af51 03bf c3ce 6fbc 0902 7b40 ca79 da3d
000000b0: 8f75 7dc0 8ea9 1a3d ec44 233e a7e4 ad3d
000000c0: bf02 3c3d 20ce e03e 0281 96be 179d c83f
000000d0: 1009 a33e 8c2a 2c40 191d f9bc 9104 f03e
000000e0: fd8c 53bc 20ef 393c cfaa d7bd b78a d23c
000000f0: ba06 8abb bc9f 26bc 3806 85bd e0b8 14bd
00000100: e7ef 3b3e b144 0a3d 0e2f ef3d cb3a af3d
00000110: c67b 4e3d 65f6 f93e 9800 c23d fe93 9bbe
00000120: 2d1c 133f a7f8 9d3d c2e6 6540 7d28 ebbc
00000130: 2509 66c0 4fa3 a83d dc80 3f3e db82 943e
00000140: 5263 8cbd abcb 963d 4260 c93d cc47 953f
00000150: bfca d6bd f824 3340 b5da 29be 9072 ce3e
00000160: 888d 393e f189 313e 9653 71be 46a2 1f3e
00000170: 8585 44bd f1ba f83c e34b cc3d 3b27 adbc

network.4.bias f4 [3]
10.096091 9.623527 9.857176
00000000: 9789 2141 f7f9 1941 feb6 1d41

exp_avg f4 [64, 6]
6e-45 6e-45 -6e-45 -6e-45 -6e-45 6e-45 6e-45 6e-45
-6e-45 6e-45 -6e-45 6e-45 0.0 0.0 0.0 0.0
0.0 0.0 6e-45 6e-45 6e-45 6e-45 6e-45 6e-45
0.008230992 0.0040218337 -0.009650996 -0.009650996 -0.005790598 0.0065057115 6e-45 6e-45
6e-45 -6e-45 6e-45 6e-45 -6e-45 6e-45 6e-45 6e-45
6e-45 6e-45 6e-45 6e-45 -6e-45 6e-45 -6e-45 6e-45
0.0 0.0 0.0 0.0 0.0 0.0 6e-45 6e-45
-6e-45 -6e-45 -6e-45 6e-45 6e-45 6e-45 6e-45 -6e-45
6e-45 6e-45 6e-45 6e-45 -6e-45 6e-45 -6e-45 6e-45
6e-45 6e-45 6e-45 -6e-45 6e-45 6e-45 6e-45 6e-45
6e-45 6e-45 6e-45 6e-45 -0.0018139739 -0.00055173144 0.16460782 -0.052494973
0.09876469 -0.13208714 -0.0010414112 -0.0021369322 0.022903506 0.025215356 0.0137421 -0.01315169
6e-45 6e-45 6e-45 6e-45 6e-45 6e-45 6e-45 6e-45
-6e-45 6e-45 -6e-45 6e-45 6e-45 6e-45 -6e-45 6e-45
-6e-45 6e-45 6e-45 6e-45 -6e-45 -6e-45 -6e-45 6e-45
6e-45 6e-45 -6e-45 6e-45 -6e-45 6e-45 0.0 0.0
0.0 0.0 0.0 0.0 6e-45 6e-45 6e-45 -6e-45
6e-45 6e-45 6e-45 6e-45 -6e-45 6e-45 -6e-45 6e-45
6e-45 6e-45 -6e-45 6e-45 -6e-45 6e-45 0.018943317 0.006659474
0.0790409 0.079829 0.047424503 -0.033819925 6e-45 6e-45 6e-45 -6e-45
6e-45 6e-45 6e-45 6e-45 -6e-45 -6e-45 -6e-45 6e-45
6e-45 6e-45 6e-45 6e-45 6e-45 6e-45 6e-45 6e-45
-6e-45 -6e-45 -6e-45 6e-45 -0.1469993 -0.102642365 0.2517092 0.25794342
0.15102552 -0.1362148 -6e-45 6e-45 6e-45 6e-45 6e-45 6e-45
6e-45 6e-45 6e-45 -6e-45 6e-45 6e-45 6e-45 6e-45
6e-45 6e-45 6e-45 6e-45 6e-45 6e-45 6e-45 6e-45
6e-45 6e-45 6e-45 6e-45 -6e-45 6e-45 -6e-45 6e-45
6e-45 6e-45 6e-45 6e-45 6e-45 6e-45 6e-45 6e-45
-6e-45 6e-45 -6e-45 6e-45 6e-45 6e-45 6e-45 6e-45
6e-45 6e-45 6e-45 6e-45 6e-45 -6e-45 6e-45 6e-45
6e-45 6e-45 6e-45 6e-45 6e-45 6e-45 6e-45 6e-45
-6e-45 6e-45 -6e-45 6e-45 6e-45 6e-45 6e-45 -6e-45
00000000: 0400 0000 0400 0000 0400 0080 0400 0080
00000010: 0400 0080 0400 0000 0400 0000 0400 0000
00000020: 0400 0080 0400 0000 0400 0080 0400 0000
00000030: 0000 0000 0000 0000 0000 0000 0000 0000
00000040: 0000 0000 0000 0000 0400 0000 0400 0000
00000050: 0400 0000 0400 0000 0400 0000 0400 0000
00000060: 48db 063c 96c9 833b 361f 1ebc 361f 1ebc
00000070: 0fbf bdbb dd2d d53b 0400 0000 0400 0000
00000080: 0400 0000 0400 0080 0400 0000 0400 0000
00000090: 0400 0080 0400 0000 0400 0000 0400 0000
000000a0: 0400 0000 0400 0000 0400 0000 0400 0000
000000b0: 0400 0080 0400 0000 0400 0080 0400 0000
000000c0: 0000 0000 0000 0000 0000 0000 0000 0000
000000d0: 0000 0000 0000 0000 0400 0000 0400 0000
000000e0: 0400 0080 0400 0080 0400 0080 0400 0000
000000f0: 0400 0000 0400 0000 0400 0000 0400 0080
00000100: 0400 0000 0400 0000 0400 0000 0400 0000
00000110: 0400 0080 0400 0000 0400 0080 0400 0000
00000120: 0400 0000 0400 0000 0400 0000 0400 0080
00000130: 0400 0000 0400 0000 0400 0000 0400 0000
00000140: 0400 0000 0400 0000 0400 0000 0400 0000
00000150: ddc2 edba 12a2 10ba f48e 283e f804 57bd
00000160: 2445 ca3d da41 07be f67f 88ba c60b 0cbb
00000170: 22a0 bb3c 6f90 ce3c 8c26 613c 307a 57bc
00000180: 0400 0000 0400 0000 0400 0000 0400 0000
00000190: 0400 0000 0400 0000 0400 0000 0400 0000
000001a0: 0400 0080 0400 0000 0400 0080 0400 0000
000001b0: 0400 0000 0400 0000 0400 0080 0400 0000
000001c0: 0400 0080 0400 0000 0400 0000 0400 0000
000001d0: 0400 0080 0400 0080 0400 0080 0400 0000
000001e0: 0400 0000 0400 0000 0400 0080 0400 0000
000001f0: 0400 0080 0400 0000 0000 0000 0000 0000
00000200: 0000 0000 0000 0000 0000 0000 0000 0000
00000210: 0400 0000 0400 0000 0400 0000 0400 0080
00000220: 0400 0000 0400 0000 0400 0000 0400 0000
00000230: 0400 0080 0400 0000 0400 0080 0400 0000
00000240: 0400 0000 0400 0000 0400 0080 0400 0000
00000250: 0400 0080 0400 0000 042f 9b3c b837 da3b
00000260: 32e0 a13d 637d a33d 3240 423d c386 0abd
00000270: 0400 0000 0400 0000 0400 0000 0400 0080
00000280: 0400 0000 0400 0000 0400 0000 0400 0000
00000290: 0400 0080 0400 0080 0400 0080 0400 0000
000002a0: 0400 0000 0400 0000 0400 0000 0400 0000
000002b0: 0400 0000 0400 0000 0400 0000 0400 0000
000002c0: 0400 0080 0400 0080 0400 0080 0400 0000
000002d0: fc86 16be 2936 d2bd 07e0 803e 2911 843e
000002e0: 6fa6 1a3e e47b 0bbe 0400 0080 0400 0000
000002f0: 0400 0000 0400 0000 0400 0000 0400 0000
00000300: 0400 0000 0400 0000 0400 0000 0400 0080
00000310: 0400 0000 0400 0000 0400 0000 0400 0000
00000320: 0400 0000 0400 0000 0400 0000 0400 0000
00000330: 0400 0000 0400 0000 0400 0000 0400 0000
00000340: 0400 0000 0400 0000 0400 0000 0400 0000
00000350: 0400 0080 0400 0000 0400 0080 0400 0000
00000360: 0400 0000 0400 0000 0400 0000 0400 0000
00000370: 0400 0000 0400 0000 0400 0000 0400 0000
00000380: 0400 0080 0400 0000 0400 0080 0400 0000
00000390: 0400 0000 0400 0000 0400 0000 0400 0000
000003a0: 0400 0000 0400 0000 0400 0000 0400 0000
000003b0: 0400 0000 0400 0080 0400 0000 0400 0000
000003c0: 0400 0000 0400 0000 0400 0000 0400 0000
000003d0: 0400 0000 0400 0000 0400 0000 0400 0000
000003e0: 0400 0080 0400 0000 0400 0080 0400 0000
000003f0: 0400 0000 0400 0000 0400 0000 0400 0080

exp_avg_sq f4 [64, 6]
6.236564e-29 1.7820657e-29 6.999624e-27 6.99951e-27 2.5198656e-27 2.4261067e-27 8.624e-41 4.3046e-41
4.80676e-40 4.14798e-40 1.73045e-40 1.76188e-40 0.0 0.0 0.0 0.0
0.0 0.0 7e-43 7e-43 1.1678e-41 1.1678e-41 4.24e-42 3.666e-42
0.0011664429 0.000576016 0.04689369 0.046893623 0.016881755 0.017496934 3.3301867e-34 2.5951763e-34
5.4937845e-33 5.4937845e-33 1.9777865e-33 2.102715e-33 3.278e-42 2.803e-42 5.7912733e-37 5.7912733e-37
2.084888e-37 1.9847653e-37 1.813e-42 1.976e-42 5.3298e-41 5.2787e-41 1.919e-41 2.2672e-41
0.0 0.0 0.0 0.0 0.0 0.0 7e-43 7e-43
7e-43 7e-43 7e-43 7e-43 7e-43 1.17e-42 1.9332e-41 1.9332e-41
6.981e-42 5.719e-42 7e-43 7e-43 9.5e-43 9.5e-43 7e-43 7e-43
1.687e-42 4.218e-42 7.3052e-41 7.4146e-41 2.6302e-41 2.1506e-41 7e-43 7e-43
1.0447e-41 1.055e-41 3.775e-42 3.161e-42 0.015601116 0.012871427 10.511108 9.670014
3.7839997 4.0218296 0.25620535 0.17493615 1.6120657 1.6127778 0.5803438 0.44407806
7e-43 2.178e-42 3.6771e-41 3.729e-41 1.3237e-41 1.0951e-41 8.725867e-35 5.8613896e-35
5.6970903e-34 5.6970903e-34 2.0509734e-34 1.8822164e-34 1.3188382e-18 3.051445e-16 3.3038675e-15 3.3038675e-15
1.1893839e-15 8.966867e-16 1.1277574e-21 8.694128e-22 5.387337e-21 1.4362118e-21 1.9394536e-21 2.1206175e-21
2.4569854e-37 7e-43 1.2121453e-34 1.2121453e-34 4.3637169e-35 3.1488457e-35 0.0 0.0
0.0 0.0 0.0 0.0 7.72e-43 1.417e-42 2.5e-41 2.5e-41
8.998e-42 7.304e-42 7e-43 7e-43 7e-43 7e-43 7e-43 7e-43
7e-43 7e-43 7e-43 7e-43 7e-43 7e-43 0.12603632 0.101373985
5.200484 5.202976 1.8721756 1.9778425 3.4908351e-38 1.2094311e-38 1.4882106e-35 1.4882106e-35
5.357598e-36 3.8606215e-36 7e-43 7e-43 7e-43 7e-43 7e-43 7e-43
7e-43 7e-43 7e-43 7e-43 7e-43 7e-43 7e-43 7e-43
3.422e-42 3.33e-42 1.331e-42 1.337e-42 2.0386677 1.7099777 6.440883 6.449645
2.3187172 2.610526 7e-43 7e-43 7e-43 7e-43 7e-43 7e-43
2.302e-42 3.82e-42 6.4544e-41 6.4544e-41 2.3235e-41 1.9282e-41 7e-43 7e-43
7e-43 7e-43 7e-43 7e-43 4.127e-42 6.917e-42 1.18142e-40 1.18142e-40
4.253e-41 3.5379e-41 7e-43 7e-43 7e-43 7e-43 7e-43 7e-43
1.418e-42 2.113e-42 3.7766e-41 3.7705e-41 1.3598e-41 1.1261e-41 7e-43 7e-43
7e-43 7e-43 7e-43 7e-43 7e-43 7e-43 7e-43 7e-43
7e-43 7e-43 5.07833e-35 3.4126283e-35 3.3673544e-34 3.3673544e-34 1.2122562e-34 1.1106757e-34
1.0812375e-37 9.812262e-39 2.0209506e-36 2.0209506e-36 7.275507e-37 5.9233913e-37 7e-43 7e-43
7e-43 7e-43 7e-43 7e-43 2.061016e-39 1.305307e-39 2.4767522e-38 2.6053123e-38
00000000: 9d1d 9e10 12b9 b40f 4fa4 0a14 bba3 0a14
00000010: f2a4 4713 4a37 4013 67f0 0000 ff77 0000
00000020: ee3b 0500 4a84 0400 61e2 0100 24eb 0100
00000030: 0000 0000 0000 0000 0000 0000 0000 0000
00000040: 0000 0000 0000 0000 f401 0000 f401 0000
00000050: 8e20 0000 8e20 0000 d20b 0000 380a 0000
00000060: 54e3 983a c8ff 163a 9913 403d 8713 403d
00000070: 9b4b 8a3c bb55 8f3c 3154 dd07 a37a ac07
00000080: f033 e409 f033 e409 de4e 2409 cdaf 2e09
00000090: 2309 0000 d007 0000 1b11 4503 1b11 4503
000000a0: dfe3 8d02 7d13 8702 0e05 0000 8205 0000
000000b0: 9394 0000 2693 0000 7e35 0000 333f 0000
000000c0: 0000 0000 0000 0000 0000 0000 0000 0000
000000d0: 0000 0000 0000 0000 f401 0000 f401 0000
000000e0: f401 0000 f401 0000 f401 0000 f401 0000
000000f0: f401 0000 4303 0000 e435 0000 e435 0000
00000100: 7613 0000 f10f 0000 f401 0000 f401 0000
00000110: a602 0000 a602 0000 f401 0000 f401 0000
00000120: b404 0000 c20b 0000 a4cb 0000 b0ce 0000
00000130: 5249 0000 f33b 0000 f401 0000 f401 0000
00000140: 1f1d 0000 691d 0000 860a 0000 d008 0000
00000150: d39b 7f3c aee2 523c 802d 2841 61b8 1a41
00000160: 0d2d 7240 d4b2 8040 592d 833e 7622 333e
00000170: 2b58 ce3f 816f ce3f 6991 143f 335e e33e
00000180: f401 0000 1206 0000 8166 0000 f367 0000
00000190: e624 0000 871e 0000 2cf9 e706 8dd2 9b06
000001a0: 7c51 3d08 7c51 3d08 814f 8807 8130 7a07
000001b0: 4ca0 c221 61e7 af25 9911 6e27 9911 6e27
000001c0: 8568 ab26 e639 8126 006c aa1c c761 831c
000001d0: 2087 cb1d c108 d91c 7d8a 121d b53a 201d
000001e0: b936 a702 f401 0000 2b1f 2107 2b1f 2107
000001f0: d603 6806 de6b 2706 0000 0000 0000 0000
00000200: 0000 0000 0000 0000 0000 0000 0000 0000
00000210: 2702 0000 f303 0000 b145 0000 b145 0000
00000220: 1519 0000 5c14 0000 f401 0000 f401 0000
00000230: f401 0000 f401 0000 f401 0000 f401 0000
00000240: f401 0000 f401 0000 f401 0000 f401 0000
00000250: f401 0000 f401 0000 aa0f 013e 2a9d cf3d
00000260: 5d6a a640 c87e a640 73a3 ef3f f129 fd3f
00000270: 240f 3e01 05b2 8300 f240 9e05 f240 9e05
00000280: 13e3 e304 7236 a404 f401 0000 f401 0000
00000290: f401 0000 f401 0000 f401 0000 f401 0000
000002a0: f401 0000 f401 0000 f401 0000 f401 0000
000002b0: f401 0000 f401 0000 f401 0000 f401 0000
000002c0: 8a09 0000 4809 0000 b603 0000 ba03 0000
000002d0: 8879 0240 8de0 da3f b71b ce40 7e63 ce40
000002e0: dd65 1440 dc12 2740 f401 0000 f401 0000
000002f0: f401 0000 f401 0000 f401 0000 f401 0000
00000300: 6b06 0000 a60a 0000 ecb3 0000 ecb3 0000
00000310: c540 0000 c035 0000 f401 0000 f401 0000
00000320: f401 0000 f401 0000 f401 0000 f401 0000
00000330: 810b 0000 4813 0000 5549 0100 5549 0100
00000340: 8e76 0000 9f62 0000 f401 0000 f401 0000
00000350: f401 0000 f401 0000 f401 0000 f401 0000
00000360: f403 0000 e405 0000 4769 0000 1b69 0000
00000370: e825 0000 641f 0000 f401 0000 f401 0000
00000380: f401 0000 f401 0000 f401 0000 f401 0000
00000390: f401 0000 f401 0000 f401 0000 f401 0000
000003a0: f401 0000 f401 0000 5301 8706 4a72 3506
000003b0: 91cc df07 91cc df07 f122 2107 56a2 1307
000003c0: a12b 1302 98d8 6a00 68ec 2b04 68ec 2b04
000003d0: 9b92 7703 0490 4903 f401 0000 f401 0000
000003e0: f401 0000 f401 0000 f401 0000 f401 0000
000003f0: 4671 1600 aa36 0e00 e3d8 0601 c1d8 0d01

exp_avg f4 [64]
6e-45 6e-45 0.0 6e-45 0.0065057115 6e-45 6e-45 6e-45
0.0 6e-45 6e-45 6e-45 6e-45 6e-45 -0.13208714 -0.01315169
6e-45 6e-45 6e-45 6e-45 6e-45 0.0 6e-45 6e-45
6e-45 -0.033819932 6e-45 6e-45 6e-45 6e-45 -0.1362148 6e-45
6e-45 6e-45 6e-45 6e-45 6e-45 6e-45 6e-45 6e-45
6e-45 6e-45 6e-45 6e-45 6e-45 0.054823413 6e-45 0.0014523286
6e-45 6e-45 0.06595656 6e-45 6e-45 6e-45 6e-45 6e-45
6e-45 6e-45 6e-45 6e-45 6e-45 6e-45 6e-45 6e-45
00000000: 0400 0000 0400 0000 0000 0000 0400 0000
00000010: dd2d d53b 0400 0000 0400 0000 0400 0000
00000020: 0000 0000 0400 0000 0400 0000 0400 0000
00000030: 0400 0000 0400 0000 da41 07be 307a 57bc
00000040: 0400 0000 0400 0000 0400 0000 0400 0000
00000050: 0400 0000 0000 0000 0400 0000 0400 0000
00000060: 0400 0000 c586 0abd 0400 0000 0400 0000
00000070: 0400 0000 0400 0000 e47b 0bbe 0400 0000
00000080: 0400 0000 0400 0000 0400 0000 0400 0000
00000090: 0400 0000 0400 0000 0400 0000 0400 0000
000000a0: 0400 0000 0400 0000 0400 0000 0400 0000
000000b0: 0400 0000 848e 603d 0400 0000 105c be3a
000000c0: 0400 0000 0400 0000 3c14 873d 0400 0000
000000d0: 0400 0000 0400 0000 0400 0000 0400 0000
000000e0: 0400 0000 0400 0000 0400 0000 0400 0000
000000f0: 0400 0000 0400 0000 0400 0000 0400 0000

exp_avg_sq f4 [64]
2.4261067e-27 1.76188e-40 0.0 3.666e-42 0.01749693 2.102715e-33 1.9847653e-37 2.2672e-41
0.0 7e-43 5.719e-42 7e-43 2.1506e-41 3.161e-42 4.0218296 0.44407806
1.0951e-41 1.8822164e-34 8.966867e-16 2.1206175e-21 3.1488457e-35 0.0 7.304e-42 7e-43
7e-43 1.9778425 3.8606215e-36 7e-43 7e-43 1.337e-42 2.6105263 7e-43
1.9282e-41 7e-43 3.5379e-41 7e-43 1.1261e-41 7e-43 7e-43 1.1106757e-34
5.9233913e-37 7e-43 9.016484e-39 7e-43 2.36668e-40 30.770863 9.2584e-41 0.010932886
7e-43 3.9221e-41 0.98038465 8.5283385e-36 7e-43 1.3684638e-34 1.543e-42 7e-43
7e-43 7e-43 1.051e-42 2.3308779e-31 7.956555e-35 1.3904e-41 3.194113e-39 4.2951e-41
00000000: 4a37 4013 24eb 0100 0000 0000 380a 0000
00000010: b955 8f3c cdaf 2e09 7d13 8702 333f 0000
00000020: 0000 0000 f401 0000 f10f 0000 f401 0000
00000030: f33b 0000 d008 0000 d4b2 8040 335e e33e
00000040: 871e 0000 8130 7a07 e639 8126 b53a 201d
00000050: de6b 2706 0000 0000 5c14 0000 f401 0000
00000060: f401 0000 f129 fd3f 7236 a404 f401 0000
00000070: f401 0000 ba03 0000 dd12 2740 f401 0000
00000080: c035 0000 f401 0000 9f62 0000 f401 0000
00000090: 641f 0000 f401 0000 f401 0000 56a2 1307
000000a0: 0490 4903 f401 0000 4a2e 6200 f401 0000
000000b0: bc93 0200 ba2a f641 1602 0100 d91f 333c
000000c0: f401 0000 556d 0000 7dfa 7a3f b160 3505
000000d0: f401 0000 69e6 3507 4d04 0000 f401 0000
000000e0: f401 0000 f401 0000 ee02 0000 5a48 970c
000000f0: 8285 d306 c226 0000 e3c7 2200 bb77 0000
