models/paddle_dqn_model_checkpoint_20000.pth (torch, 52785 bytes, 24 tensors)

network.0.weight f4 [64, 6]
0	0xbfae1584	-1.3600316
1	0xbff25a33	-1.8933777
2	0xbeefe305	-0.4685289
3	0xbf21bdd6	-0.6318029
4	0xbe8c948c	-0.27457082
5	0xbc79ba3b	-0.015242155
6	0x3e7ff881	0.2499714
7	0x3ca9bef6	0.02072094
8	0x3c8902a3	0.01672489
9	0x3e18e268	0.14930117
10	0xbdd8a00f	-0.10577404
11	0xbe2c72eb	-0.16840713
12	0x3e335610	0.17513299
13	0x3e11c1d2	0.14234093
14	0xbe79f6d4	-0.24410564
15	0xbbe56960	-0.007001087
16	0x3e00ab46	0.12565336
17	0xbe889472	-0.26675755
18	0xbf2a5860	-0.665411
19	0xbde15adc	-0.11003658
20	0x3e573c51	0.21019103
21	0x3ddefa6c	0.10887608
22	0xbe643624	-0.22286278
23	0x3d831b94	0.064017445
24	0xbf88da34	-1.069159
25	0xc059c215	-3.4024708
26	0x3f025616	0.50912607
27	0xbf90b484	-1.1305089
28	0x3f1486ff	0.5801849
29	0x3dc65ed6	0.09686057
30	0xbf2b9bd8	-0.67034674
31	0xbedc32e1	-0.43007568
32	0x3e62c6bd	0.22146125
33	0xbdd27e5a	-0.10278006
34	0x3ccce10a	0.02500965
35	0xbeabd197	-0.33558342
36	0xbd261256	-0.04054483
37	0xbf3f3122	-0.74684346
38	0xbd5c12b5	-0.053728778
39	0xbdf3186d	-0.11869893
40	0x3d253f34	0.04034348
41	0xbf496899	-0.7867523
42	0xbf2375ec	-0.6385181
43	0xbf58950b	-0.8460242
44	0x3e57c563	0.21071391
45	0xbd69f968	-0.057122618
46	0xbe7a56e8	-0.24447215
47	0xbec8ae66	-0.39195555
48	0xbeb5bdf8	-0.35496497
49	0x3d1d8825	0.038459916
50	0xbdb1ef12	-0.08688177
51	0x3d098a58	0.0335792
52	0x3e5207e9	0.2051083
53	0xbe617885	-0.22018631
54	0xbf517128	-0.8181329
55	0xbf5b41ee	-0.85647476
56	0xbdcff9b3	-0.10155048
57	0xbd2242ca	-0.039614476
58	0xbdd05046	-0.10171561
59	0xbdb0c04d	-0.086304285
60	0x3de75602	0.112957016
61	0xbed9777d	-0.42473975
62	0x3e54289b	0.20718615
63	0xbe510bd0	-0.20414662
64	0xbcf0527b	-0.029336205
65	0xbeeb5702	-0.4596482
66	0xbb8a3182	-0.0042173276
67	0x3df02ce6	0.11727314
68	0xbd290d16	-0.041272245
69	0x3d9065c9	0.07050664
70	0x3d8d8f7f	0.06912135
71	0x3dfd72ad	0.12375388
72	0xbeebcbdd	-0.46053973
73	0xbd002da4	-0.031293526
74	0xbddc713f	-0.107637875
75	0xbd2d6b80	-0.042338848
76	0x3d8b8648	0.068127215
77	0xbe8a2420	-0.26980686
78	0xbcfde816	-0.030994456
79	0xbec69d8f	-0.38792083
80	0x3df98694	0.12183872
81	0x3df24726	0.11829977
82	0x3d541584	0.05177833
83	0xbeef30cd	-0.4671692
84	0xc1016dc8	-8.089302
85	0xc01c518f	-2.442478
86	0xbe2b8d07	-0.16753016
87	0x3ea9b372	0.33144718
88	0xbd60426c	-0.054750845
89	0x3d852dfa	0.0650291
90	0xc0e6c4d8	-7.211529
91	0xbf25f660	-0.64829063
92	0xbe513d77	-0.20433603
93	0xbf0f3644	-0.5594218
94	0xbe4bb9e2	-0.19895127
95	0x3ec2ab3f	0.38021275
96	0x3dcd98d1	0.10038913
97	0xbd006731	-0.03134841
98	0x3dd27d4c	0.10277805
99	0x3d671955	0.056420643
100	0xbe5a8909	-0.21341337
101	0x3e035574	0.12825567
102	0xbe7414e4	-0.23836094
103	0xbf2cb9f5	-0.6747125
104	0x3e7b58f6	0.24545655
105	0x3c3863df	0.01125428
106	0x3da9e579	0.082957216
107	0xbf023200	-0.50857544
108	0xc084a087	-4.1445956
109	0x400bc697	2.183996
110	0x3da578a8	0.08079654
111	0xbd6c4ee9	-0.057692442
112	0x3e304405	0.17213447
113	0xbec8de62	-0.39232165
114	0xbf93059b	-1.1486086
115	0x3db090bd	0.08621357
116	0xbd7744a0	-0.06036818
117	0x3dbf98be	0.09355305
118	0x3e193dcd	0.14964981
119	0x3d2e082a	0.042488255
120	0xbf44a329	-0.7681146
121	0xbefc88a7	-0.49323007
122	0x3df41ec3	0.1191993
123	0xbdcb39f7	-0.09923165
124	0x3ecc6c85	0.39926544
125	0xbf6037b4	-0.87584996
126	0xbe9c10e8	-0.30481648
127	0x3ec9ef25	0.39440265
128	0x3db0abfe	0.08626555
129	0x3cc3383a	0.023830522
130	0xbe4d5a5a	-0.20053998
131	0xbed09e2d	-0.4074568
132	0xbf01edcc	-0.50753474
133	0xbe2d6d78	-0.1693629
134	0x3db1eb4f	0.0868746
135	0xbdcb822f	-0.0993694
136	0x3dab2bf3	0.08357992
137	0xbf24e34f	-0.64409345
138	0xbece1a1a	-0.4025429
139	0x3eabbbb0	0.33541632
140	0x3ddbdc6c	0.107354015
141	0x3d96bb4c	0.07359943
142	0xbe19add1	-0.15007712
143	0xbe6ad897	-0.22934185
144	0xbe988e31	-0.29795983
145	0x3d98cf5a	0.07461424
146	0x3e2c303d	0.16815276
147	0xbdd75303	-0.1051388
148	0x3dce077f	0.100600235
149	0xbef5ba34	-0.47993624
150	0xc09e80df	-4.9532313
151	0x40246754	2.5688066
152	0x3e92bce7	0.28659746
153	0xbf8baa70	-1.0911388
154	0x3e9bedc8	0.3045485
155	0xbd8aa9df	-0.067706816
156	0xbf84212a	-1.0322621
157	0xbf037ff1	-0.513671
158	0x3cabb52d	0.020960415
159	0xbdb45926	-0.08806066
160	0x3e5451c6	0.20734319
161	0xbf75fd3e	-0.9608954
162	0x3e12be0c	0.1433031
163	0xbd539a8d	-0.051661063
164	0x3df8d200	0.12149429
165	0x3d734d5d	0.05939995
166	0xbdc8be43	-0.098019145
167	0xbf002b2b	-0.5006587
168	0x3c7fe6cc	0.015618991
169	0xbd392b06	-0.045207046
170	0xbdeecf61	-0.11660648
171	0x3dd22905	0.1026173
172	0x3e95d541	0.29264262
173	0xba1b8620	-0.0005932767
174	0xbd855dfd	-0.065120675
175	0xbdead517	-0.11466425
176	0xbd573819	-0.052543733
177	0x3dc024a0	0.09381986
178	0xbdb20adb	-0.08693477
179	0xbed0b7b0	-0.40765142
180	0xc0ed4c10	-7.415535
181	0x400d9ce7	2.2127016
182	0xbf45ce2a	-0.77267706
183	0xbf3b1a22	-0.7308675
184	0xbf0b34c7	-0.54377407
185	0x3eaf59fe	0.34248346
186	0xbe24c3a3	-0.16090254
187	0xbeecd48e	-0.46255916
188	0x3d19b1c0	0.03752303
189	0xbd6e8ea0	-0.058241487
190	0x3e8f146c	0.27945268
191	0xbe8c0cac	-0.27353418
192	0x3e9f6ec0	0.31139183
193	0xbefdae50	-0.49547052
194	0xbdd361a1	-0.103213556
195	0xbdd13707	-0.10215574
196	0x3e74d764	0.2391029
197	0xbea562b5	-0.3230187
198	0xbd889bfd	-0.066703774
199	0x3daf2771	0.08552445
200	0x3e845acd	0.25850525
201	0x3d288b9c	0.041148767
202	0xbe7d4e32	-0.2473686
203	0xbe32c6ac	-0.174586
204	0xbeadf02a	-0.33972293
205	0xbe4bfb64	-0.19920117
206	0x3e0bfe3b	0.136712
207	0x3d9c6636	0.07636683
208	0x3e043917	0.12912403
209	0xbf024c41	-0.50897604
210	0x3d50ee49	0.051008496
211	0xbd0a25ee	-0.03372758
212	0x3e589776	0.21151528
213	0x3c96c851	0.018406065
214	0xbea9baba	-0.33150274
215	0xbc4df699	-0.0125710005
216	0xbf179bd4	-0.5922215
217	0xbf080727	-0.53135914
218	0xbccd2739	-0.025043117
219	0x3e52bdf1	0.2058027
220	0x3dc48f84	0.09597686
221	0xbe022cb8	-0.12712371
222	0xbeb2ecc3	-0.3494626
223	0x3d3ec24e	0.046572022
224	0xbeafd527	-0.3434231
225	0xbc4f1df2	-0.012641417
226	0x3e897210	0.26844835
227	0xbe30c080	-0.17260933
228	0xbd3fa4ce	-0.04678803
229	0xbd8c8888	-0.06861979
230	0x3e70abd2	0.23503044
231	0x3e10cb64	0.14140087
232	0xbe907d57	-0.28220627
233	0xbe5d5a41	-0.2161646
234	0x3cf8a2d0	0.030351073
235	0xbf512152	-0.8169147
236	0x3ebbf245	0.36708274
237	0xbd375a76	-0.044764005
238	0xbd8d2502	-0.06891824
239	0xbf10af53	-0.56517524
240	0xbe6a4a98	-0.22880018
241	0xbf83f332	-1.0308592
242	0xbe501cb7	-0.20323454
243	0xbd949db9	-0.07256646
244	0x3e7cfe14	0.24706298
245	0xbeff1156	-0.49817914
246	0xbeda07e9	-0.4258416
247	0xbefb84e9	-0.4912484
248	0xbdd97dbb	-0.10619684
249	0x3cd2a7b2	0.025714729
250	0x3e82eedb	0.25572857
251	0xbebf4ab5	-0.37361684
252	0xbf2ce4f9	-0.67536885
253	0xbf60736f	-0.8767614
254	0x3d590444	0.052982584
255	0xbe0173da	-0.1264185

network.0.bias f4 [64]
0	0xbd932360	-0.071844816
1	0xbf1a2339	-0.60209996
2	0xbec39a42	-0.38203627
3	0xbef4bca0	-0.4780016
4	0x3e95c91c	0.29254997
5	0xbeb1623d	-0.34645262
6	0xbf62b511	-0.88557535
7	0xbeeaab7b	-0.45833954
8	0x3d10c5b3	0.03534479
9	0xbf43ba5d	-0.7645624
10	0xbef661f3	-0.48121604
11	0xbf02d0ee	-0.5110005
12	0xbdb102c8	-0.086431086
13	0xbdf83c3e	-0.12120865
14	0x3e0819f4	0.1329115
15	0x3f631b5f	0.8871364
16	0xbedb5a7e	-0.42842478
17	0xbf3cf95c	-0.7381799
18	0xbea66573	-0.32499275
19	0xbea02831	-0.31280664
20	0xbe8820dc	-0.2658757
21	0xbe39dbcc	-0.18150252
22	0xbecebd88	-0.40378976
23	0xbe8e1277	-0.27748463
24	0xbeb32975	-0.34992567
25	0xbe97a440	-0.296175
26	0xbe8def29	-0.27721527
27	0xbe4d2c35	-0.20036395
28	0xbf275eb5	-0.65378886
29	0xbe709caf	-0.2349727
30	0x3e4e0999	0.20120849
31	0xbe940637	-0.28910992
32	0xbe20dc3a	-0.1570901
33	0xbee90ee3	-0.4551917
34	0xbe43cad3	-0.1912034
35	0xbea4d6c5	-0.32195106
36	0xbeb13b15	-0.3461539
37	0xbec3b63e	-0.38224977
38	0xbeafa375	-0.34304395
39	0xbedc8785	-0.43072143
40	0xbf38f2ed	-0.72245675
41	0xbdbc08d4	-0.09181371
42	0xbf0fcfcd	-0.56176454
43	0xbf340414	-0.7031872
44	0xbe7590ff	-0.23981093
45	0x3ea69649	0.32536533
46	0xbf39f6a6	-0.7264198
47	0x3f258be3	0.64666575
48	0xbe9c765e	-0.30559057
49	0xbf251cef	-0.64497274
50	0x3e08bcf4	0.1335333
51	0xbeb2a94d	-0.3489479
52	0xbece4809	-0.40289333
53	0xbea5661c	-0.32304466
54	0xbe0f6c31	-0.14006115
55	0xbece4fae	-0.40295166
56	0xbdcb72fe	-0.099340424
57	0xbed60d96	-0.4180724
58	0xbe41e424	-0.18934685
59	0xbeec81b6	-0.46192712
60	0xbf2138ba	-0.6297718
61	0xbdf3a49f	-0.11896633
62	0xbf58b3cc	-0.8464935
63	0xbf0344aa	-0.5127665

network.2.weight f4 [32, 64]
0	0xbe66ac03	-0.22526555
1	0x3b992293	0.004673311
2	0xbd96f592	-0.073710576
3	0xbdb98e07	-0.09060293
4	0xbdfba90d	-0.12288103
5	0x3d6d1542	0.0578816
6	0xbe076554	-0.13222247
7	0xbde70234	-0.11279717
8	0x3d62bbd4	0.055354908
9	0xbd6b6b08	-0.05747512
10	0xbc9456d4	-0.01810781
11	0x3d8bd094	0.068268925
12	0xbd21ce25	-0.039503235
13	0x3d0ea553	0.034825634
14	0xbe349028	-0.17633116
15	0xbe8ad24f	-0.27113578
16	0x3b5b8717	0.0033497268
17	0x3d341804	0.043968216
18	0xbebd30db	-0.36951336
19	0x3c3c2caa	0.011485258
20	0x3e4b3d5f	0.1984763
21	0xbdb5cc6c	-0.08876881
22	0xbe18056f	-0.14845823
23	0x3c1c98f0	0.0095579475
24	0x3db25d38	0.08709186
25	0x3d8aea7c	0.067830056
26	0x3e86ba3f	0.2631397
27	0x3c96bbb8	0.018400058
28	0xbd33bdc0	-0.04388213
29	0xbcb6d7d0	-0.022319704
30	0xbe86d1db	-0.26331982
31	0x3d1a7434	0.037708476
32	0xbdbb1014	-0.09133926
33	0xbd17ff44	-0.037108675
34	0xbd1f25d3	-0.03885443
35	0x3cfc0038	0.030761823
36	0xbd0fcba8	-0.03510633
37	0x3c5ba530	0.013406083
38	0x3d554540	0.052067995
39	0xbe2afba3	-0.16697554
40	0xbe3ac295	-0.1823829
41	0x3dbb8be6	0.09157543
42	0xbe256f56	-0.16155753
43	0xbd74177c	-0.05959271
44	0xbdca7342	-0.09885265
45	0xbe299894	-0.1656211
46	0x3e0c6a93	0.1371253
47	0xbd58440a	-0.052799262
48	0xbd92b9a8	-0.07164317
49	0xbc8cc531	-0.017183872
50	0xbeb3b0ad	-0.3509573
51	0x39c0a1b4	0.00036741572
52	0x3c810a88	0.015752092
53	0xbd776db4	-0.060407355
54	0xbdf7491c	-0.120744914
55	0xbd82bcae	-0.06383644
56	0x3cf6ec90	0.030142099
57	0x3d0107ac	0.031501457
58	0x3b6b9680	0.003594786
59	0xbd5fe3e0	-0.054660678
60	0xbdc8bc9f	-0.098016016
61	0xbddd782c	-0.108139366
62	0xbd737a1b	-0.05944262
63	0xbe531eef	-0.20617269
64	0xbd8d0783	-0.06886198
65	0xbdf63f4b	-0.12023791
66	0x3da487b0	0.08033693
67	0xbe1af8f0	-0.15134025
68	0xbe34ec81	-0.17668344
69	0xbe0563a6	-0.13026294
70	0x3de67297	0.11252325
71	0xbd985319	-0.074377246
72	0xbd384f54	-0.04499753
73	0x3cd9ce38	0.02658759
74	0x3d36dfad	0.044646908
75	0x3cc4692b	0.02397593
76	0xbd98e428	-0.07465392
77	0xbdc9cce0	-0.0985353
78	0xbec1b322	-0.3783198
79	0x3d46c286	0.048525356
80	0xbe2f0da5	-0.17095049
81	0xbd653b63	-0.05596484
82	0x3d04c497	0.032414045
83	0x3cf8ad41	0.030356051
84	0xbe227bdd	-0.15867563
85	0xba72b900	-0.00092591345
86	0xbc85a43a	-0.01631366
87	0x3d872390	0.0659858
88	0x3d31fc4f	0.04345351
89	0xbdb7ff9d	-0.08984301
90	0x3d6dbda4	0.058042184
91	0x3d007dca	0.03136996
92	0xbda51d0e	-0.08062182
93	0xbc96e0bd	-0.01841771
94	0xbdc73a4d	-0.09727917
95	0xbdbc068a	-0.09180935
96	0xbe2a2933	-0.16617279
97	0x3dbb54ae	0.09147011
98	0x3d101bb2	0.035182662
99	0xbdfc2642	-0.123119846
100	0x3d63f81f	0.05565655
101	0xbdf29c28	-0.11846191
102	0xbdb23ed4	-0.0870339
103	0xbd03727d	-0.032091606
104	0xbdfd6797	-0.12373274
105	0xbda0940e	-0.07840739
106	0xbe0ea03a	-0.13928309
107	0xbd97d462	-0.07413556
108	0xbd4f467d	-0.050604332
109	0xbe3351ca	-0.17511669
110	0xbc8151dc	-0.015786104
111	0xbcb0ebaf	-0.021596758
112	0x3d07bf90	0.033141673
113	0x3d7af5b9	0.061269496
114	0xbe8eb460	-0.2787199
115	0x3cb8f84f	0.02257934
116	0x3df11226	0.1177104
117	0xbe25f54a	-0.16206852
118	0xbdf6631a	-0.12030621
119	0x3d077ab4	0.033076003
120	0x3d2fe372	0.042941518
121	0x3e2cccc5	0.16874988
122	0x3cc0f473	0.023554062
123	0xbdd4ece5	-0.103967465
124	0xbe2f81d7	-0.17139374
125	0xbba34beb	-0.0049834154
126	0x3d50630c	0.05087571
127	0xbdab5e9b	-0.08367654
128	0xbdcd5930	-0.10026777
129	0xbd80dfd2	-0.0629269
130	0xbd6d1d10	-0.057889044
131	0x3de3dc82	0.11126043
132	0xbd893696	-0.066998646
133	0xbdebbaa7	-0.115102105
134	0xbe56a348	-0.20960724
135	0xbbb69020	-0.0055713803
136	0x3dbe2044	0.09283498
137	0x3c03c950	0.008043602
138	0xbda788dc	-0.08180401
139	0xbdfd3c6b	-0.123650394
140	0xbde42b52	-0.11141075
141	0x3dbf4a18	0.09340304
142	0xbe4bc59b	-0.19899599
143	0xbe828d7c	-0.2549857
144	0x3df545d4	0.11976209
145	0xbb317df1	-0.0027083124
146	0x3cb050c8	0.021522895
147	0xbd350d44	-0.044202104
148	0xbd3d464a	-0.04620961
149	0xbd0dd9c0	-0.03463149
150	0xbdbd367a	-0.09238906
151	0xbd931772	-0.07182206
152	0xbe0e9e7e	-0.13927647
153	0xbdce8446	-0.10083823
154	0x3d335fa4	0.043792382
155	0xbe067c8a	-0.13133445
156	0xbb75ab40	-0.0037486106
157	0xbc6a3128	-0.014293946
158	0x3dbbf59e	0.09177707
159	0xbd8a0aaa	-0.06740315
160	0xbc8aea70	-0.016957492
161	0xbc539d70	-0.012915954
162	0xbc23fc40	-0.010008872
163	0x3c480f20	0.012210637
164	0x3c70ff00	0.014709234
165	0xbd21f874	-0.039543584
166	0xbdf6a318	-0.120428264
167	0xbc251700	-0.010076284
168	0xbe73c194	-0.23804313
169	0x3d08a2fe	0.033358566
170	0xbe5cbe54	-0.2155698
171	0x3d55ce4a	0.052198686
172	0xbd877da7	-0.06615763
173	0xbda1ea06	-0.079059646
174	0xbdb3e99a	-0.0878479
175	0xbdc4a34e	-0.096014604
176	0xbd09befc	-0.033629403
177	0xbc116837	-0.008874944
178	0x3c877660	0.016535938
179	0xbddd70af	-0.10812508
180	0xbdcb5900	-0.09929085
181	0x3d56f30c	0.05247788
182	0xbdcfe448	-0.10150963
183	0x3ce0f278	0.027459368
184	0xbe4b8458	-0.19874704
185	0xbdaad56a	-0.08341487
186	0x3dea5f18	0.11443919
187	0xbd0d1c2e	-0.034450702
188	0xbd59b3a4	-0.053149834
189	0xbd1e4e04	-0.03864862
190	0xbd5d4fdc	-0.054031238
191	0x3c8526cd	0.016253853
192	0xbda8a45f	-0.08234476
193	0x3c35f527	0.011105812
194	0xbd496bc4	-0.04917504
195	0xbd629fed	-0.0553283
196	0xbd402250	-0.046907723
197	0xbe2226c6	-0.15835103
198	0xbdbffefe	-0.09374808
199	0xbcbfcd38	-0.023413286
200	0xbcfdfd78	-0.031004652
201	0xbd07e023	-0.033172738
202	0x3d63c622	0.055608876
203	0xbccf42d8	-0.025300428
204	0xbd4366b8	-0.047705382
205	0xbdedd7c0	-0.11613417
206	0xbe01cf90	-0.12676835
207	0xbe0820b7	-0.1329373
208	0xbdd8bc4d	-0.105827905
209	0x3d1b8e24	0.037977353
210	0xbe6b9388	-0.23005497
211	0x3cc9ed0a	0.024649162
212	0xbd101b94	-0.03518255
213	0x3d1df4f8	0.0385637
214	0xbca80dbd	-0.020514363
215	0xbd53e32c	-0.05173032
216	0xbdf1b2d2	-0.118016854
217	0xbea4ff66	-0.32226104
218	0xbdb6fcfa	-0.0893497
219	0x3de0cb38	0.10976261
220	0xbdef298a	-0.11677845
221	0xbdfd2c9c	-0.12362024
222	0x3d5b8be6	0.053600214
223	0xbd558130	-0.052125156
224	0xbe1c0636	-0.15236744
225	0xbd6b2200	-0.05740547
226	0xbc90af3b	-0.017661681
227	0xbbcf2140	-0.0063211024
228	0x3c48a6ec	0.0122468285
229	0xbd2c0408	-0.041996032
230	0xbdbe952a	-0.093057945
231	0xbe090492	-0.1338065
232	0xbe283bf0	-0.16429114
233	0x3d3f83d4	0.04675658
234	0xbe20289d	-0.15640493
235	0x3dad9ea4	0.08477524
236	0xbe05dd19	-0.13072623
237	0x3c367fb9	0.01113885
238	0xbd8841cb	-0.06653174
239	0xbe702ffa	-0.23455802
240	0xbdb58434	-0.08863106
241	0xbe81813c	-0.2529391
242	0xbe8a9aa5	-0.2707111
243	0x3b61a1b4	0.0034428658
244	0xbcd99788	-0.026561514
245	0xbe74919e	-0.23883674
246	0xbd7628b0	-0.060097396
247	0x3d0176b8	0.03160736
248	0x3defd826	0.11711149
249	0xbd3b2f4c	-0.045699403
250	0xbddf3d9a	-0.109004214
251	0x3a959a02	0.0011413696
252	0xbdbef843	-0.09324696
253	0xbd2a080b	-0.041511577
254	0x3c0bb576	0.00852715
255	0xbe67bd71	-0.2263086

network.2.bias f4 [32]
0	0xbe950a21	-0.2910929
1	0xbe88172d	-0.26580182
2	0xbe4e653e	-0.20155808
3	0xbedcf087	-0.43152258
4	0xbd1adb80	-0.037806988
5	0xbee0b05f	-0.4388456
6	0xbf06c4eb	-0.5264422
7	0xbece4911	-0.4029012
8	0xbe7d350a	-0.24727264
9	0xbefabd51	-0.48972562
10	0x3fcd9454	1.6060891
11	0xbe0b5506	-0.13606653
12	0x3ffdc603	1.9826053
13	0xbe0ca9d6	-0.13736662
14	0xbd95a834	-0.07307473
15	0xbd98b72c	-0.07456812
16	0xbe014e68	-0.12627566
17	0xbdd93398	-0.10605544
18	0xbe6d80d8	-0.23193681
19	0xbf332322	-0.69975483
20	0xbea56ea8	-0.32310987
21	0x3fa29144	1.2700582
22	0xbe1acc19	-0.1511692
23	0x3fcd4867	1.603772
24	0xbea29cdd	-0.31760302
25	0xbeec82c1	-0.46193507
26	0xbee04639	-0.43803576
27	0xbea4d63b	-0.32194695
28	0xbe3ee454	-0.18641788
29	0xbd8a2b53	-0.06746545
30	0xbe245c32	-0.16050795
31	0xbe9c0f4b	-0.30480418

network.4.weight f4 [3, 32]
0	0x3e1703b4	0.14747506
1	0xbb000ce4	-0.0019538933
2	0x3d43bef3	0.047789525
3	0x3e92b699	0.28654936
4	0x3ca332e1	0.019921722
5	0xbe19defd	-0.1502647
6	0x3e1016aa	0.14071146
7	0xbd5360e6	-0.05160608
8	0x3dffdaa2	0.12492873
9	0xbe2cfb19	-0.16892661
10	0x402653cb	2.5988643
11	0xbd7c6c01	-0.061626438
12	0xbfedffce	-1.859369
13	0xbe115f2b	-0.1419646
14	0x3cc42962	0.023945514
15	0x3d5569dd	0.052102912
16	0x3ce4fa28	0.027951315
17	0x3dc2793f	0.09495782
18	0xbe1a05b9	-0.15041246
19	0x3fd1b184	1.6382298
20	0xbda0bdbd	-0.0784869
21	0x40198ef8	2.3993511
22	0x3d8c65f7	0.06855386
23	0x3feca7c7	1.8488702
24	0xbe0a03a0	-0.13477945
25	0x3e392025	0.18078668
26	0x3befad99	0.0073143956
27	0x3cef4754	0.029208817
28	0xbcea8abd	-0.028630609
29	0x3dc44223	0.09582927
30	0x3e4c1af9	0.19932164
31	0xbbe1e737	-0.006894018
32	0xbbf3cbbb	-0.007440058
33	0xbc668775	-0.014070381
34	0xbcbc948e	-0.023020055
35	0xbc5b832d	-0.013397974
36	0xbced245e	-0.028948005
37	0x3ee87b4d	0.4540657
38	0x3e8a5ea2	0.27025324
39	0x3e465286	0.19367418
40	0xbe83898a	-0.2569087
41	0xbc6fcec3	-0.014636698
42	0x403c7ba6	2.945047
43	0x3dda79ca	0.10667761
44	0xbfd06683	-1.6281284
45	0x3d1aa98e	0.037759356
46	0xbe21615f	-0.157598
47	0x3dade4a7	0.084908776
48	0x3d3c02bf	0.045901056
49	0x3dab7a91	0.08372987
50	0x3d3ec410	0.0465737
51	0x3fe29711	1.7702352
52	0x3ea30910	0.31842852
53	0x400582d8	2.086111
54	0xbcf91d19	-0.030409383
55	0x4005bc56	2.08962
56	0xbc538cfd	-0.012912032
57	0x3c39ef20	0.011348516
58	0xbdd7aacf	-0.10530626
59	0x3cd28ab7	0.02570091
60	0xbb8a06ba	-0.0042122276
61	0xbc269fbc	-0.01016992
62	0xbd850638	-0.06495327
63	0xbd14b8e0	-0.036309123
64	0x3e3befe7	0.18353234
65	0x3d0a44b1	0.033756915
66	0x3def2f0e	0.11678897
67	0x3daf3acb	0.08556136
68	0x3d4e7bc6	0.05041101
69	0x3ef9f665	0.48820797
70	0x3dc20098	0.094727695
71	0xbe9b93fe	-0.30386347
72	0x3e9ac135	0.3022553
73	0x3d9df8a7	0.07713442
74	0x403862c5	2.8810284
75	0xbceb287d	-0.02870583
76	0xbfa6fba4	-1.3045545
77	0x3da8a34f	0.08234274
78	0xbdf8ae3e	-0.12142609
79	0xbce02747	-0.027362479
80	0xbd8c6352	-0.06854881
81	0xbe4a98ad	-0.19784804
82	0xbe98d32a	-0.29848605
83	0x3fd70b2d	1.6800286
84	0xbdd6cabf	-0.104878895
85	0x400134bd	2.018844
86	0xbe29dab5	-0.16587336
87	0x400b4a14	2.1763964
88	0x3e398d88	0.18120396
89	0x3e3189f1	0.17337777
90	0xbe715396	-0.23567042
91	0x3e1fa246	0.15589246
92	0xbd448585	-0.047978897
93	0x3cf8baf1	0.030362578
94	0x3dcc4be3	0.09975412
95	0xbcad273b	-0.02113687

network.4.bias f4 [3]
0	0x40c5e269	6.183888
1	0x40a25967	5.0734134
2	0x409db156	4.9278975

network.0.weight f4 [64, 6]
0	0xbfb7937f	-1.4341887
1	0xbff2f138	-1.8979864
2	0xbecfd50c	-0.4059223
3	0xbf11b55a	-0.56917346
4	0xbe590d27	-0.21196423
5	0xbd96a7d7	-0.07356232
6	0x3e7ff881	0.2499714
7	0x3ca9bef6	0.02072094
8	0x3c8902a3	0.01672489
9	0x3e18e268	0.14930117
10	0xbdd8a00f	-0.10577404
11	0xbe2c72eb	-0.16840713
12	0x3e335610	0.17513299
13	0x3e11c1d2	0.14234093
14	0xbe79f6d4	-0.24410564
15	0xbbe56960	-0.007001087
16	0x3e00ab46	0.12565336
17	0xbe889472	-0.26675755
18	0xbf2a5860	-0.665411
19	0xbde15adc	-0.11003658
20	0x3e573c51	0.21019103
21	0x3ddefa6c	0.10887608
22	0xbe643624	-0.22286278
23	0x3d831b94	0.064017445
24	0xbf83c792	-1.0295279
25	0xc05960cc	-3.396533
26	0x3f0453b5	0.51690227
27	0xbf8fa9d2	-1.12237
28	0x3f16849c	0.58796096
29	0x3db5e34f	0.08881246
30	0xbf2b9bd8	-0.67034674
31	0xbedc32e1	-0.43007568
32	0x3e62c6bd	0.22146125
33	0xbdd27e5a	-0.10278006
34	0x3ccce10a	0.02500965
35	0xbeabd197	-0.33558342
36	0xbd261256	-0.04054483
37	0xbf3f3122	-0.74684346
38	0xbd5c12b5	-0.053728778
39	0xbdf3186d	-0.11869893
40	0x3d253f34	0.04034348
41	0xbf496899	-0.7867523
42	0xbf2375ec	-0.6385181
43	0xbf58950b	-0.8460242
44	0x3e57c563	0.21071391
45	0xbd69f968	-0.057122618
46	0xbe7a56e8	-0.24447215
47	0xbec8ae66	-0.39195555
48	0xbeb5bdf8	-0.35496497
49	0x3d1d8825	0.038459916
50	0xbdb1ef12	-0.08688177
51	0x3d098a58	0.0335792
52	0x3e5207e9	0.2051083
53	0xbe617885	-0.22018631
54	0xbf517128	-0.8181329
55	0xbf5b41ee	-0.85647476
56	0xbdcff9b3	-0.10155048
57	0xbd2242ca	-0.039614476
58	0xbdd05046	-0.10171561
59	0xbdb0c04d	-0.086304285
60	0x3de75602	0.112957016
61	0xbed9777d	-0.42473975
62	0x3e54289b	0.20718615
63	0xbe510bd0	-0.20414662
64	0xbcf0527b	-0.029336205
65	0xbeeb5702	-0.4596482
66	0xbb8a3182	-0.0042173276
67	0x3df02ce6	0.11727314
68	0xbd290d16	-0.041272245
69	0x3d9065c9	0.07050664
70	0x3d8d8f7f	0.06912135
71	0x3dfd72ad	0.12375388
72	0xbeebcbdd	-0.46053973
73	0xbd002da4	-0.031293526
74	0xbddc713f	-0.107637875
75	0xbd2d6b80	-0.042338848
76	0x3d8b8648	0.068127215
77	0xbe8a2420	-0.26980686
78	0xbcfde816	-0.030994456
79	0xbec69d8f	-0.38792083
80	0x3df98694	0.12183872
81	0x3df24726	0.11829977
82	0x3d541584	0.05177833
83	0xbeef30cd	-0.4671692
84	0xc1007dbe	-8.030699
85	0xc01a08a2	-2.406777
86	0xbe2f2bff	-0.17106627
87	0x3eb04b87	0.34432623
88	0xbd6ebe50	-0.058286965
89	0x3d6dcac5	0.058054704
90	0xc0e6c635	-7.211695
91	0xbf2245d8	-0.63387823
92	0xbe53971a	-0.2066311
93	0xbf119d7a	-0.56880915
94	0xbe4e1386	-0.20124635
95	0x3ebbac77	0.36655018
96	0x3dcd98d1	0.10038913
97	0xbd006731	-0.03134841
98	0x3dd27d4c	0.10277805
99	0x3d671955	0.056420643
100	0xbe5a8909	-0.21341337
101	0x3e035574	0.12825567
102	0xbe7414e4	-0.23836094
103	0xbf2cb9f5	-0.6747125
104	0x3e7b58f6	0.24545655
105	0x3c3863df	0.01125428
106	0x3da9e579	0.082957216
107	0xbf023200	-0.50857544
108	0xc084a087	-4.1445956
109	0x400bc697	2.183996
110	0x3da578a8	0.08079654
111	0xbd6c4ee9	-0.057692442
112	0x3e304405	0.17213447
113	0xbec8de62	-0.39232165
114	0xbf93059b	-1.1486086
115	0x3db090bd	0.08621357
116	0xbd7744a0	-0.06036818
117	0x3dbf98be	0.09355305
118	0x3e193dcd	0.14964981
119	0x3d2e082a	0.042488255
120	0xbf44a329	-0.7681146
121	0xbefc88a7	-0.49323007
122	0x3df41ec3	0.1191993
123	0xbdcb39f7	-0.09923165
124	0x3ecc6c85	0.39926544
125	0xbf6037b4	-0.87584996
126	0xbe9c10e8	-0.30481648
127	0x3ec9ef25	0.39440265
128	0x3db0abfe	0.08626555
129	0x3cc3383a	0.023830522
130	0xbe4d5a5a	-0.20053998
131	0xbed09e2d	-0.4074568
132	0xbf01edcc	-0.50753474
133	0xbe2d6d78	-0.1693629
134	0x3db1eb4f	0.0868746
135	0xbdcb822f	-0.0993694
136	0x3dab2bf3	0.08357992
137	0xbf24e34f	-0.64409345
138	0xbece1a1a	-0.4025429
139	0x3eabbbb0	0.33541632
140	0x3ddbdc6c	0.107354015
141	0x3d96bb4c	0.07359943
142	0xbe19add1	-0.15007712
143	0xbe6ad897	-0.22934185
144	0xbe988e31	-0.29795983
145	0x3d98cf5a	0.07461424
146	0x3e2c303d	0.16815276
147	0xbdd75303	-0.1051388
148	0x3dce077f	0.100600235
149	0xbef5ba34	-0.47993624
150	0xc09e1563	-4.9401107
151	0x4024a8bc	2.5727987
152	0x3e9529af	0.29133365
153	0xbf8a7f23	-1.0820049
154	0x3e9e5a90	0.3092847
155	0xbd8e962d	-0.069622375
156	0xbf84212a	-1.0322621
157	0xbf037ff1	-0.513671
158	0x3cabb52d	0.020960415
159	0xbdb45926	-0.08806066
160	0x3e5451c6	0.20734319
161	0xbf75fd3e	-0.9608954
162	0x3e12be0c	0.1433031
163	0xbd539a8d	-0.051661063
164	0x3df8d200	0.12149429
165	0x3d734d5d	0.05939995
166	0xbdc8be43	-0.098019145
167	0xbf002b2b	-0.5006587
168	0x3c7fe6cc	0.015618991
169	0xbd392b06	-0.045207046
170	0xbdeecf61	-0.11660648
171	0x3dd22905	0.1026173
172	0x3e95d541	0.29264262
173	0xba1b8620	-0.0005932767
174	0xbd855dfd	-0.065120675
175	0xbdead517	-0.11466425
176	0xbd573819	-0.052543733
177	0x3dc024a0	0.09381986
178	0xbdb20adb	-0.08693477
179	0xbed0b7b0	-0.40765142
180	0xc0ed9613	-7.4245696
181	0x4007392c	2.1128645
182	0xbf545116	-0.8293623
183	0xbf2182dc	-0.630903
184	0xbf19b7b3	-0.6004593
185	0x3ec03f06	0.37548083
186	0xbe24c3a3	-0.16090254
187	0xbeecd48e	-0.46255916
188	0x3d19b1c0	0.03752303
189	0xbd6e8ea0	-0.058241487
190	0x3e8f146c	0.27945268
191	0xbe8c0cac	-0.27353418
192	0x3e9f6ec0	0.31139183
193	0xbefdae50	-0.49547052
194	0xbdd361a1	-0.103213556
195	0xbdd13707	-0.10215574
196	0x3e74d764	0.2391029
197	0xbea562b5	-0.3230187
198	0xbd889bfd	-0.066703774
199	0x3daf2771	0.08552445
200	0x3e845acd	0.25850525
201	0x3d288b9c	0.041148767
202	0xbe7d4e32	-0.2473686
203	0xbe32c6ac	-0.174586
204	0xbeadf02a	-0.33972293
205	0xbe4bfb64	-0.19920117
206	0x3e0bfe3b	0.136712
207	0x3d9c6636	0.07636683
208	0x3e043917	0.12912403
209	0xbf024c41	-0.50897604
210	0x3d50ee49	0.051008496
211	0xbd0a25ee	-0.03372758
212	0x3e589776	0.21151528
213	0x3c96c851	0.018406065
214	0xbea9baba	-0.33150274
215	0xbc4df699	-0.0125710005
216	0xbf179bd4	-0.5922215
217	0xbf080727	-0.53135914
218	0xbccd2739	-0.025043117
219	0x3e52bdf1	0.2058027
220	0x3dc48f84	0.09597686
221	0xbe022cb8	-0.12712371
222	0xbeb2ecc3	-0.3494626
223	0x3d3ec24e	0.046572022
224	0xbeafd527	-0.3434231
225	0xbc4f1df2	-0.012641417
226	0x3e897210	0.26844835
227	0xbe30c080	-0.17260933
228	0xbd3fa4ce	-0.04678803
229	0xbd8c8888	-0.06861979
230	0x3e70abd2	0.23503044
231	0x3e10cb64	0.14140087
232	0xbe907d57	-0.28220627
233	0xbe5d5a41	-0.2161646
234	0x3cf8a2d0	0.030351073
235	0xbf512152	-0.8169147
236	0x3ebbf245	0.36708274
237	0xbd375a76	-0.044764005
238	0xbd8d2502	-0.06891824
239	0xbf10af53	-0.56517524
240	0xbe6a4a98	-0.22880018
241	0xbf83f332	-1.0308592
242	0xbe501cb7	-0.20323454
243	0xbd949db9	-0.07256646
244	0x3e7cfe14	0.24706298
245	0xbeff1156	-0.49817914
246	0xbeda07e9	-0.4258416
247	0xbefb84e9	-0.4912484
248	0xbdd97dbb	-0.10619684
249	0x3cd2a7b2	0.025714729
250	0x3e82eedb	0.25572857
251	0xbebf4ab5	-0.37361684
252	0xbf2ce4f9	-0.67536885
253	0xbf60736f	-0.8767614
254	0x3d590444	0.052982584
255	0xbe0173da	-0.1264185

network.0.bias f4 [64]
0	0xbe0549f6	-0.13016495
1	0xbf1a2339	-0.60209996
2	0xbec39a42	-0.38203627
3	0xbef4bca0	-0.4780016
4	0x3e91aa3c	0.2845019
5	0xbeb1623d	-0.34645262
6	0xbf62b511	-0.88557535
7	0xbeeaab7b	-0.45833954
8	0x3d10c5b3	0.03534479
9	0xbf43ba5d	-0.7645624
10	0xbef661f3	-0.48121604
11	0xbf02d0ee	-0.5110005
12	0xbdb102c8	-0.086431086
13	0xbdf83c3e	-0.12120865
14	0x3e00f5a7	0.12593709
15	0x3f5f9bfd	0.87347394
16	0xbedb5a7e	-0.42842478
17	0xbf3cf95c	-0.7381799
18	0xbea66573	-0.32499275
19	0xbea02831	-0.31280664
20	0xbe8820dc	-0.2658757
21	0xbe39dbcc	-0.18150252
22	0xbecebd88	-0.40378976
23	0xbe8e1277	-0.27748463
24	0xbeb32975	-0.34992567
25	0xbe989f5a	-0.29809076
26	0xbe8def29	-0.27721527
27	0xbe4d2c35	-0.20036395
28	0xbf275eb5	-0.65378886
29	0xbe709caf	-0.2349727
30	0x3e6fd3ac	0.2342059
31	0xbe940637	-0.28910992
32	0xbe20dc3a	-0.1570901
33	0xbee90ee3	-0.4551917
34	0xbe43cad3	-0.1912034
35	0xbea4d6c5	-0.32195106
36	0xbeb13b15	-0.3461539
37	0xbec3b63e	-0.38224977
38	0xbeafa375	-0.34304395
39	0xbedc8785	-0.43072143
40	0xbf38f2ed	-0.72245675
41	0xbdbc08d4	-0.09181371
42	0xbf0fcfcd	-0.56176454
43	0xbf340414	-0.7031872
44	0xbe7590ff	-0.23981093
45	0x3e98f81e	0.29876798
46	0xbf39f6a6	-0.7264198
47	0x3f230616	0.6368116
48	0xbe9c765e	-0.30559057
49	0xbf251cef	-0.64497274
50	0x3e0a378e	0.13497755
51	0xbeb2a94d	-0.3489479
52	0xbece4809	-0.40289333
53	0xbea5661c	-0.32304466
54	0xbe0f6c31	-0.14006115
55	0xbece4fae	-0.40295166
56	0xbdcb72fe	-0.099340424
57	0xbed60d96	-0.4180724
58	0xbe41e424	-0.18934685
59	0xbeec81b6	-0.46192712
60	0xbf2138ba	-0.6297718
61	0xbdf3a49f	-0.11896633
62	0xbf58b3cc	-0.8464935
63	0xbf0344aa	-0.5127665

network.2.weight f4 [32, 64]
0	0xbe66ac03	-0.22526555
1	0x3b992293	0.004673311
2	0xbd96f592	-0.073710576
3	0xbdb98e07	-0.09060293
4	0xbdfba90d	-0.12288103
5	0x3d6d1542	0.0578816
6	0xbe076554	-0.13222247
7	0xbde70234	-0.11279717
8	0x3d62bbd4	0.055354908
9	0xbd6b6b08	-0.05747512
10	0xbc9456d4	-0.01810781
11	0x3d8bd094	0.068268925
12	0xbd21ce25	-0.039503235
13	0x3d0ea553	0.034825634
14	0xbe349028	-0.17633116
15	0xbe8ad24f	-0.27113578
16	0x3b5b8717	0.0033497268
17	0x3d341804	0.043968216
18	0xbebd30db	-0.36951336
19	0x3c3c2caa	0.011485258
20	0x3e4b3d5f	0.1984763
21	0xbdb5cc6c	-0.08876881
22	0xbe18056f	-0.14845823
23	0x3c1c98f0	0.0095579475
24	0x3db25d38	0.08709186
25	0x3d8aea7c	0.067830056
26	0x3e86ba3f	0.2631397
27	0x3c96bbb8	0.018400058
28	0xbd33bdc0	-0.04388213
29	0xbcb6d7d0	-0.022319704
30	0xbe86d1db	-0.26331982
31	0x3d1a7434	0.037708476
32	0xbdbb1014	-0.09133926
33	0xbd17ff44	-0.037108675
34	0xbd1f25d3	-0.03885443
35	0x3cfc0038	0.030761823
36	0xbd0fcba8	-0.03510633
37	0x3c5ba530	0.013406083
38	0x3d554540	0.052067995
39	0xbe2afba3	-0.16697554
40	0xbe3ac295	-0.1823829
41	0x3dbb8be6	0.09157543
42	0xbe256f56	-0.16155753
43	0xbd74177c	-0.05959271
44	0xbdca7342	-0.09885265
45	0xbe299894	-0.1656211
46	0x3e0c6a93	0.1371253
47	0xbd58440a	-0.052799262
48	0xbd92b9a8	-0.07164317
49	0xbc8cc531	-0.017183872
50	0xbeb3b0ad	-0.3509573
51	0x39c0a1b4	0.00036741572
52	0x3c810a88	0.015752092
53	0xbd776db4	-0.060407355
54	0xbdf7491c	-0.120744914
55	0xbd82bcae	-0.06383644
56	0x3cf6ec90	0.030142099
57	0x3d0107ac	0.031501457
58	0x3b6b9680	0.003594786
59	0xbd5fe3e0	-0.054660678
60	0xbdc8bc9f	-0.098016016
61	0xbddd782c	-0.108139366
62	0xbd737a1b	-0.05944262
63	0xbe531eef	-0.20617269
64	0xbd8d0783	-0.06886198
65	0xbdf63f4b	-0.12023791
66	0x3da487b0	0.08033693
67	0xbe1af8f0	-0.15134025
68	0xbe34ec81	-0.17668344
69	0xbe0563a6	-0.13026294
70	0x3de67297	0.11252325
71	0xbd985319	-0.074377246
72	0xbd384f54	-0.04499753
73	0x3cd9ce38	0.02658759
74	0x3d36dfad	0.044646908
75	0x3cc4692b	0.02397593
76	0xbd98e428	-0.07465392
77	0xbdc9cce0	-0.0985353
78	0xbec1b322	-0.3783198
79	0x3d46c286	0.048525356
80	0xbe2f0da5	-0.17095049
81	0xbd653b63	-0.05596484
82	0x3d04c497	0.032414045
83	0x3cf8ad41	0.030356051
84	0xbe227bdd	-0.15867563
85	0xba72b900	-0.00092591345
86	0xbc85a43a	-0.01631366
87	0x3d872390	0.0659858
88	0x3d31fc4f	0.04345351
89	0xbdb7ff9d	-0.08984301
90	0x3d6dbda4	0.058042184
91	0x3d007dca	0.03136996
92	0xbda51d0e	-0.08062182
93	0xbc96e0bd	-0.01841771
94	0xbdc73a4d	-0.09727917
95	0xbdbc068a	-0.09180935
96	0xbe2a2933	-0.16617279
97	0x3dbb54ae	0.09147011
98	0x3d101bb2	0.035182662
99	0xbdfc2642	-0.123119846
100	0x3d63f81f	0.05565655
101	0xbdf29c28	-0.11846191
102	0xbdb23ed4	-0.0870339
103	0xbd03727d	-0.032091606
104	0xbdfd6797	-0.12373274
105	0xbda0940e	-0.07840739
106	0xbe0ea03a	-0.13928309
107	0xbd97d462	-0.07413556
108	0xbd4f467d	-0.050604332
109	0xbe3351ca	-0.17511669
110	0xbc8151dc	-0.015786104
111	0xbcb0ebaf	-0.021596758
112	0x3d07bf90	0.033141673
113	0x3d7af5b9	0.061269496
114	0xbe8eb460	-0.2787199
115	0x3cb8f84f	0.02257934
116	0x3df11226	0.1177104
117	0xbe25f54a	-0.16206852
118	0xbdf6631a	-0.12030621
119	0x3d077ab4	0.033076003
120	0x3d2fe372	0.042941518
121	0x3e2cccc5	0.16874988
122	0x3cc0f473	0.023554062
123	0xbdd4ece5	-0.103967465
124	0xbe2f81d7	-0.17139374
125	0xbba34beb	-0.0049834154
126	0x3d50630c	0.05087571
127	0xbdab5e9b	-0.08367654
128	0xbdcd5930	-0.10026777
129	0xbd80dfd2	-0.0629269
130	0xbd6d1d10	-0.057889044
131	0x3de3dc82	0.11126043
132	0xbd893696	-0.066998646
133	0xbdebbaa7	-0.115102105
134	0xbe56a348	-0.20960724
135	0xbbb69020	-0.0055713803
136	0x3dbe2044	0.09283498
137	0x3c03c950	0.008043602
138	0xbda788dc	-0.08180401
139	0xbdfd3c6b	-0.123650394
140	0xbde42b52	-0.11141075
141	0x3dbf4a18	0.09340304
142	0xbe4bc59b	-0.19899599
143	0xbe828d7c	-0.2549857
144	0x3df545d4	0.11976209
145	0xbb317df1	-0.0027083124
146	0x3cb050c8	0.021522895
147	0xbd350d44	-0.044202104
148	0xbd3d464a	-0.04620961
149	0xbd0dd9c0	-0.03463149
150	0xbdbd367a	-0.09238906
151	0xbd931772	-0.07182206
152	0xbe0e9e7e	-0.13927647
153	0xbdce8446	-0.10083823
154	0x3d335fa4	0.043792382
155	0xbe067c8a	-0.13133445
156	0xbb75ab40	-0.0037486106
157	0xbc6a3128	-0.014293946
158	0x3dbbf59e	0.09177707
159	0xbd8a0aaa	-0.06740315
160	0xbc8aea70	-0.016957492
161	0xbc539d70	-0.012915954
162	0xbc23fc40	-0.010008872
163	0x3c480f20	0.012210637
164	0x3c70ff00	0.014709234
165	0xbd21f874	-0.039543584
166	0xbdf6a318	-0.120428264
167	0xbc251700	-0.010076284
168	0xbe73c194	-0.23804313
169	0x3d08a2fe	0.033358566
170	0xbe5cbe54	-0.2155698
171	0x3d55ce4a	0.052198686
172	0xbd877da7	-0.06615763
173	0xbda1ea06	-0.079059646
174	0xbdb3e99a	-0.0878479
175	0xbdc4a34e	-0.096014604
176	0xbd09befc	-0.033629403
177	0xbc116837	-0.008874944
178	0x3c877660	0.016535938
179	0xbddd70af	-0.10812508
180	0xbdcb5900	-0.09929085
181	0x3d56f30c	0.05247788
182	0xbdcfe448	-0.10150963
183	0x3ce0f278	0.027459368
184	0xbe4b8458	-0.19874704
185	0xbdaad56a	-0.08341487
186	0x3dea5f18	0.11443919
187	0xbd0d1c2e	-0.034450702
188	0xbd59b3a4	-0.053149834
189	0xbd1e4e04	-0.03864862
190	0xbd5d4fdc	-0.054031238
191	0x3c8526cd	0.016253853
192	0xbda8a45f	-0.08234476
193	0x3c35f527	0.011105812
194	0xbd496bc4	-0.04917504
195	0xbd629fed	-0.0553283
196	0xbd402250	-0.046907723
197	0xbe2226c6	-0.15835103
198	0xbdbffefe	-0.09374808
199	0xbcbfcd38	-0.023413286
200	0xbcfdfd78	-0.031004652
201	0xbd07e023	-0.033172738
202	0x3d63c622	0.055608876
203	0xbccf42d8	-0.025300428
204	0xbd4366b8	-0.047705382
205	0xbdedd7c0	-0.11613417
206	0xbe01cf90	-0.12676835
207	0xbe0820b7	-0.1329373
208	0xbdd8bc4d	-0.105827905
209	0x3d1b8e24	0.037977353
210	0xbe6b9388	-0.23005497
211	0x3cc9ed0a	0.024649162
212	0xbd101b94	-0.03518255
213	0x3d1df4f8	0.0385637
214	0xbca80dbd	-0.020514363
215	0xbd53e32c	-0.05173032
216	0xbdf1b2d2	-0.118016854
217	0xbea4ff66	-0.32226104
218	0xbdb6fcfa	-0.0893497
219	0x3de0cb38	0.10976261
220	0xbdef298a	-0.11677845
221	0xbdfd2c9c	-0.12362024
222	0x3d5b8be6	0.053600214
223	0xbd558130	-0.052125156
224	0xbe1c0636	-0.15236744
225	0xbd6b2200	-0.05740547
226	0xbc90af3b	-0.017661681
227	0xbbcf2140	-0.0063211024
228	0x3c48a6ec	0.0122468285
229	0xbd2c0408	-0.041996032
230	0xbdbe952a	-0.093057945
231	0xbe090492	-0.1338065
232	0xbe283bf0	-0.16429114
233	0x3d3f83d4	0.04675658
234	0xbe20289d	-0.15640493
235	0x3dad9ea4	0.08477524
236	0xbe05dd19	-0.13072623
237	0x3c367fb9	0.01113885
238	0xbd8841cb	-0.06653174
239	0xbe702ffa	-0.23455802
240	0xbdb58434	-0.08863106
241	0xbe81813c	-0.2529391
242	0xbe8a9aa5	-0.2707111
243	0x3b61a1b4	0.0034428658
244	0xbcd99788	-0.026561514
245	0xbe74919e	-0.23883674
246	0xbd7628b0	-0.060097396
247	0x3d0176b8	0.03160736
248	0x3defd826	0.11711149
249	0xbd3b2f4c	-0.045699403
250	0xbddf3d9a	-0.109004214
251	0x3a959a02	0.0011413696
252	0xbdbef843	-0.09324696
253	0xbd2a080b	-0.041511577
254	0x3c0bb576	0.00852715
255	0xbe67bd71	-0.2263086

network.2.bias f4 [32]
0	0xbe950a21	-0.2910929
1	0xbe88172d	-0.26580182
2	0xbe4e653e	-0.20155808
3	0xbedcf087	-0.43152258
4	0xbd1adb80	-0.037806988
5	0xbee0b05f	-0.4388456
6	0xbf06c4eb	-0.5264422
7	0xbece4911	-0.4029012
8	0xbe7d350a	-0.24727264
9	0xbefabd51	-0.48972562
10	0x3fcc21c9	1.594781
11	0xbe0b5506	-0.13606653
12	0x3ff6c116	1.9277675
13	0xbe0ca9d6	-0.13736662
14	0xbd95a834	-0.07307473
15	0xbd98b72c	-0.07456812
16	0xbe014e68	-0.12627566
17	0xbdd93398	-0.10605544
18	0xbe6d80d8	-0.23193681
19	0xbf387830	-0.7205839
20	0xbea56ea8	-0.32310987
21	0x3fa33ecb	1.2753538
22	0xbe1acc19	-0.1511692
23	0x3fcb185f	1.5866812
24	0xbea29cdd	-0.31760302
25	0xbeec82c1	-0.46193507
26	0xbee04639	-0.43803576
27	0xbea4d63b	-0.32194695
28	0xbe3ee454	-0.18641788
29	0xbd8a2b53	-0.06746545
30	0xbe245c32	-0.16050795
31	0xbe9c0f4b	-0.30480418

network.4.weight f4 [3, 32]
0	0x3e1703b4	0.14747506
1	0xbb000ce4	-0.0019538933
2	0x3d43bef3	0.047789525
3	0x3e92b699	0.28654936
4	0x3ca332e1	0.019921722
5	0xbe19defd	-0.1502647
6	0x3e1016aa	0.14071146
7	0xbd5360e6	-0.05160608
8	0x3dffdaa2	0.12492873
9	0xbe2cfb19	-0.16892661
10	0x40235d87	2.5525835
11	0xbd7c6c01	-0.061626438
12	0xbfe9eef6	-1.827605
13	0xbe115f2b	-0.1419646
14	0x3cc42962	0.023945514
15	0x3d5569dd	0.052102912
16	0x3ce4fa28	0.027951315
17	0x3dc2793f	0.09495782
18	0xbe1a05b9	-0.15041246
19	0x3fd094c4	1.62954
20	0xbda0bdbd	-0.0784869
21	0x4016f65a	2.358786
22	0x3d8c65f7	0.06855386
23	0x3fe69fd9	1.8017532
24	0xbe0a03a0	-0.13477945
25	0x3e392025	0.18078668
26	0x3befad99	0.0073143956
27	0x3cef4754	0.029208817
28	0xbcea8abd	-0.028630609
29	0x3dc44223	0.09582927
30	0x3e4c1af9	0.19932164
31	0xbbe1e737	-0.006894018
32	0xbbf3cbbb	-0.007440058
33	0xbc668775	-0.014070381
34	0xbcbc948e	-0.023020055
35	0xbc5b832d	-0.013397974
36	0xbced245e	-0.028948005
37	0x3ee87b4d	0.4540657
38	0x3e8a5ea2	0.27025324
39	0x3e465286	0.19367418
40	0xbe83898a	-0.2569087
41	0xbc6fcec3	-0.014636698
42	0x403f80a2	2.9922261
43	0x3dda79ca	0.10667761
44	0xbfcad632	-1.5846617
45	0x3d1aa98e	0.037759356
46	0xbe21615f	-0.157598
47	0x3dade4a7	0.084908776
48	0x3d3c02bf	0.045901056
49	0x3dab7a91	0.08372987
50	0x3d3ec410	0.0465737
51	0x3fddfbd7	1.734248
52	0x3ea30910	0.31842852
53	0x40095f35	2.146436
54	0xbcf91d19	-0.030409383
55	0x400ac389	2.1681845
56	0xbc538cfd	-0.012912032
57	0x3c39ef20	0.011348516
58	0xbdd7aacf	-0.10530626
59	0x3cd28ab7	0.02570091
60	0xbb8a06ba	-0.0042122276
61	0xbc269fbc	-0.01016992
62	0xbd850638	-0.06495327
63	0xbd14b8e0	-0.036309123
64	0x3e3befe7	0.18353234
65	0x3d0a44b1	0.033756915
66	0x3def2f0e	0.11678897
67	0x3daf3acb	0.08556136
68	0x3d4e7bc6	0.05041101
69	0x3ef9f665	0.48820797
70	0x3dc20098	0.094727695
71	0xbe9b93fe	-0.30386347
72	0x3e9ac135	0.3022553
73	0x3d9df8a7	0.07713442
74	0x4037c961	2.8716662
75	0xbceb287d	-0.02870583
76	0xbfa2fc4a	-1.2733243
77	0x3da8a34f	0.08234274
78	0xbdf8ae3e	-0.12142609
79	0xbce02747	-0.027362479
80	0xbd8c6352	-0.06854881
81	0xbe4a98ad	-0.19784804
82	0xbe98d32a	-0.29848605
83	0x3fd6efe1	1.6791955
84	0xbdd6cabf	-0.104878895
85	0x40007529	2.007151
86	0xbe29dab5	-0.16587336
87	0x400a174c	2.157672
88	0x3e398d88	0.18120396
89	0x3e3189f1	0.17337777
90	0xbe715396	-0.23567042
91	0x3e1fa246	0.15589246
92	0xbd448585	-0.047978897
93	0x3cf8baf1	0.030362578
94	0x3dcc4be3	0.09975412
95	0xbcad273b	-0.02113687

network.4.bias f4 [3]
0	0x40c4f893	6.1553435
1	0x40a19d25	5.0504327
2	0x409de64d	4.934363

exp_avg f4 [64, 6]
0	0x3b2c1ebd	0.0026263439
1	0x3b5f2253	0.0034047558
2	0xbb83ca1b	-0.0040218956
3	0xbb83ca1b	-0.0040218956
4	0xbb1e25b8	-0.002413137
5	0x3b26d67d	0.0025457435
6	0x00000004	6e-45
7	0x00000004	6e-45
8	0x80000004	-6e-45
9	0x00000004	6e-45
10	0x80000004	-6e-45
11	0x00000004	6e-45
12	0x00000000	0.0
13	0x00000000	0.0
14	0x00000000	0.0
15	0x00000000	0.0
16	0x00000000	0.0
17	0x00000000	0.0
18	0x00000004	6e-45
19	0x00000004	6e-45
20	0x00000004	6e-45
21	0x00000004	6e-45
22	0x00000004	6e-45
23	0x00000004	6e-45
24	0x3be38803	0.006943704
25	0x3b8fa9ce	0.004384256
26	0x3d400568	0.046880156
27	0x3cb35506	0.021891128
28	0x3ce66ce8	0.028128102
29	0xbc3eec36	-0.011652997
30	0x00000004	6e-45
31	0x00000004	6e-45
32	0x00000004	6e-45
33	0x80000004	-6e-45
34	0x00000004	6e-45
35	0x00000004	6e-45
36	0x80000004	-6e-45
37	0x00000004	6e-45
38	0x00000004	6e-45
39	0x00000004	6e-45
40	0x00000004	6e-45
41	0x00000004	6e-45
42	0x00000004	6e-45
43	0x00000004	6e-45
44	0x80000004	-6e-45
45	0x00000004	6e-45
46	0x80000004	-6e-45
47	0x00000004	6e-45
48	0x00000000	0.0
49	0x00000000	0.0
50	0x00000000	0.0
51	0x00000000	0.0
52	0x00000000	0.0
53	0x00000000	0.0
54	0x00000004	6e-45
55	0x00000004	6e-45
56	0x80000004	-6e-45
57	0x80000004	-6e-45
58	0x80000004	-6e-45
59	0x00000004	6e-45
60	0x00000004	6e-45
61	0x00000004	6e-45
62	0x00000004	6e-45
63	0x80000004	-6e-45
64	0x00000004	6e-45
65	0x00000004	6e-45
66	0x00000004	6e-45
67	0x00000004	6e-45
68	0x80000004	-6e-45
69	0x00000004	6e-45
70	0x80000004	-6e-45
71	0x00000004	6e-45
72	0x00000004	6e-45
73	0x00000004	6e-45
74	0x00000004	6e-45
75	0x80000004	-6e-45
76	0x00000004	6e-45
77	0x00000004	6e-45
78	0x00000004	6e-45
79	0x00000004	6e-45
80	0x00000004	6e-45
81	0x00000004	6e-45
82	0x00000004	6e-45
83	0x00000004	6e-45
84	0x3c081d75	0.008307804
85	0x3aad36bc	0.0013215165
86	0xbe1f5340	-0.15559101
87	0xbc855e41	-0.016280295
88	0xbdbf30ae	-0.09335457
89	0x3d0dd610	0.034627974
90	0xbcd0448b	-0.025423309
91	0xba931d74	-0.0011223988
92	0x3e84ff68	0.2597611
93	0xbea4584f	-0.32098624
94	0x3e1f98e4	0.15585667
95	0xbe7b52dd	-0.24543329
96	0x00000004	6e-45
97	0x00000004	6e-45
98	0x00000004	6e-45
99	0x00000004	6e-45
100	0x00000004	6e-45
101	0x00000004	6e-45
102	0x00000004	6e-45
103	0x00000004	6e-45
104	0x80000004	-6e-45
105	0x00000004	6e-45
106	0x80000004	-6e-45
107	0x00000004	6e-45
108	0x00000004	6e-45
109	0x00000004	6e-45
110	0x80000004	-6e-45
111	0x00000004	6e-45
112	0x80000004	-6e-45
113	0x00000004	6e-45
114	0x00000004	6e-45
115	0x00000004	6e-45
116	0x00000004	6e-45
117	0x00000004	6e-45
118	0x00000004	6e-45
119	0x00000004	6e-45
120	0x00000004	6e-45
121	0x00000004	6e-45
122	0x80000004	-6e-45
123	0x00000004	6e-45
124	0x80000004	-6e-45
125	0x00000004	6e-45
126	0x00000000	0.0
127	0x00000000	0.0
128	0x00000000	0.0
129	0x00000000	0.0
130	0x00000000	0.0
131	0x00000000	0.0
132	0x00000004	6e-45
133	0x00000004	6e-45
134	0x00000004	6e-45
135	0x80000004	-6e-45
136	0x00000004	6e-45
137	0x00000004	6e-45
138	0x00000004	6e-45
139	0x00000004	6e-45
140	0x80000004	-6e-45
141	0x00000004	6e-45
142	0x80000004	-6e-45
143	0x00000004	6e-45
144	0x00000004	6e-45
145	0x00000004	6e-45
146	0x80000004	-6e-45
147	0x00000004	6e-45
148	0x80000004	-6e-45
149	0x00000004	6e-45
150	0x3d55b713	0.052176546
151	0x3d29ef46	0.041487955
152	0x3e4b95de	0.19881389
153	0xbc856f9f	-0.016288577
154	0x3df44d70	0.119288325
155	0x3c852034	0.016250707
156	0x00000004	6e-45
157	0x00000004	6e-45
158	0x00000004	6e-45
159	0x80000004	-6e-45
160	0x00000004	6e-45
161	0x00000004	6e-45
162	0x00000004	6e-45
163	0x00000004	6e-45
164	0x80000004	-6e-45
165	0x80000004	-6e-45
166	0x80000004	-6e-45
167	0x00000004	6e-45
168	0x00000004	6e-45
169	0x00000004	6e-45
170	0x00000004	6e-45
171	0x00000004	6e-45
172	0x00000004	6e-45
173	0x00000004	6e-45
174	0x00000004	6e-45
175	0x00000004	6e-45
176	0x80000004	-6e-45
177	0x80000004	-6e-45
178	0x80000004	-6e-45
179	0x00000004	6e-45
180	0xb9c00d33	-0.00036630928
181	0xbc3f36ea	-0.011670807
182	0xbda8d8e2	-0.08244492
183	0x3de5ad8e	0.112147436
184	0xbd4a9dda	-0.049466945
185	0x3cbca03a	0.02302562
186	0x80000004	-6e-45
187	0x00000004	6e-45
188	0x00000004	6e-45
189	0x00000004	6e-45
190	0x00000004	6e-45
191	0x00000004	6e-45
192	0x00000004	6e-45
193	0x00000004	6e-45
194	0x00000004	6e-45
195	0x80000004	-6e-45
196	0x00000004	6e-45
197	0x00000004	6e-45
198	0x00000004	6e-45
199	0x00000004	6e-45
200	0x00000004	6e-45
201	0x00000004	6e-45
202	0x00000004	6e-45
203	0x00000004	6e-45
204	0x00000004	6e-45
205	0x00000004	6e-45
206	0x00000004	6e-45
207	0x00000004	6e-45
208	0x00000004	6e-45
209	0x00000004	6e-45
210	0x00000004	6e-45
211	0x00000004	6e-45
212	0x80000004	-6e-45
213	0x00000004	6e-45
214	0x80000004	-6e-45
215	0x00000004	6e-45
216	0x00000004	6e-45
217	0x00000004	6e-45
218	0x00000004	6e-45
219	0x00000004	6e-45
220	0x00000004	6e-45
221	0x00000004	6e-45
222	0x00000004	6e-45
223	0x00000004	6e-45
224	0x80000004	-6e-45
225	0x00000004	6e-45
226	0x80000004	-6e-45
227	0x00000004	6e-45
228	0x00000004	6e-45
229	0x00000004	6e-45
230	0x00000004	6e-45
231	0x00000004	6e-45
232	0x00000004	6e-45
233	0x00000004	6e-45
234	0x00000004	6e-45
235	0x00000004	6e-45
236	0x00000004	6e-45
237	0x80000004	-6e-45
238	0x00000004	6e-45
239	0x00000004	6e-45
240	0x00000004	6e-45
241	0x00000004	6e-45
242	0x00000004	6e-45
243	0x00000004	6e-45
244	0x00000004	6e-45
245	0x00000004	6e-45
246	0x00000004	6e-45
247	0x00000004	6e-45
248	0x80000004	-6e-45
249	0x00000004	6e-45
250	0x80000004	-6e-45
251	0x00000004	6e-45
252	0x00000004	6e-45
253	0x00000004	6e-45
254	0x00000004	6e-45
255	0x80000004	-6e-45

exp_avg_sq f4 [64, 6]
0	0x3abb05a3	0.0014268648
1	0x38dd42fe	0.000105505795
2	0x3c834e98	0.016028687
3	0x3c833601	0.016016962
4	0x3bbd1509	0.00577033
5	0x3ba19f8e	0.0049323505
6	0x2836afda	1.0141161e-14
7	0x27b660f0	5.0620247e-15
8	0x297e8f28	5.6523498e-14
9	0x295baa1f	4.8775325e-14
10	0x28b74859	2.0348457e-14
11	0x28ba9c39	2.0717899e-14
12	0x00000000	0.0
13	0x00000000	0.0
14	0x00000000	0.0
15	0x00000000	0.0
16	0x00000000	0.0
17	0x00000000	0.0
18	0x247a53a4	5.4280955e-17
19	0x24c5a560	8.571529e-17
20	0x26c5da8e	1.372886e-15
21	0x26c5da8e	1.372886e-15
22	0x260e7403	4.942337e-16
23	0x25f87b9e	4.3104908e-16
24	0x3aefc48a	0.0018292826
25	0x3a5f5014	0.00085187075
26	0x3d6c2d9d	0.057660688
27	0x3d6700d9	0.056397293
28	0x3caa0c5f	0.020757852
29	0x3ca219b5	0.019787649
30	0x3328302d	3.9159364e-08
31	0x33031151	3.0516563e-08
32	0x352d6a27	6.4601994e-07
33	0x352d6a27	6.4601994e-07
34	0x3479b7de	2.3256823e-07
35	0x3484bec2	2.472571e-07
36	0x25dc9825	3.8267014e-16
37	0x25ba3519	3.2301837e-16
38	0x2e95c117	6.810035e-11
39	0x2e95c117	6.810035e-11
40	0x2dd7a56c	2.4516132e-11
41	0x2dcd4a56	2.3338814e-11
42	0x256bf76f	2.0466835e-16
43	0x25847689	2.2978672e-16
44	0x27e1c3bc	6.266226e-15
45	0x27dfa54a	6.207414e-15
46	0x27228cbb	2.2558306e-15
47	0x2740108c	2.6654323e-15
48	0x00000000	0.0
49	0x00000000	0.0
50	0x00000000	0.0
51	0x00000000	0.0
52	0x00000000	0.0
53	0x00000000	0.0
54	0x1f254622	3.499812e-20
55	0x2084abf3	2.2475456e-19
56	0x23bbf715	2.0379224e-17
57	0x23bbf715	2.0379224e-17
58	0x23075598	7.33649e-18
59	0x231a5874	8.367087e-18
60	0x248d85cd	6.137567e-17
61	0x25151d47	1.293361e-16
62	0x2723c221	2.2726032e-15
63	0x2723c221	2.2726032e-15
64	0x266bcfd3	8.181366e-16
65	0x2640de70	6.691484e-16
66	0x224990be	2.7317205e-18
67	0x229abe7b	4.1943463e-18
68	0x24fec55d	1.1048929e-16
69	0x24fec55d	1.1048929e-16
70	0x24376f27	3.977595e-17
71	0x243f6795	4.150426e-17
72	0x2557a42f	1.8703905e-16
73	0x260da80e	4.914696e-16
74	0x281abfd9	8.590318e-15
75	0x281d0d44	8.718127e-15
76	0x275ed6f7	3.0925222e-15
77	0x27362fbf	2.5283457e-15
78	0x244ad107	4.397882e-17
79	0x24a58a04	7.179115e-17
80	0x26b11bd2	1.2289383e-15
81	0x26b2e44e	1.2413113e-15
82	0x25ff092d	4.4241666e-16
83	0x25d38bf5	3.6697504e-16
84	0x3bb17c6d	0.005416444
85	0x3a7d239b	0.000965649
86	0x3fcf904e	1.6215913
87	0x3fcab56c	1.5836616
88	0x3f157226	0.583773
89	0x3f11c2d9	0.5693794
90	0x3c172e9c	0.009227421
91	0x3b02e2f1	0.0019971693
92	0x40176fce	2.366199
93	0x4018838d	2.3830292
94	0x3f5a119d	0.85183126
95	0x3f5b4c73	0.8566353
96	0x24cda5f4	8.9185714e-17
97	0x2594eb6f	2.5833443e-16
98	0x279bc74c	4.323722e-15
99	0x279dfc17	4.384957e-15
100	0x26e052b0	1.5565535e-15
101	0x26b96be2	1.2866195e-15
102	0x323047c9	1.026087e-08
103	0x31ecd27f	6.8924346e-09
104	0x338fdd86	6.699251e-08
105	0x338fdd86	6.699251e-08
106	0x32cf2a84	2.4117305e-08
107	0x32be1ebd	2.213289e-08
108	0x315de924	3.2292258e-09
109	0x31850153	3.87096e-09
110	0x352b922d	6.391518e-07
111	0x352b3950	6.3785865e-07
112	0x3477100c	2.3009505e-07
113	0x34683f4a	2.1629708e-07
114	0x28911aac	1.6109801e-14
115	0x281a7b17	8.575408e-15
116	0x29fb38ed	1.1156514e-13
117	0x29da7d65	9.702897e-14
118	0x2934e15d	4.01635e-14
119	0x29474d4b	4.4253917e-14
120	0x2dfe21fa	2.8891545e-11
121	0x231a4823	8.363632e-18
122	0x3274dfe1	1.4253573e-08
123	0x3274dfe1	1.4253573e-08
124	0x31b04f2d	5.1312754e-09
125	0x317e72dc	3.7027155e-09
126	0x00000000	0.0
127	0x00000000	0.0
128	0x00000000	0.0
129	0x00000000	0.0
130	0x00000000	0.0
131	0x00000000	0.0
132	0x24e052cc	9.728478e-17
133	0x2531c0fa	1.5417686e-16
134	0x2753cf0c	2.9394373e-15
135	0x2753cf0c	2.9394373e-15
136	0x269880ad	1.0581996e-15
137	0x2676e740	8.5661797e-16
138	0x15b46806	7.286554e-26
139	0x1a732a13	5.028521e-23
140	0x1c54222c	7.018908e-22
141	0x1c54222c	7.018908e-22
142	0x1b98bc5c	2.5268015e-22
143	0x1b971b6d	2.4998578e-22
144	0x22b1b46b	4.816697e-18
145	0x2290b92c	3.9227337e-18
146	0x24983667	6.601165e-17
147	0x24983667	6.601165e-17
148	0x23db2f57	2.3764077e-17
149	0x23b8fc0c	2.0056066e-17
150	0x3d4c0a35	0.04981442
151	0x3d3c2f9d	0.045943845
152	0x3f294a06	0.66128576
153	0x3f25cceb	0.64765805
154	0x3e73c6c6	0.23806295
155	0x3e69b4ae	0.2282283
156	0x2c906d7d	4.104882e-12
157	0x2bc827a9	1.4221863e-12
158	0x30f08433	1.7499872e-09
159	0x30f08433	1.7499872e-09
160	0x302d2c19	6.29997e-10
161	0x2ff9928a	4.5396958e-10
162	0x2280de8e	3.493011e-18
163	0x22774122	3.3509223e-18
164	0x24825ef7	5.653939e-17
165	0x24825ef7	5.653939e-17
166	0x23bbbc10	2.0354228e-17
167	0x23b9bb8f	2.0137174e-17
168	0x2178bf97	8.4279235e-19
169	0x2281ba50	3.5162786e-18
170	0x24a63e97	7.2097056e-17
171	0x24a10f72	6.9848785e-17
172	0x23ef645c	2.5954936e-17
173	0x23daff8d	2.3743837e-17
174	0x240807a1	2.949676e-17
175	0x23eb5ad8	2.5517225e-17
176	0x25e85800	4.0305216e-16
177	0x25e0c775	3.8992963e-16
178	0x25274967	1.4509811e-16
179	0x2527dd16	1.4559848e-16
180	0x3c6418e7	0.013921953
181	0x3c8b2d0e	0.016989257
182	0x3f618a97	0.88102096
183	0x3f63080b	0.8868415
184	0x3ea263cb	0.3171676
185	0x3eaafc4f	0.3339562
186	0x17bc83d1	1.218249e-24
187	0x1fd98911	9.212983e-20
188	0x21dbd002	1.4895076e-18
189	0x21dbd002	1.4895076e-18
190	0x211e43aa	5.3622035e-19
191	0x21017185	4.385714e-19
192	0x259bb9d6	2.701414e-16
193	0x2600e0a3	4.471336e-16
194	0x2808b86f	7.589509e-15
195	0x2808b86f	7.589509e-15
196	0x2744e0b7	2.7322282e-15
197	0x27235917	2.266909e-15
198	0x1f786259	5.2597394e-20
199	0x22725233	3.2840632e-18
200	0x2479f73f	5.4202694e-17
201	0x2479f73f	5.4202694e-17
202	0x23b3f99e	1.9512936e-17
203	0x239332f9	1.595936e-17
204	0x260aa7a4	4.8105563e-16
205	0x2669a23f	8.1058e-16
206	0x287a40b3	1.3891817e-14
207	0x287a40b3	1.3891817e-14
208	0x27b42eeb	5.0010905e-15
209	0x2795e17f	4.160029e-15
210	0x20b83ca2	3.1210936e-19
211	0x219127dd	9.836134e-19
212	0x23d21507	2.2777151e-17
213	0x23f96cb0	2.7042665e-17
214	0x23174214	8.199719e-18
215	0x230c0f17	7.592611e-18
216	0x2531fa7c	1.543717e-16
217	0x25918f5f	2.5250642e-16
218	0x279ffda1	4.440635e-15
219	0x279fb69d	4.4329355e-15
220	0x26e662ff	1.5986289e-15
221	0x26be926a	1.3223584e-15
222	0x15bc345f	7.601522e-26
223	0x1a7f3413	5.277483e-23
224	0x1c5eb606	7.36889e-22
225	0x1c5eb606	7.36889e-22
226	0x1ba05a05	2.6527953e-22
227	0x1b9ea43c	2.6245041e-22
228	0x1d98182b	4.0259054e-21
229	0x20beef72	3.2345704e-19
230	0x22c53f5d	5.3464045e-18
231	0x22c53f5d	5.3464045e-18
232	0x220e04b9	1.9247089e-18
233	0x21e84fc8	1.5742049e-18
234	0x31cd2f47	5.97166e-09
235	0x3189e1c4	4.0128914e-09
236	0x332a112b	3.9596824e-08
237	0x332a112b	3.9596824e-08
238	0x3274e59c	1.4254876e-08
239	0x32606081	1.30604585e-08
240	0x2d5fac17	1.2714294e-11
241	0x2ba262bc	1.1538197e-12
242	0x2f82a574	2.3764424e-10
243	0x2f82a574	2.3764424e-10
244	0x2ebc2186	8.555205e-11
245	0x2e992b20	6.965295e-11
246	0x1f49d32c	4.2738083e-20
247	0x208fdd11	2.4371432e-19
248	0x22ab33ad	4.6404357e-18
249	0x22ab33ad	4.6404357e-18
250	0x21f68799	1.6705501e-18
251	0x21f3577d	1.6489478e-18
252	0x2a886f49	2.4235673e-13
253	0x2a2cd061	1.5348965e-13
254	0x2c4cf123	2.9124001e-12
255	0x2c57947a	3.0635759e-12
