models/paddle_dqn_model_checkpoint_10000.pth (torch, 52785 bytes, 24 tensors)

network.0.weight f4 [64, 6]
00000000: ec9b c7bf 266f 96bf 62f6 edbe e92e 92be
00000010: e9a7 8abe b838 9d3d 81f8 7f3e f6be a93c
00000020: a302 893c 68e2 183e 0fa0 d8bd eb72 2cbe
00000030: 1056 333e d2c1 113e d4f6 79be 6069 e5bb
00000040: 46ab 003e 7294 88be 6058 2abf dc5a e1bd
00000050: 513c 573e 6cfa de3d 2436 64be 941b 833d
00000060: 57b4 ffbe 88ec 20c0 fd37 173e 3f90 45bf
00000070: 64fb 5f3e a6ad 983e a04e a7be 900e adbe
00000080: f8d3 193d 2d25 a63d b6b4 22be ca33 c0bd
00000090: c403 b7bd e26c eabe 3ba3 bebd 24d9 21be
000000a0: 0f7e 953a 7620 42be 8c0b 1ebf d80b 4ebf
000000b0: 571a 923c bdf1 0b3e d6a6 dfbe 44ff 39be
000000c0: f8bd b5be 2588 1d3d 12ef b1bd 588a 093d
000000d0: e907 523e 8578 61be 2871 51bf ee41 5bbf
000000e0: b3f9 cfbd ca42 22bd 4650 d0bd 4dc0 b0bd
000000f0: 0256 e73d 7d77 d9be 9b28 543e d00b 51be
00000100: 7b52 f0bc 0257 ebbe 8231 8abb e62c f03d
00000110: 160d 29bd c965 903d 7f8f 8d3d ad72 fd3d
00000120: ddcb ebbe a42d 00bd 3f71 dcbd 806b 2dbd
00000130: 4886 8b3d 2024 8abe 16e8 fdbc 8f9d c6be
00000140: 9486 f93d 2647 f23d 8415 543d cd30 efbe
00000150: be04 83c0 0c9b c63f a568 0fbf b8b8 b23e
00000160: 4213 e5be d8db 683e e910 84c0 daf4 943f
00000170: 92f0 afbe 6616 4ebd e32e adbe a942 1dbd
00000180: d198 cd3d 3167 00bd 4c7d d23d 5519 673d
00000190: 0989 5abe 7455 033e 1ddf 843c 5a5c c9be
000001a0: 0fd6 81bc fe8c 8b3e 3ce8 36be 6ece 76be
000001b0: c03d 71c0 7f81 0440 0170 2ebe 272c 5b3e
000001c0: 97d0 a1bd fee6 00bd 9b05 93bf bd90 b03d
000001d0: a044 77bd be98 bf3d cd3d 193e 2a08 2e3d
000001e0: 63ee e7be a788 fcbe d843 44be 3eb6 583e
000001f0: c0b4 b43d 0387 10bf e810 9cbe 25ef c93e
00000200: feab b03d 3a38 c33c 5a5a 4dbe 2d9e d0be
00000210: cced 01bf 786d 2dbe 4feb b13d 2f82 cbbd
00000220: f32b ab3d 4fe3 24bf 1a1a cebe b0bb ab3e
00000230: 6cdc db3d 4cbb 963d d1ad 19be 97d8 6abe
00000240: 318e 98be 5acf 983d 3d30 2c3e 0353 d7bd
00000250: 7f07 ce3d 34ba f5be 5113 91c0 a19a 0340
00000260: e526 a23c da94 34bf 8199 1a3d 9d6d 813e
00000270: f883 09bf 1539 95bd a615 12be 76bf 9a3d
00000280: bb17 333d dd6b fdbe 0cbe 123e 8d9a 53bd
00000290: 00d2 f83d 5d4d 733d 43be c8bd 2b2b 00bf
000002a0: cce6 7f3c 062b 39bd 61cf eebd 0529 d23d
000002b0: 41d5 953e 2086 1bba fd5d 85bd 17d5 eabd
000002c0: 1938 57bd a024 c03d db0a b2bd b0b7 d0be
000002d0: 9fad c0c0 0048 1440 68e1 f9be fbcb 9bbd
000002e0: 80ae 84be 1554 973e a3c3 24be 8ed4 ecbe
000002f0: c0b1 193d a08e 6ebd 6c14 8f3e ac0c 8cbe
00000300: c06e 9f3e 50ae fdbe a161 d3bd 0737 d1bd
00000310: 64d7 743e b562 a5be fd9b 88bd 7127 af3d
00000320: cd5a 843e 9c8b 283d 324e 7dbe acc6 32be
00000330: 2af0 adbe 64fb 4bbe 3bfe 0b3e 3666 9c3d
00000340: 1739 043e 414c 02bf 49ee 503d ee25 0abd
00000350: 7697 583e 51c8 963c baba a9be 99f6 4dbc
00000360: d49b 17bf 2707 08bf 3927 cdbc f1bd 523e
00000370: 848f c43d b82c 02be c3ec b2be 4ec2 3e3d
00000380: 27d5 afbe f21d 4fbc 1072 893e 80c0 30be
00000390: cea4 3fbd 8888 8cbd d2ab 703e 64cb 103e
000003a0: 577d 90be 415a 5dbe 9403 823e dd66 09bf
000003b0: 977d 383e 4790 113e 351b 83be b52f 8ebe
000003c0: 5df5 023e 951d 0abf 3bfb 3abe 94b5 54bd
000003d0: 1c10 893e f689 963c e907 dabe e984 fbbe
000003e0: bb7d d9bd b2a7 d23c dbee 823e b54a bfbe
000003f0: f9e4 2cbf 6f73 60bf 4404 593d da73 01be
-1.5594459 -1.175267 -0.46477038 -0.28551415 -0.2708123 0.07676834 0.2499714 0.02072094
0.01672489 0.14930117 -0.10577404 -0.16840713 0.17513299 0.14234093 -0.24410564 -0.007001087
0.12565336 -0.26675755 -0.665411 -0.11003658 0.21019103 0.10887608 -0.22286278 0.064017445
-0.49942276 -2.5144367 0.14767452 -0.7717323 0.21873242 0.29819983 -0.32677174 -0.33800173
0.037555665 0.081125595 -0.15889248 -0.09384878 -0.08936265 -0.45786196 -0.093084775 -0.15805489
0.0011405366 -0.18957695 -0.6173637 -0.8048682 0.017834825 0.13666435 -0.43681973 -0.18163782
-0.35496497 0.038459916 -0.08688177 0.0335792 0.2051083 -0.22018631 -0.8181329 -0.85647476
-0.10155048 -0.039614476 -0.10171561 -0.086304285 0.112957016 -0.42473975 0.20718615 -0.20414662
-0.029336205 -0.4596482 -0.0042173276 0.11727314 -0.041272245 0.07050664 0.06912135 0.12375388
-0.46053973 -0.031293526 -0.107637875 -0.042338848 0.068127215 -0.26980686 -0.030994456 -0.38792083
0.12183872 0.11829977 0.05177833 -0.4671692 -4.094329 1.5516067 -0.5601905 0.34906554
-0.44741255 0.22740114 -4.127064 1.1637223 -0.34363228 -0.05031433 -0.33824834 -0.03839365
0.10038913 -0.03134841 0.10277805 0.056420643 -0.21341337 0.12825567 0.01621967 -0.3932827
-0.015849141 0.27256006 -0.17862028 -0.24102184 -3.769394 2.0704038 -0.17034914 0.21403562
-0.079011135 -0.03147029 -1.1486086 0.08621357 -0.06036818 0.09355305 0.14964981 0.042488255
-0.45299062 -0.49323007 -0.19166505 0.2116327 0.08823538 -0.5645601 -0.30481648 0.39440265
0.08626555 0.023830522 -0.20053998 -0.4074568 -0.50753474 -0.1693629 0.0868746 -0.0993694
0.08357992 -0.64409345 -0.4025429 0.33541632 0.107354015 0.07359943 -0.15007712 -0.22934185
-0.29795983 0.07461424 0.16815276 -0.1051388 0.100600235 -0.47993624 -4.533608 2.0563128
0.019793937 -0.7053963 0.03774405 0.2527894 -0.53716993 -0.07286278 -0.1426607 0.075560495
0.043723803 -0.49496356 0.1433031 -0.051661063 0.12149429 0.05939995 -0.098019145 -0.5006587
0.015618991 -0.045207046 -0.11660648 0.1026173 0.29264262 -0.0005932767 -0.065120675 -0.11466425
-0.052543733 0.09381986 -0.08693477 -0.40765142 -6.021194 2.3168945 -0.48804784 -0.076072656
-0.25914383 0.29556337 -0.16090254 -0.46255916 0.03752303 -0.058241487 0.27945268 -0.27353418
0.31139183 -0.49547052 -0.103213556 -0.10215574 0.2391029 -0.3230187 -0.066703774 0.08552445
0.25850525 0.041148767 -0.2473686 -0.174586 -0.33972293 -0.19920117 0.136712 0.07636683
0.12912403 -0.50897604 0.051008496 -0.03372758 0.21151528 0.018406065 -0.33150274 -0.0125710005
-0.5922215 -0.53135914 -0.025043117 0.2058027 0.09597686 -0.12712371 -0.3494626 0.046572022
-0.3434231 -0.012641417 0.26844835 -0.17260933 -0.04678803 -0.06861979 0.23503044 0.14140087
-0.28220627 -0.2161646 0.25393355 -0.5367258 0.18016659 0.14215194 -0.25606695 -0.27770773
0.12788911 -0.5395139 -0.182599 -0.05193098 0.26770103 0.018376332 -0.4258416 -0.4912484
-0.10619684 0.025714729 0.25572857 -0.37361684 -0.67536885 -0.8767614 0.052982584 -0.1264185

network.0.bias f4 [64]
00000000: d932 a53c 3923 1abf 429a c3be a0bc f4be
00000010: efde fc3e 6a76 d6bd 29a9 93be 6ff9 7dbe
00000020: b3c5 103d 5dba 43bf f361 f6be eed0 02bf
00000030: c802 b1bd 3e3c f8bd 702f 973e 25e3 ef3e
00000040: 7e5a dbbe f0f5 f0be 20e0 123d 3128 a0be
00000050: 8f04 3a3d ccdb 39be 88bd cebe 7712 8ebe
00000060: 7529 b3be f13d c73c fd3e 413e 352c 4dbe
00000070: b55e 27bf af9c 70be d1fd 1d3e 3706 94be
00000080: 3adc 20be e30e e9be d3ca 43be c5d6 a4be
00000090: 153b b1be 3eb6 c3be 75a3 afbe 3ab1 12be
000000a0: d7d7 52be d408 bcbd cdcf 0fbf 1404 34bf
000000b0: ff90 75be e641 303c a6f6 39bf 64ff 163f
000000c0: 5e76 9cbe ef1c 25bf 9592 71bd 4c13 fd3c
000000d0: 0948 cebe 28b2 99bc 316c 0fbe ae4f cebe
000000e0: fe72 cbbd 960d d6be 24e4 41be 1cec e4bd
000000f0: 2324 e4be 9fa4 f3bd ccb3 58bf aa44 03bf
0.020165848 -0.60209996 -0.38203627 -0.4780016 0.49388835 -0.104718044 -0.28839996 -0.24802183
0.03534479 -0.7645624 -0.48121604 -0.5110005 -0.086431086 -0.12120865 0.2952838 0.46852985
-0.42842478 -0.47062635 0.035858274 -0.31280664 0.045414504 -0.18150252 -0.40378976 -0.27748463
-0.34992567 0.024321528 0.18871684 -0.20036395 -0.65378886 -0.2349727 0.15428855 -0.28910992
-0.1570901 -0.4551917 -0.1912034 -0.32195106 -0.3461539 -0.38224977 -0.34304395 -0.14325419
-0.20590149 -0.09181371 -0.56176454 -0.7031872 -0.23981093 0.010757899 -0.7264198 0.58983445
-0.30559057 -0.64497274 -0.058977682 0.03089299 -0.40289333 -0.01876171 -0.14006115 -0.40295166
-0.099340424 -0.4180724 -0.18934685 -0.11177847 -0.4455882 -0.11896633 -0.8464935 -0.5127665

network.2.weight f4 [32, 64]
00000000: 03ac 66be 9322 993b 92f5 96bd 078e b9bd
00000010: 0da9 fbbd 4215 6d3d 5465 07be 3402 e7bd
00000020: d4bb 623d 086b 6bbd d456 94bc 94d0 8b3d
00000030: 25ce 21bd 53a5 0e3d 2890 34be 4fd2 8abe
00000040: 1787 5b3b 0418 343d db30 bdbe aa2c 3c3c
00000050: 5f3d 4b3e 6ccc b5bd 6f05 18be f098 1c3c
00000060: 385d b23d 7cea 8a3d 3fba 863e b8bb 963c
00000070: c0bd 33bd d0d7 b6bc dbd1 86be 3474 1a3d
00000080: 1410 bbbd 44ff 17bd d325 1fbd 3800 fc3c
00000090: a8cb 0fbd 30a5 5b3c 4045 553d a3fb 2abe
000000a0: 95c2 3abe e68b bb3d 566f 25be 7c17 74bd
000000b0: 4273 cabd 9498 29be 936a 0c3e 0a44 58bd
000000c0: a8b9 92bd 31c5 8cbc adb0 b3be b4a1 c039
000000d0: 880a 813c b46d 77bd 1c49 f7bd aebc 82bd
000000e0: 90ec f63c ac07 013d 8096 6b3b e0e3 5fbd
000000f0: 9fbc c8bd 2c78 ddbd 1b7a 73bd ef1e 53be
00000100: 8307 8dbd 4b3f f6bd b087 a43d f0f8 1abe
00000110: 81ec 34be a663 05be 9772 e63d 1953 98bd
00000120: 544f 38bd 38ce d93c addf 363d 2b69 c43c
00000130: 28e4 98bd e0cc c9bd 22b3 c1be 86c2 463d
00000140: a50d 2fbe 633b 65bd 97c4 043d 41ad f83c
00000150: dd7b 22be 00b9 72ba 3aa4 85bc 9023 873d
00000160: 4ffc 313d 9dff b7bd a4bd 6d3d ca7d 003d
00000170: 0e1d a5bd bde0 96bc 4d3a c7bd 8a06 bcbd
00000180: 3329 2abe ae54 bb3d b21b 103d 4226 fcbd
00000190: 1ff8 633d 289c f2bd d43e b2bd 7d72 03bd
000001a0: 9767 fdbd 0e94 a0bd 3aa0 0ebe 62d4 97bd
000001b0: 7d46 4fbd ca51 33be dc51 81bc afeb b0bc
000001c0: 90bf 073d b9f5 7a3d 60b4 8ebe 4ff8 b83c
000001d0: 2612 f13d 4af5 25be 1a63 f6bd b47a 073d
000001e0: 72e3 2f3d c5cc 2c3e 73f4 c03c e5ec d4bd
000001f0: d781 2fbe eb4b a3bb 0c63 503d 9b5e abbd
00000200: 3059 cdbd d2df 80bd 101d 6dbd 82dc e33d
00000210: 9636 89bd a7ba ebbd 48a3 56be 2090 b6bb
00000220: 4420 be3d 50c9 033c dc88 a7bd 6b3c fdbd
00000230: 522b e4bd 184a bf3d 9bc5 4bbe 7c8d 82be
00000240: d445 f53d f17d 31bb c850 b03c 440d 35bd
00000250: 4a46 3dbd c0d9 0dbd 7a36 bdbd 7217 93bd
00000260: 7e9e 0ebe 4684 cebd a45f 333d 8a7c 06be
00000270: 40ab 75bb 2831 6abc 9ef5 bb3d aa0a 8abd
00000280: 70ea 8abc 709d 53bc 40fc 23bc 200f 483c
00000290: 00ff 703c 74f8 21bd 18a3 f6bd 0017 25bc
000002a0: 94c1 73be fea2 083d 54be 5cbe 4ace 553d
000002b0: a77d 87bd 06ea a1bd 9ae9 b3bd 4ea3 c4bd
000002c0: fcbe 09bd 3768 11bc 6076 873c af70 ddbd
000002d0: 0059 cbbd 0cf3 563d 48e4 cfbd 78f2 e03c
000002e0: 5884 4bbe 6ad5 aabd 185f ea3d 2e1c 0dbd
000002f0: a4b3 59bd 044e 1ebd dc4f 5dbd cd26 853c
00000300: 5fa4 a8bd 27f5 353c c46b 49bd ed9f 62bd
00000310: 5022 40bd c626 22be fefe bfbd 38cd bfbc
00000320: 78fd fdbc 23e0 07bd 22c6 633d d842 cfbc
00000330: b866 43bd c0d7 edbd 90cf 01be b720 08be
00000340: 4dbc d8bd 248e 1b3d 8893 6bbe 0aed c93c
00000350: 941b 10bd f8f4 1d3d bd0d a8bc 2ce3 53bd
00000360: d2b2 f1bd 66ff a4be fafc b6bd 38cb e03d
00000370: 8a29 efbd 9c2c fdbd e68b 5b3d 3081 55bd
00000380: 3606 1cbe 0022 6bbd 3baf 90bc 4021 cfbb
00000390: eca6 483c 0804 2cbd 2a95 bebd 9204 09be
000003a0: f03b 28be d483 3f3d 9d28 20be a49e ad3d
000003b0: 19dd 05be b97f 363c cb41 88bd fa2f 70be
000003c0: 3484 b5bd 3c81 81be 333f 403d b4a1 613b
000003d0: 8897 d9bc 9e91 74be b028 76bd b876 013d
000003e0: 26d8 ef3d 4c2f 3bbd 9a3d dfbd 029a 953a
000003f0: 43f8 bebd 0b08 2abd 76b5 0b3c 71bd 67be
-0.22526555 0.004673311 -0.073710576 -0.09060293 -0.12288103 0.0578816 -0.13222247 -0.11279717
0.055354908 -0.05747512 -0.01810781 0.068268925 -0.039503235 0.034825634 -0.17633116 -0.27113578
0.0033497268 0.043968216 -0.36951336 0.011485258 0.1984763 -0.08876881 -0.14845823 0.0095579475
0.08709186 0.067830056 0.2631397 0.018400058 -0.04388213 -0.022319704 -0.26331982 0.037708476
-0.09133926 -0.037108675 -0.03885443 0.030761823 -0.03510633 0.013406083 0.052067995 -0.16697554
-0.1823829 0.09157543 -0.16155753 -0.05959271 -0.09885265 -0.1656211 0.1371253 -0.052799262
-0.07164317 -0.017183872 -0.3509573 0.00036741572 0.015752092 -0.060407355 -0.120744914 -0.06383644
0.030142099 0.031501457 0.003594786 -0.054660678 -0.098016016 -0.108139366 -0.05944262 -0.20617269
-0.06886198 -0.12023791 0.08033693 -0.15134025 -0.17668344 -0.13026294 0.11252325 -0.074377246
-0.04499753 0.02658759 0.044646908 0.02397593 -0.07465392 -0.0985353 -0.3783198 0.048525356
-0.17095049 -0.05596484 0.032414045 0.030356051 -0.15867563 -0.00092591345 -0.01631366 0.0659858
0.04345351 -0.08984301 0.058042184 0.03136996 -0.08062182 -0.01841771 -0.09727917 -0.09180935
-0.16617279 0.09147011 0.035182662 -0.123119846 0.05565655 -0.11846191 -0.0870339 -0.032091606
-0.12373274 -0.07840739 -0.13928309 -0.07413556 -0.050604332 -0.17511669 -0.015786104 -0.021596758
0.033141673 0.061269496 -0.2787199 0.02257934 0.1177104 -0.16206852 -0.12030621 0.033076003
0.042941518 0.16874988 0.023554062 -0.103967465 -0.17139374 -0.0049834154 0.05087571 -0.08367654
-0.10026777 -0.0629269 -0.057889044 0.11126043 -0.066998646 -0.115102105 -0.20960724 -0.0055713803
0.09283498 0.008043602 -0.08180401 -0.123650394 -0.11141075 0.09340304 -0.19899599 -0.2549857
0.11976209 -0.0027083124 0.021522895 -0.044202104 -0.04620961 -0.03463149 -0.09238906 -0.07182206
-0.13927647 -0.10083823 0.043792382 -0.13133445 -0.0037486106 -0.014293946 0.09177707 -0.06740315
-0.016957492 -0.012915954 -0.010008872 0.012210637 0.014709234 -0.039543584 -0.120428264 -0.010076284
-0.23804313 0.033358566 -0.2155698 0.052198686 -0.06615763 -0.079059646 -0.0878479 -0.096014604
-0.033629403 -0.008874944 0.016535938 -0.10812508 -0.09929085 0.05247788 -0.10150963 0.027459368
-0.19874704 -0.08341487 0.11443919 -0.034450702 -0.053149834 -0.03864862 -0.054031238 0.016253853
-0.08234476 0.011105812 -0.04917504 -0.0553283 -0.046907723 -0.15835103 -0.09374808 -0.023413286
-0.031004652 -0.033172738 0.055608876 -0.025300428 -0.047705382 -0.11613417 -0.12676835 -0.1329373
-0.105827905 0.037977353 -0.23005497 0.024649162 -0.03518255 0.0385637 -0.020514363 -0.05173032
-0.118016854 -0.32226104 -0.0893497 0.10976261 -0.11677845 -0.12362024 0.053600214 -0.052125156
-0.15236744 -0.05740547 -0.017661681 -0.0063211024 0.0122468285 -0.041996032 -0.093057945 -0.1338065
-0.16429114 0.04675658 -0.15640493 0.08477524 -0.13072623 0.01113885 -0.06653174 -0.23455802
-0.08863106 -0.2529391 0.04693527 0.0034428658 -0.026561514 -0.23883674 -0.060097396 0.03160736
0.11711149 -0.045699403 -0.109004214 0.0011413696 -0.09324696 -0.041511577 0.00852715 -0.2263086

network.2.bias f4 [32]
00000000: 210a 95be 2d17 88be 3e65 4ebe 6a42 e9bd
00000010: 80db 1abd 5fb0 e0be 5ddf e2bd 05aa aebd
00000020: 0a35 7dbe e23a 30be 9438 883f 0655 0bbe
00000030: 1d8f 28be d6a9 0cbe 34a8 95bd 2cb7 98bd
00000040: 684e 01be 9833 d9bd d880 6dbe 2e27 83bd
00000050: c387 eabc bc66 893f 19cc 1abe 6d3c 283f
00000060: dd9c a2be c182 ecbe ec8b f6bd aac6 f7bd
00000070: 54e4 3ebe 532b 8abd 325c 24be 4b0f 9cbe
-0.2910929 -0.26580182 -0.20155808 -0.113896206 -0.037806988 -0.4388456 -0.110777594 -0.085285224
-0.24727264 -0.17209962 1.0642266 -0.13606653 -0.16460843 -0.13736662 -0.07307473 -0.07456812
-0.12627566 -0.10605544 -0.23193681 -0.06403957 -0.02862919 1.0734477 -0.1511692 0.657172
-0.31760302 -0.46193507 -0.12038407 -0.12098439 -0.18641788 -0.06746545 -0.16050795 -0.30480418

network.4.weight f4 [3, 32]
00000000: b403 173e e40c 00bb f3be 433d fda7 e9bc
00000010: e132 a33c fdde 19be 7c2d 583b e660 53bd
00000020: a2da ff3d 996d 54be 3be0 1940 016c 7cbd
00000030: 88d7 cfbd 2b5f 11be 6229 c43c dd69 553d
00000040: 28fa e43c 3f79 c23d b905 1abe fae6 77bd
00000050: a98b d73c c951 e53f f765 8c3d e7dc cd3f
00000060: a003 0abe 2520 393e 99ad ef3b 5447 ef3c
00000070: bd8a eabc 2342 c43d f91a 4c3e 37e7 e1bb
00000080: bbcb f3bb 7587 66bc 8e94 bcbc 2d83 5bbc
00000090: 5e24 edbc 4d7b e83e 4750 aabd 8652 463e
000000a0: 8a89 83be c3ce 6fbc 289a 2740 ca79 da3d
000000b0: 377b 5d3c 8ea9 1a3d 5f61 21be a7e4 ad3d
000000c0: bf02 3c3d 917a ab3d 10c4 3e3d 029b d53c
000000d0: 2749 b63d c955 f13f 191d f9bc e326 ca3f
000000e0: fd8c 53bc 20ef 393c cfaa d7bd b78a d23c
000000f0: ba06 8abb bc9f 26bc 3806 85bd e0b8 14bd
00000100: e7ef 3b3e b144 0a3d 0e2f ef3d cb3a af3d
00000110: c67b 4e3d 65f6 f93e d7df 383d e00e 613c
00000120: 35c1 9a3e a7f8 9d3d 7e44 2b40 7d28 ebbc
00000130: ed8a fa3d 4fa3 a83d 3eae f8bd 4727 e0bc
00000140: 5263 8cbd ad98 4abe 2ad3 98be 1813 8d3d
00000150: 6d03 0cbc ef7d ec3f b5da 29be fcea ae3f
00000160: 888d 393e f189 313e feca a73d 3585 55bd
00000170: 8585 44bd f1ba f83c e34b cc3d 3b27 adbc
0.14747506 -0.0019538933 0.047789525 -0.028522486 0.019921722 -0.1502647 0.0032986095 -0.05160608
0.12492873 -0.20744933 2.404311 -0.061626438 -0.10148531 -0.1419646 0.023945514 0.052102912
0.027951315 0.09495782 -0.15041246 -0.06052301 0.026311712 1.7915584 0.06855386 1.6083039
-0.13477945 0.18078668 0.0073143956 0.029208817 -0.028630609 0.09582927 0.19932164 -0.006894018
-0.007440058 -0.014070381 -0.023020055 -0.013397974 -0.028948005 0.4540657 -0.08316093 0.19367418
-0.2569087 -0.014636698 2.618784 0.10667761 0.013518146 0.037759356 -0.157598 0.084908776
0.045901056 0.08372987 0.0465737 0.02607489 0.089006715 1.8854305 -0.030409383 1.5793117
-0.012912032 0.011348516 -0.10530626 0.02570091 -0.0042122276 -0.01016992 -0.06495327 -0.036309123
0.18353234 0.033756915 0.11678897 0.08556136 0.05041101 0.48820797 0.045135345 0.013736457
0.3022553 0.07713442 2.6760554 -0.02870583 0.12233529 0.08234274 -0.12142609 -0.027362479
-0.06854881 -0.19784804 -0.29848605 0.068884075 -0.008545739 1.8475932 -0.16587336 1.3665462
0.18120396 0.17337777 0.081930146 -0.05212899 -0.047978897 0.030362578 0.09975412 -0.02113687

network.4.bias f4 [3]
00000000: bded d33f 9072 cd3f 5439 db3f
1.6556927 1.6050587 1.712687

network.0.weight f4 [64, 6]
00000000: 8410 bfbf 2eaa 95bf f211 fabe 3249 9ebe
00000010: 77c3 96be e0d9 d33d 81f8 7f3e f6be a93c
00000020: a302 893c 68e2 183e 0fa0 d8bd eb72 2cbe
00000030: 1056 333e d2c1 113e d4f6 79be 6069 e5bb
00000040: 46ab 003e 7294 88be 6058 2abf dc5a e1bd
00000050: 513c 573e 6cfa de3d 2436 64be 941b 833d
00000060: d12d ffbe 89ff 1ec0 ee68 fe3d 3325 4cbf
00000070: ddf7 473e 23e0 953e a04e a7be 900e adbe
00000080: f8d3 193d 2d25 a63d b6b4 22be ca33 c0bd
00000090: c403 b7bd e26c eabe 3ba3 bebd 24d9 21be
000000a0: 0f7e 953a 7620 42be 8c0b 1ebf d80b 4ebf
000000b0: 571a 923c bdf1 0b3e d6a6 dfbe 44ff 39be
000000c0: f8bd b5be 2588 1d3d 12ef b1bd 588a 093d
000000d0: e907 523e 8578 61be 2871 51bf ee41 5bbf
000000e0: b3f9 cfbd ca42 22bd 4650 d0bd 4dc0 b0bd
000000f0: 0256 e73d 7d77 d9be 9b28 543e d00b 51be
00000100: 7b52 f0bc 0257 ebbe 8231 8abb e62c f03d
00000110: 160d 29bd c965 903d 7f8f 8d3d ad72 fd3d
00000120: ddcb ebbe a42d 00bd 3f71 dcbd 806b 2dbd
00000130: 4886 8b3d 2024 8abe 16e8 fdbc 8f9d c6be
00000140: 9486 f93d 2647 f23d 8415 543d cd30 efbe
00000150: 3553 82c0 1bb7 c83f 8499 12bf 6c4f b33e
00000160: ff74 ebbe 5172 743e 14c4 82c0 eb38 993f
00000170: 5594 bdbe ef11 86bd a9d2 babe 19a3 a9bc
00000180: d198 cd3d 3167 00bd 4c7d d23d 5519 673d
00000190: 0989 5abe 7455 033e 1ddf 843c 5a5c c9be
000001a0: 0fd6 81bc fe8c 8b3e 3ce8 36be 6ece 76be
000001b0: 4d7a 71c0 691f 0440 a7c6 2fbe 74d3 593e
000001c0: dc7d a4bd afec 0abd 9b05 93bf bd90 b03d
000001d0: a044 77bd be98 bf3d cd3d 193e 2a08 2e3d
000001e0: 63ee e7be a788 fcbe d843 44be 3eb6 583e
000001f0: c0b4 b43d 0387 10bf e810 9cbe 25ef c93e
00000200: feab b03d 3a38 c33c 5a5a 4dbe 2d9e d0be
00000210: cced 01bf 786d 2dbe 4feb b13d 2f82 cbbd
00000220: f32b ab3d 4fe3 24bf 1a1a cebe b0bb ab3e
00000230: 6cdc db3d 4cbb 963d d1ad 19be 97d8 6abe
00000240: 318e 98be 5acf 983d 3d30 2c3e 0353 d7bd
00000250: 7f07 ce3d 34ba f5be 4c3b 90c0 7fc1 0440
00000260: de5b c638 55bc 37bf 88d2 933c 06ea 843e
00000270: f883 09bf 1539 95bd a615 12be 76bf 9a3d
00000280: bb17 333d dd6b fdbe 0cbe 123e 8d9a 53bd
00000290: 00d2 f83d 5d4d 733d 43be c8bd 2b2b 00bf
000002a0: cce6 7f3c 062b 39bd 61cf eebd 0529 d23d
000002b0: 41d5 953e 2086 1bba fd5d 85bd 17d5 eabd
000002c0: 1938 57bd a024 c03d db0a b2bd b0b7 d0be
000002d0: f8e5 bfc0 9a32 1640 47f4 fbbe 1919 a4bd
000002e0: 5fc1 86be a2bd 983e a3c3 24be 8ed4 ecbe
000002f0: c0b1 193d a08e 6ebd 6c14 8f3e ac0c 8cbe
00000300: c06e 9f3e 50ae fdbe a161 d3bd 0737 d1bd
00000310: 64d7 743e b562 a5be fd9b 88bd 7127 af3d
00000320: cd5a 843e 9c8b 283d 324e 7dbe acc6 32be
00000330: 2af0 adbe 64fb 4bbe 3bfe 0b3e 3666 9c3d
00000340: 1739 043e 414c 02bf 49ee 503d ee25 0abd
00000350: 7697 583e 51c8 963c baba a9be 99f6 4dbc
00000360: d49b 17bf 2707 08bf 3927 cdbc f1bd 523e
00000370: 848f c43d b82c 02be c3ec b2be 4ec2 3e3d
00000380: 27d5 afbe f21d 4fbc 1072 893e 80c0 30be
00000390: cea4 3fbd 8888 8cbd d2ab 703e 64cb 103e
000003a0: 577d 90be 415a 5dbe 9403 823e dd66 09bf
000003b0: 977d 383e 4790 113e 351b 83be b52f 8ebe
000003c0: 5df5 023e 951d 0abf 3bfb 3abe 94b5 54bd
000003d0: 1c10 893e f689 963c e907 dabe e984 fbbe
000003e0: bb7d d9bd b2a7 d23c dbee 823e b54a bfbe
000003f0: f9e4 2cbf 6f73 60bf 4404 593d da73 01be
-1.4926915 -1.169256 -0.48841816 -0.3091522 -0.29446003 0.10344291 0.2499714 0.02072094
0.01672489 0.14930117 -0.10577404 -0.16840713 0.17513299 0.14234093 -0.24410564 -0.007001087
0.12565336 -0.26675755 -0.665411 -0.11003658 0.21019103 0.10887608 -0.22286278 0.064017445
-0.49839643 -2.4843466 0.124223575 -0.7974426 0.19528146 0.29272565 -0.32677174 -0.33800173
0.037555665 0.081125595 -0.15889248 -0.09384878 -0.08936265 -0.45786196 -0.093084775 -0.15805489
0.0011405366 -0.18957695 -0.6173637 -0.8048682 0.017834825 0.13666435 -0.43681973 -0.18163782
-0.35496497 0.038459916 -0.08688177 0.0335792 0.2051083 -0.22018631 -0.8181329 -0.85647476
-0.10155048 -0.039614476 -0.10171561 -0.086304285 0.112957016 -0.42473975 0.20718615 -0.20414662
-0.029336205 -0.4596482 -0.0042173276 0.11727314 -0.041272245 0.07050664 0.06912135 0.12375388
-0.46053973 -0.031293526 -0.107637875 -0.042338848 0.068127215 -0.26980686 -0.030994456 -0.38792083
0.12183872 0.11829977 0.05177833 -0.4671692 -4.072657 1.5680879 -0.57265496 0.35021532
-0.45987698 0.23871733 -4.0864353 1.1970495 -0.3702723 -0.06546389 -0.36488846 -0.020707654
0.10038913 -0.03134841 0.10277805 0.056420643 -0.21341337 0.12825567 0.01621967 -0.3932827
-0.015849141 0.27256006 -0.17862028 -0.24102184 -3.7730896 2.0644171 -0.17165624 0.21272069
-0.08031818 -0.033917125 -1.1486086 0.08621357 -0.06036818 0.09355305 0.14964981 0.042488255
-0.45299062 -0.49323007 -0.19166505 0.2116327 0.08823538 -0.5645601 -0.30481648 0.39440265
0.08626555 0.023830522 -0.20053998 -0.4074568 -0.50753474 -0.1693629 0.0868746 -0.0993694
0.08357992 -0.64409345 -0.4025429 0.33541632 0.107354015 0.07359943 -0.15007712 -0.22934185
-0.29795983 0.07461424 0.16815276 -0.1051388 0.100600235 -0.47993624 -4.5072384 2.07431
9.458487e-05 -0.71771747 0.018044725 0.25959796 -0.53716993 -0.07286278 -0.1426607 0.075560495
0.043723803 -0.49496356 0.1433031 -0.051661063 0.12149429 0.05939995 -0.098019145 -0.5006587
0.015618991 -0.045207046 -0.11660648 0.1026173 0.29264262 -0.0005932767 -0.065120675 -0.11466425
-0.052543733 0.09381986 -0.08693477 -0.40765142 -5.9968224 2.3468385 -0.49209806 -0.080125995
-0.26319405 0.29832178 -0.16090254 -0.46255916 0.03752303 -0.058241487 0.27945268 -0.27353418
0.31139183 -0.49547052 -0.103213556 -0.10215574 0.2391029 -0.3230187 -0.066703774 0.08552445
0.25850525 0.041148767 -0.2473686 -0.174586 -0.33972293 -0.19920117 0.136712 0.07636683
0.12912403 -0.50897604 0.051008496 -0.03372758 0.21151528 0.018406065 -0.33150274 -0.0125710005
-0.5922215 -0.53135914 -0.025043117 0.2058027 0.09597686 -0.12712371 -0.3494626 0.046572022
-0.3434231 -0.012641417 0.26844835 -0.17260933 -0.04678803 -0.06861979 0.23503044 0.14140087
-0.28220627 -0.2161646 0.25393355 -0.5367258 0.18016659 0.14215194 -0.25606695 -0.27770773
0.12788911 -0.5395139 -0.182599 -0.05193098 0.26770103 0.018376332 -0.4258416 -0.4912484
-0.10619684 0.025714729 0.25572857 -0.37361684 -0.67536885 -0.8767614 0.052982584 -0.1264185

network.0.bias f4 [64]
00000000: cadb 3f3d 3923 1abf 429a c3be a0bc f4be
00000010: 7011 fa3e 6a76 d6bd 29a9 93be 6ff9 7dbe
00000020: b3c5 103d 5dba 43bf f361 f6be eed0 02bf
00000030: c802 b1bd 3e3c f8bd b3fa 9c3e 4df1 f83e
00000040: 7e5a dbbe f0f5 f0be 6dda 083d 3128 a0be
00000050: 8f04 3a3d ccdb 39be 88bd cebe 7712 8ebe
00000060: 7529 b3be 0c04 ff3c fd3e 413e 352c 4dbe
00000070: b55e 27bf af9c 70be e5d0 203e 3706 94be
00000080: 3adc 20be e30e e9be d3ca 43be c5d6 a4be
00000090: 153b b1be 3eb6 c3be 75a3 afbe 3ab1 12be
000000a0: d7d7 52be d408 bcbd cdcf 0fbf 1404 34bf
000000b0: ff90 75be 832a 7b3c a6f6 39bf 47c4 203f
000000c0: 5e76 9cbe ef1c 25bf 25bb 85bd 4c13 fd3c
000000d0: 0948 cebe 28b2 99bc 316c 0fbe ae4f cebe
000000e0: fe72 cbbd 960d d6be 24e4 41be 58d8 84bd
000000f0: 2324 e4be 9fa4 f3bd ccb3 58bf aa44 03bf
0.046840467 -0.60209996 -0.38203627 -0.4780016 0.4884143 -0.104718044 -0.28839996 -0.24802183
0.03534479 -0.7645624 -0.48121604 -0.5110005 -0.086431086 -0.12120865 0.30660018 0.48621598
-0.42842478 -0.47062635 0.033411432 -0.31280664 0.045414504 -0.18150252 -0.40378976 -0.27748463
-0.34992567 0.03112986 0.18871684 -0.20036395 -0.65378886 -0.2349727 0.15704687 -0.28910992
-0.1570901 -0.4551917 -0.1912034 -0.32195106 -0.3461539 -0.38224977 -0.34304395 -0.14325419
-0.20590149 -0.09181371 -0.56176454 -0.7031872 -0.23981093 0.01532996 -0.7264198 0.62799495
-0.30559057 -0.64497274 -0.065298356 0.03089299 -0.40289333 -0.01876171 -0.14006115 -0.40295166
-0.099340424 -0.4180724 -0.18934685 -0.06486577 -0.4455882 -0.11896633 -0.8464935 -0.5127665

network.2.weight f4 [32, 64]
00000000: 03ac 66be 9322 993b 92f5 96bd 078e b9bd
00000010: 0da9 fbbd 4215 6d3d 5465 07be 3402 e7bd
00000020: d4bb 623d 086b 6bbd d456 94bc 94d0 8b3d
00000030: 25ce 21bd 53a5 0e3d 2890 34be 4fd2 8abe
00000040: 1787 5b3b 0418 343d db30 bdbe aa2c 3c3c
00000050: 5f3d 4b3e 6ccc b5bd 6f05 18be f098 1c3c
00000060: 385d b23d 7cea 8a3d 3fba 863e b8bb 963c
00000070: c0bd 33bd d0d7 b6bc dbd1 86be 3474 1a3d
00000080: 1410 bbbd 44ff 17bd d325 1fbd 3800 fc3c
00000090: a8cb 0fbd 30a5 5b3c 4045 553d a3fb 2abe
000000a0: 95c2 3abe e68b bb3d 566f 25be 7c17 74bd
000000b0: 4273 cabd 9498 29be 936a 0c3e 0a44 58bd
000000c0: a8b9 92bd 31c5 8cbc adb0 b3be b4a1 c039
000000d0: 880a 813c b46d 77bd 1c49 f7bd aebc 82bd
000000e0: 90ec f63c ac07 013d 8096 6b3b e0e3 5fbd
000000f0: 9fbc c8bd 2c78 ddbd 1b7a 73bd ef1e 53be
00000100: 8307 8dbd 4b3f f6bd b087 a43d f0f8 1abe
00000110: 81ec 34be a663 05be 9772 e63d 1953 98bd
00000120: 544f 38bd 38ce d93c addf 363d 2b69 c43c
00000130: 28e4 98bd e0cc c9bd 22b3 c1be 86c2 463d
00000140: a50d 2fbe 633b 65bd 97c4 043d 41ad f83c
00000150: dd7b 22be 00b9 72ba 3aa4 85bc 9023 873d
00000160: 4ffc 313d 9dff b7bd a4bd 6d3d ca7d 003d
00000170: 0e1d a5bd bde0 96bc 4d3a c7bd 8a06 bcbd
00000180: 3329 2abe ae54 bb3d b21b 103d 4226 fcbd
00000190: 1ff8 633d 289c f2bd d43e b2bd 7d72 03bd
000001a0: 9767 fdbd 0e94 a0bd 3aa0 0ebe 62d4 97bd
000001b0: 7d46 4fbd ca51 33be dc51 81bc afeb b0bc
000001c0: 90bf 073d b9f5 7a3d 60b4 8ebe 4ff8 b83c
000001d0: 2612 f13d 4af5 25be 1a63 f6bd b47a 073d
000001e0: 72e3 2f3d c5cc 2c3e 73f4 c03c e5ec d4bd
000001f0: d781 2fbe eb4b a3bb 0c63 503d 9b5e abbd
00000200: 3059 cdbd d2df 80bd 101d 6dbd 82dc e33d
00000210: 9636 89bd a7ba ebbd 48a3 56be 2090 b6bb
00000220: 4420 be3d 50c9 033c dc88 a7bd 6b3c fdbd
00000230: 522b e4bd 184a bf3d 9bc5 4bbe 7c8d 82be
00000240: d445 f53d f17d 31bb c850 b03c 440d 35bd
00000250: 4a46 3dbd c0d9 0dbd 7a36 bdbd 7217 93bd
00000260: 7e9e 0ebe 4684 cebd a45f 333d 8a7c 06be
00000270: 40ab 75bb 2831 6abc 9ef5 bb3d aa0a 8abd
00000280: 70ea 8abc 709d 53bc 40fc 23bc 200f 483c
00000290: 00ff 703c 74f8 21bd 18a3 f6bd 0017 25bc
000002a0: 94c1 73be fea2 083d 54be 5cbe 4ace 553d
000002b0: a77d 87bd 06ea a1bd 9ae9 b3bd 4ea3 c4bd
000002c0: fcbe 09bd 3768 11bc 6076 873c af70 ddbd
000002d0: 0059 cbbd 0cf3 563d 48e4 cfbd 78f2 e03c
000002e0: 5884 4bbe 6ad5 aabd 185f ea3d 2e1c 0dbd
000002f0: a4b3 59bd 044e 1ebd dc4f 5dbd cd26 853c
00000300: 5fa4 a8bd 27f5 353c c46b 49bd ed9f 62bd
00000310: 5022 40bd c626 22be fefe bfbd 38cd bfbc
00000320: 78fd fdbc 23e0 07bd 22c6 633d d842 cfbc
00000330: b866 43bd c0d7 edbd 90cf 01be b720 08be
00000340: 4dbc d8bd 248e 1b3d 8893 6bbe 0aed c93c
00000350: 941b 10bd f8f4 1d3d bd0d a8bc 2ce3 53bd
00000360: d2b2 f1bd 66ff a4be fafc b6bd 38cb e03d
00000370: 8a29 efbd 9c2c fdbd e68b 5b3d 3081 55bd
00000380: 3606 1cbe 0022 6bbd 3baf 90bc 4021 cfbb
00000390: eca6 483c 0804 2cbd 2a95 bebd 9204 09be
000003a0: f03b 28be d483 3f3d 9d28 20be a49e ad3d
000003b0: 19dd 05be b97f 363c cb41 88bd fa2f 70be
000003c0: 3484 b5bd 3c81 81be 333f 403d b4a1 613b
000003d0: 8897 d9bc 9e91 74be b028 76bd b876 013d
000003e0: 26d8 ef3d 4c2f 3bbd 9a3d dfbd 029a 953a
000003f0: 43f8 bebd 0b08 2abd 76b5 0b3c 71bd 67be
-0.22526555 0.004673311 -0.073710576 -0.09060293 -0.12288103 0.0578816 -0.13222247 -0.11279717
0.055354908 -0.05747512 -0.01810781 0.068268925 -0.039503235 0.034825634 -0.17633116 -0.27113578
0.0033497268 0.043968216 -0.36951336 0.011485258 0.1984763 -0.08876881 -0.14845823 0.0095579475
0.08709186 0.067830056 0.2631397 0.018400058 -0.04388213 -0.022319704 -0.26331982 0.037708476
-0.09133926 -0.037108675 -0.03885443 0.030761823 -0.03510633 0.013406083 0.052067995 -0.16697554
-0.1823829 0.09157543 -0.16155753 -0.05959271 -0.09885265 -0.1656211 0.1371253 -0.052799262
-0.07164317 -0.017183872 -0.3509573 0.00036741572 0.015752092 -0.060407355 -0.120744914 -0.06383644
0.030142099 0.031501457 0.003594786 -0.054660678 -0.098016016 -0.108139366 -0.05944262 -0.20617269
-0.06886198 -0.12023791 0.08033693 -0.15134025 -0.17668344 -0.13026294 0.11252325 -0.074377246
-0.04499753 0.02658759 0.044646908 0.02397593 -0.07465392 -0.0985353 -0.3783198 0.048525356
-0.17095049 -0.05596484 0.032414045 0.030356051 -0.15867563 -0.00092591345 -0.01631366 0.0659858
0.04345351 -0.08984301 0.058042184 0.03136996 -0.08062182 -0.01841771 -0.09727917 -0.09180935
-0.16617279 0.09147011 0.035182662 -0.123119846 0.05565655 -0.11846191 -0.0870339 -0.032091606
-0.12373274 -0.07840739 -0.13928309 -0.07413556 -0.050604332 -0.17511669 -0.015786104 -0.021596758
0.033141673 0.061269496 -0.2787199 0.02257934 0.1177104 -0.16206852 -0.12030621 0.033076003
0.042941518 0.16874988 0.023554062 -0.103967465 -0.17139374 -0.0049834154 0.05087571 -0.08367654
-0.10026777 -0.0629269 -0.057889044 0.11126043 -0.066998646 -0.115102105 -0.20960724 -0.0055713803
0.09283498 0.008043602 -0.08180401 -0.123650394 -0.11141075 0.09340304 -0.19899599 -0.2549857
0.11976209 -0.0027083124 0.021522895 -0.044202104 -0.04620961 -0.03463149 -0.09238906 -0.07182206
-0.13927647 -0.10083823 0.043792382 -0.13133445 -0.0037486106 -0.014293946 0.09177707 -0.06740315
-0.016957492 -0.012915954 -0.010008872 0.012210637 0.014709234 -0.039543584 -0.120428264 -0.010076284
-0.23804313 0.033358566 -0.2155698 0.052198686 -0.06615763 -0.079059646 -0.0878479 -0.096014604
-0.033629403 -0.008874944 0.016535938 -0.10812508 -0.09929085 0.05247788 -0.10150963 0.027459368
-0.19874704 -0.08341487 0.11443919 -0.034450702 -0.053149834 -0.03864862 -0.054031238 0.016253853
-0.08234476 0.011105812 -0.04917504 -0.0553283 -0.046907723 -0.15835103 -0.09374808 -0.023413286
-0.031004652 -0.033172738 0.055608876 -0.025300428 -0.047705382 -0.11613417 -0.12676835 -0.1329373
-0.105827905 0.037977353 -0.23005497 0.024649162 -0.03518255 0.0385637 -0.020514363 -0.05173032
-0.118016854 -0.32226104 -0.0893497 0.10976261 -0.11677845 -0.12362024 0.053600214 -0.052125156
-0.15236744 -0.05740547 -0.017661681 -0.0063211024 0.0122468285 -0.041996032 -0.093057945 -0.1338065
-0.16429114 0.04675658 -0.15640493 0.08477524 -0.13072623 0.01113885 -0.06653174 -0.23455802
-0.08863106 -0.2529391 0.04693527 0.0034428658 -0.026561514 -0.23883674 -0.060097396 0.03160736
0.11711149 -0.045699403 -0.109004214 0.0011413696 -0.09324696 -0.041511577 0.00852715 -0.2263086

network.2.bias f4 [32]
00000000: 210a 95be 2d17 88be 3e65 4ebe 6a42 e9bd
00000010: 80db 1abd 5fb0 e0be 5ddf e2bd 05aa aebd
00000020: 0a35 7dbe e23a 30be 8265 863f 0655 0bbe
00000030: 1d8f 28be d6a9 0cbe 34a8 95bd 2cb7 98bd
00000040: 684e 01be 9833 d9bd d880 6dbe 2e27 83bd
00000050: c387 eabc 16a8 853f 19cc 1abe 115c 223f
00000060: dd9c a2be c182 ecbe ec8b f6bd aac6 f7bd
00000070: 54e4 3ebe 532b 8abd 325c 24be 4b0f 9cbe
-0.2910929 -0.26580182 -0.20155808 -0.113896206 -0.037806988 -0.4388456 -0.110777594 -0.085285224
-0.24727264 -0.17209962 1.0499728 -0.13606653 -0.16460843 -0.13736662 -0.07307473 -0.07456812
-0.12627566 -0.10605544 -0.23193681 -0.06403957 -0.02862919 1.0441921 -0.1511692 0.6342173
-0.31760302 -0.46193507 -0.12038407 -0.12098439 -0.18641788 -0.06746545 -0.16050795 -0.30480418

network.4.weight f4 [3, 32]
00000000: b403 173e e40c 00bb f3be 433d fda7 e9bc
00000010: e132 a33c fdde 19be 7c2d 583b e660 53bd
00000020: a2da ff3d 996d 54be ef0e 2040 016c 7cbd
00000030: 88d7 cfbd 2b5f 11be 6229 c43c dd69 553d
00000040: 28fa e43c 3f79 c23d b905 1abe fae6 77bd
00000050: a98b d73c a229 e03f f765 8c3d 8061 cc3f
00000060: a003 0abe 2520 393e 99ad ef3b 5447 ef3c
00000070: bd8a eabc 2342 c43d f91a 4c3e 37e7 e1bb
00000080: bbcb f3bb 7587 66bc 8e94 bcbc 2d83 5bbc
00000090: 5e24 edbc 4d7b e83e 4750 aabd 8652 463e
000000a0: 8a89 83be c3ce 6fbc 4583 2240 ca79 da3d
000000b0: 377b 5d3c 8ea9 1a3d 5f61 21be a7e4 ad3d
000000c0: bf02 3c3d 917a ab3d 10c4 3e3d 029b d53c
000000d0: 2749 b63d eddd e93f 191d f9bc 9785 c43f
000000e0: fd8c 53bc 20ef 393c cfaa d7bd b78a d23c
000000f0: ba06 8abb bc9f 26bc 3806 85bd e0b8 14bd
00000100: e7ef 3b3e b144 0a3d 0e2f ef3d cb3a af3d
00000110: c67b 4e3d 65f6 f93e d7df 383d e00e 613c
00000120: 35c1 9a3e a7f8 9d3d 1971 2a40 7d28 ebbc
00000130: ed8a fa3d 4fa3 a83d 3eae f8bd 4727 e0bc
00000140: 5263 8cbd ad98 4abe 2ad3 98be 1813 8d3d
00000150: 6d03 0cbc 82b1 ee3f b5da 29be 1cd0 b23f
00000160: 888d 393e f189 313e feca a73d 3585 55bd
00000170: 8585 44bd f1ba f83c e34b cc3d 3b27 adbc
0.14747506 -0.0019538933 0.047789525 -0.028522486 0.019921722 -0.1502647 0.0032986095 -0.05160608
0.12492873 -0.20744933 2.5009115 -0.061626438 -0.10148531 -0.1419646 0.023945514 0.052102912
0.027951315 0.09495782 -0.15041246 -0.06052301 0.026311712 1.7512705 0.06855386 1.5967255
-0.13477945 0.18078668 0.0073143956 0.029208817 -0.028630609 0.09582927 0.19932164 -0.006894018
-0.007440058 -0.014070381 -0.023020055 -0.013397974 -0.028948005 0.4540657 -0.08316093 0.19367418
-0.2569087 -0.014636698 2.539262 0.10667761 0.013518146 0.037759356 -0.157598 0.084908776
0.045901056 0.08372987 0.0465737 0.02607489 0.089006715 1.8270851 -0.030409383 1.5353268
-0.012912032 0.011348516 -0.10530626 0.02570091 -0.0042122276 -0.01016992 -0.06495327 -0.036309123
0.18353234 0.033756915 0.11678897 0.08556136 0.05041101 0.48820797 0.045135345 0.013736457
0.3022553 0.07713442 2.663153 -0.02870583 0.12233529 0.08234274 -0.12142609 -0.027362479
-0.06854881 -0.19784804 -0.29848605 0.068884075 -0.008545739 1.8647921 -0.16587336 1.396976
0.18120396 0.17337777 0.081930146 -0.05212899 -0.047978897 0.030362578 0.09975412 -0.02113687

network.4.bias f4 [3]
00000000: 4fe0 c63f a7ce c43f a453 dc3f
1.5537204 1.5375565 1.7213025

exp_avg f4 [64, 6]
00000000: c76d 9d3a 5e82 be3a 9319 d1bb 9319 d1bb
00000010: 74eb 7abb 6535 843b 0400 0000 0400 0000
00000020: 0400 0080 0400 0000 0400 0080 0400 0000
00000030: 0000 0000 0000 0000 0000 0000 0000 0000
00000040: 0000 0000 0000 0000 0400 0000 0400 0000
00000050: 0400 0000 0400 0000 0400 0000 0400 0000
00000060: 3d9e 95bb b1cf a1ba 9358 53bc 4fcd d8bb
00000070: 7d9d fdbb 6ee4 98bc 0400 0000 0400 0000
00000080: 0400 0080 0400 0000 0400 0080 0400 0000
00000090: 0400 0000 0400 0000 0400 0080 0400 0080
000000a0: 0400 0080 0400 0000 0400 0000 0400 0000
000000b0: 0400 0000 0400 0000 0400 0000 0400 0000
000000c0: 0000 0000 0000 0000 0000 0000 0000 0000
000000d0: 0000 0000 0000 0000 0400 0000 0400 0000
000000e0: 0400 0080 0400 0080 0400 0080 0400 0000
000000f0: 0400 0000 0400 0000 0400 0000 0400 0080
00000100: 0400 0000 0400 0000 0400 0000 0400 0000
00000110: 0400 0080 0400 0000 0400 0080 0400 0000
00000120: 0400 0000 0400 0000 0400 0000 0400 0080
00000130: 0400 0000 0400 0000 0400 0000 0400 0000
00000140: 0400 0000 0400 0000 0400 0000 0400 0000
00000150: 0cd7 b7bc 12db 88bc e8b5 8a3d 9f48 73bd
00000160: e273 263d 9bbb 30bd 0b29 e4bc ba3d ebbc
00000170: 9d05 f43d ef48 f43d c469 923d b159 91bd
00000180: 0400 0000 0400 0000 0400 0000 0400 0000
00000190: 0400 0000 0400 0000 0400 0000 0400 0000
000001a0: 0400 0080 0400 0000 0400 0080 0400 0000
000001b0: 5043 04b7 4079 3db9 b411 54bb b411 54bb
000001c0: a47b feba fe87 88bb 0400 0000 0400 0000
000001d0: 0400 0000 0400 0000 0400 0000 0400 0000
000001e0: 0400 0000 0400 0000 0400 0000 0400 0000
000001f0: 0400 0000 0400 0000 0000 0000 0000 0000
00000200: 0000 0000 0000 0000 0000 0000 0000 0000
00000210: 0400 0000 0400 0000 0400 0000 0400 0080
00000220: 0400 0000 0400 0000 0400 0000 0400 0000
00000230: 0400 0080 0400 0000 0400 0080 0400 0000
00000240: 0400 0000 0400 0000 0400 0080 0400 0000
00000250: 0400 0080 0400 0000 ec81 c3bc 9f26 e8bc
00000260: 6e1d 813e 9e35 313e 1df0 1a3e 4f93 babd
00000270: 0400 0000 0400 0080 0400 0000 0400 0080
00000280: 0400 0000 0400 0080 0400 0000 0400 0000
00000290: 0400 0080 0400 0080 0400 0080 0400 0000
000002a0: 0400 0000 0400 0000 0400 0000 0400 0000
000002b0: 0400 0000 0400 0000 0400 0000 0400 0000
000002c0: 0400 0080 0400 0080 0400 0080 0400 0000
000002d0: d900 acbc 6960 b2bc 7f8a be3d 7f8a be3d
000002e0: 30a6 643d cf45 6fbd 0400 0080 0400 0000
000002f0: 0400 0000 0400 0000 0400 0000 0400 0000
00000300: 0400 0000 0400 0000 0400 0000 0400 0080
00000310: 0400 0000 0400 0000 0400 0000 0400 0000
00000320: 0400 0000 0400 0000 0400 0000 0400 0000
00000330: 0400 0000 0400 0000 0400 0000 0400 0000
00000340: 0400 0000 0400 0000 0400 0000 0400 0000
00000350: 0400 0080 0400 0000 0400 0080 0400 0000
00000360: 0400 0000 0400 0000 0400 0000 0400 0000
00000370: 0400 0000 0400 0000 0400 0000 0400 0000
00000380: 0400 0080 0400 0000 0400 0080 0400 0000
00000390: 0400 0000 0400 0000 0400 0000 0400 0000
000003a0: 0400 0000 0400 0000 0400 0000 0400 0000
000003b0: 0400 0000 0400 0000 0400 0000 0400 0000
000003c0: 0400 0000 0400 0000 0400 0080 0400 0080
000003d0: 0400 0080 0400 0000 0400 0000 0400 0000
000003e0: 0400 0080 0400 0000 0400 0080 0400 0000
000003f0: 0400 0000 0400 0000 0400 0000 0400 0080
0.0012010866 0.0014534702 -0.0063812225 -0.0063812225 -0.0038287314 0.0040346854 6e-45 6e-45
-6e-45 6e-45 -6e-45 6e-45 0.0 0.0 0.0 0.0
0.0 0.0 6e-45 6e-45 6e-45 6e-45 6e-45 6e-45
-0.0045659826 -0.0012345222 -0.012899536 -0.0066162716 -0.0077397213 -0.018663611 6e-45 6e-45
-6e-45 6e-45 -6e-45 6e-45 6e-45 6e-45 -6e-45 -6e-45
-6e-45 6e-45 6e-45 6e-45 6e-45 6e-45 6e-45 6e-45
0.0 0.0 0.0 0.0 0.0 0.0 6e-45 6e-45
-6e-45 -6e-45 -6e-45 6e-45 6e-45 6e-45 6e-45 -6e-45
6e-45 6e-45 6e-45 6e-45 -6e-45 6e-45 -6e-45 6e-45
6e-45 6e-45 6e-45 -6e-45 6e-45 6e-45 6e-45 6e-45
6e-45 6e-45 6e-45 6e-45 -0.02244141 -0.016706023 0.06772977 -0.05939543
0.04063786 -0.043147665 -0.027851602 -0.028715957 0.11915133 0.119279735 0.071490794 -0.070971854
6e-45 6e-45 6e-45 6e-45 6e-45 6e-45 6e-45 6e-45
-6e-45 6e-45 -6e-45 6e-45 -7.8834855e-06 -0.00018069614 -0.0032359185 -0.0032359185
-0.001941551 -0.004166602 6e-45 6e-45 6e-45 6e-45 6e-45 6e-45
6e-45 6e-45 6e-45 6e-45 6e-45 6e-45 0.0 0.0
0.0 0.0 0.0 0.0 6e-45 6e-45 6e-45 -6e-45
6e-45 6e-45 6e-45 6e-45 -6e-45 6e-45 -6e-45 6e-45
6e-45 6e-45 -6e-45 6e-45 -6e-45 6e-45 -0.023865663 -0.028338728
0.25217766 0.1730561 0.15130658 -0.09110128 6e-45 -6e-45 6e-45 -6e-45
6e-45 -6e-45 6e-45 6e-45 -6e-45 -6e-45 -6e-45 6e-45
6e-45 6e-45 6e-45 6e-45 6e-45 6e-45 6e-45 6e-45
-6e-45 -6e-45 -6e-45 6e-45 -0.020996498 -0.021774488 0.0930376 0.0930376
0.05582255 -0.058416184 -6e-45 6e-45 6e-45 6e-45 6e-45 6e-45
6e-45 6e-45 6e-45 -6e-45 6e-45 6e-45 6e-45 6e-45
6e-45 6e-45 6e-45 6e-45 6e-45 6e-45 6e-45 6e-45
6e-45 6e-45 6e-45 6e-45 -6e-45 6e-45 -6e-45 6e-45
6e-45 6e-45 6e-45 6e-45 6e-45 6e-45 6e-45 6e-45
-6e-45 6e-45 -6e-45 6e-45 6e-45 6e-45 6e-45 6e-45
6e-45 6e-45 6e-45 6e-45 6e-45 6e-45 6e-45 6e-45
6e-45 6e-45 -6e-45 -6e-45 -6e-45 6e-45 6e-45 6e-45
-6e-45 6e-45 -6e-45 6e-45 6e-45 6e-45 6e-45 -6e-45

exp_avg_sq f4 [64, 6]
00000000: dab8 7239 cbad f238 d654 8a3b 5970 8a3b
00000010: 8132 c73a 7504 bf3a 5ccd 762f ec62 f62e
00000020: 15f3 ab30 fd60 9430 649b f72f 3d1a fc2f
00000030: 0000 0000 0000 0000 0000 0000 0000 0000
00000040: 0000 0000 0000 0000 5b17 a92b 7c81 052c
00000050: 53a5 052e 53a5 052e e972 402d 72d8 272d
00000060: d454 683b b4d2 203b fca8 5c3c 9620 743c
00000070: 09e0 9e3b 1ebd ad3b 79b5 242e 8570 be2d
00000080: da5b 912f ac35 812f f850 d12e 36cc e02e
00000090: 931d 332b 64f6 492b bc8a 502d bc8a 502d
000000a0: 7c26 962c c481 892c a8a6 9e2c fdd0 af2c
000000b0: e89c bf2e 12c0 bc2e 03f6 092e bf45 102e
000000c0: 0000 0000 0000 0000 0000 0000 0000 0000
000000d0: 0000 0000 0000 0000 4147 5f26 f33b b327
000000e0: e6ee fd2a e6ee fd2a e4d4 362a d683 502a
000000f0: ee30 bf2b 8372 492c 183b 5d2e 183b 5d2e
00000100: 1749 9f2d 5447 822d 3527 8829 990d d129
00000110: a717 2c2c a717 2c2c f5cf 772b 1f4a 812b
00000120: 29a9 912c 525f 3f2d 820f 512f 7b2b 542f
00000130: f185 962e 5f20 762e 89ff 882b daa2 df2b
00000140: 1344 ef2d c1ac f12d 7b45 2c2d 33e5 0e2d
00000150: 8fed 9d3c 7da1 633c a917 ee3d 64e9 e93d
00000160: 3e6d 2b3d fd6c 2c3d 541b bc3b 6506 913b
00000170: 100a 0d3e a9d4 0c3e af18 4b3d 9592 4f3d
00000180: 1ae9 0a2c 662f c92c 8773 d22e 586e d52e
00000190: 7586 172e 217f fa2d 156a 9329 faef ab29
000001a0: 4390 b82b 4390 b82b d4e2 042b 0662 032b
000001b0: 521d 2538 8213 6338 7a6b 263b bd8a 243b
000001c0: 16a5 6f3a 5eac 703a 9c07 c42f 73b2 502f
000001d0: 02b2 2931 d995 1331 605c 7430 c19f 8630
000001e0: 1782 362a a56d 502a d761 8d2c d761 8d2c
000001f0: f396 cb2b c4fa cd2b 0000 0000 0000 0000
00000200: 0000 0000 0000 0000 0000 0000 0000 0000
00000210: 9c86 172c 5b23 702c a612 8f2e a612 8f2e
00000220: 6906 ce2d 4dc7 a62d b0b8 f31c 8540 a421
00000230: c54a 8f23 c54a 8f23 1657 ce22 bc23 cc22
00000240: 8e12 f029 d683 c329 d9a1 cd2b d9a1 cd2b
00000250: 0e0e 142b d9e7 f92a 086c 5e3d 22f5 223d
00000260: 13ed 843f 888b a73f ec69 bf3e 7ab2 fb3e
00000270: 7680 0d26 ef90 9728 cd8e 9c2a eb54 942a
00000280: 9671 e129 2601 ba29 c818 ae29 ec03 a729
00000290: 1520 b02b 1520 b02b 2a9f fd2a 97ea fa2a
000002a0: 2106 a828 df41 af29 f796 e02b d295 d92b
000002b0: 3cb4 212b b2ed 132b 41c5 372b 33fa 1e2b
000002c0: 74f1 1c2d 6dd5 172d 6aff 612c c3c6 622c
000002d0: 039c 723b e6c6 4a3b 5c6a 233e de31 233e
000002e0: 7e51 6b3d f242 5e3d fbac fe1e dcf0 1227
000002f0: 837a 1429 837a 1429 0dcf 5528 5fdf 2e28
00000300: f260 d22c c21b 2e2d 27b4 382f 27b4 382f
00000310: 98fc 842e 20ad 5c2e 43c7 a726 cdae a329
00000320: a6d8 a82b a6d8 a82b 9923 f32a 40dc c62a
00000330: 3a51 3b2d a2d0 9d2d 830a a92f 830a a92f
00000340: 4b6b f32e 857b ca2e 6fe5 f827 4919 c428
00000350: efe7 0d2b 157b 282b 0358 4c2a ab36 3d2a
00000360: f970 702c 7da5 c42c 1424 d82e 2fc4 d72e
00000370: 069f 1b2e 2fba 002e e741 fe1c 7e62 ac21
00000380: b36f 9623 b36f 9623 e3a0 d822 6d51 d622
00000390: 0e79 cd24 05f9 0028 be3c 052a be3c 052a
000003a0: 82dc 3f29 eaeb 1c29 cd1b 562b ab83 9c2b
000003b0: 3196 932d 3196 932d 8286 d42c b4ae bc2c
000003c0: 176c 3a2d d997 462d d8a2 3e2f 2831 3f2f
000003d0: 1c42 892e 435c 7a2e 1554 8826 5f5a c227
000003e0: 3d49 e729 3d49 e729 8e86 2629 725f 2429
000003f0: 5651 b831 dd76 6931 0f6f 8a33 9c9e 9133
0.00023147781 0.00011571831 0.004221539 0.0042248187 0.0015197546 0.0014573472 2.2446528e-10 1.1204357e-10
1.2510976e-09 1.0795983e-09 4.503945e-10 4.5857176e-10 0.0 0.0 0.0 0.0
0.0 0.0 1.2014655e-12 1.8972315e-12 3.0387536e-11 3.0387536e-11 1.0939452e-11 9.5409115e-12
0.0035450952 0.0024539651 0.013468023 0.014900347 0.0048484844 0.0053020855 3.7450463e-11 2.1650468e-11
2.644061e-10 2.35031e-10 9.5186026e-11 1.0222616e-10 6.363462e-13 7.175148e-13 1.1854236e-11 1.1854236e-11
4.267529e-12 3.908181e-12 4.5091327e-12 4.9970015e-12 8.7135466e-11 8.583369e-11 3.1368696e-11 3.2803756e-11
0.0 0.0 0.0 0.0 0.0 0.0 7.7465234e-16 4.9747477e-15
4.5107597e-13 4.5107597e-13 1.6238709e-13 1.8519851e-13 1.3584947e-12 2.8627385e-12 5.0302068e-11 5.0302068e-11
1.8108666e-11 1.4810965e-11 6.0464146e-14 9.283823e-14 2.44558e-12 2.44558e-12 8.8040626e-13 9.186574e-13
4.1399284e-12 1.0878258e-11 1.9013949e-10 1.9296735e-10 6.845003e-11 5.5962675e-11 9.734306e-13 1.5890303e-12
2.7201385e-11 2.7475246e-11 9.792496e-12 8.122658e-12 0.019278316 0.013893482 0.116256066 0.11421469
0.04185223 0.042096127 0.0057405625 0.004425811 0.1377337 0.13752998 0.049584087 0.0506769
1.9740377e-12 5.718026e-12 9.570216e-11 9.7057196e-11 3.4452847e-11 2.8478166e-11 6.546514e-14 7.635555e-14
1.3114027e-12 1.3114027e-12 4.721061e-13 4.6676584e-13 3.9366372e-05 5.4139186e-05 0.002539365 0.0025107109
0.0009141726 0.0009180958 3.56576e-10 1.8980888e-10 2.4693922e-09 2.1476494e-09 8.8897956e-10 9.795188e-10
1.6209981e-13 1.8512152e-13 4.0183234e-12 4.0183234e-12 1.4465914e-12 1.4635728e-12 0.0 0.0
0.0 0.0 0.0 0.0 2.1533114e-12 3.4125678e-12 6.5062e-11 6.5062e-11
2.3422335e-11 1.8960522e-11 1.6128132e-21 1.113015e-18 1.5535757e-17 1.5535757e-17 5.5928618e-18 5.5332146e-18
1.066136e-13 8.6826095e-14 1.4611048e-12 1.4611048e-12 5.2599667e-13 4.4392162e-13 0.054302245 0.039784558
1.0384849 1.3089457 0.373855 0.49159604 4.90933e-16 1.6827223e-14 2.7810255e-13 2.6349005e-13
1.0011711e-13 8.2602585e-14 7.731451e-14 7.41697e-14 1.2514457e-12 1.2514457e-12 4.505227e-13 4.45717e-13
1.8654405e-14 7.782988e-14 1.5958058e-12 1.5460361e-12 5.7448816e-13 5.255476e-13 6.5288405e-13 5.64801e-13
8.921187e-12 8.630746e-12 3.2116206e-12 3.2226867e-12 0.003701926 0.0030941307 0.15958542 0.15936992
0.057450764 0.054263063 2.6964839e-20 2.039214e-15 3.2968864e-14 3.2968864e-14 1.1868772e-14 9.707376e-15
5.979322e-12 9.896918e-12 1.6798705e-10 1.6798705e-10 6.047535e-11 5.0175974e-11 1.1641963e-15 7.268977e-14
1.199725e-12 1.199725e-12 4.3190172e-13 3.5324695e-13 1.0647755e-11 1.7941485e-11 3.074839e-10 3.074839e-10
1.106942e-10 9.207838e-11 6.908258e-15 2.1771337e-14 5.0415135e-13 5.98564e-13 1.8149375e-13 1.6805539e-13
3.4168764e-12 5.589028e-12 9.8289515e-11 9.811917e-11 3.538416e-11 2.9269195e-11 1.6825345e-21 1.1681244e-18
1.6310339e-17 1.6310339e-17 5.8717263e-18 5.809103e-18 8.910965e-17 7.159425e-15 1.1833847e-13 1.1833847e-13
4.260178e-14 3.484358e-14 7.6066654e-13 1.1121012e-12 1.6778664e-11 1.6778664e-11 6.0403358e-12 5.3626773e-12
1.0596877e-11 1.1288714e-11 1.7338253e-10 1.7388813e-10 6.241782e-11 5.6925364e-11 9.459686e-16 5.3943797e-15
1.02711656e-13 1.02711656e-13 3.6976112e-14 3.64981e-14 5.3643516e-09 3.3973528e-09 6.446327e-08 6.7809395e-08

exp_avg f4 [64]
00000000: 6635 843b 0400 0000 0000 0000 0400 0000
00000010: 71e4 98bc 0400 0000 0400 0000 0400 0000
00000020: 0000 0000 0400 0000 0400 0000 0400 0000
00000030: 0400 0000 0400 0000 9ebb 30bd b059 91bd
00000040: 0400 0000 0400 0000 fe87 88bb 0400 0000
00000050: 0400 0000 0000 0000 0400 0000 0400 0000
00000060: 0400 0000 4b93 babd 0400 0080 0400 0000
00000070: 0400 0000 0400 0000 cf45 6fbd 0400 0000
00000080: 0400 0000 0400 0000 0400 0000 0400 0000
00000090: 0400 0000 0400 0000 0400 0000 0400 0000
000000a0: 0400 0000 0400 0000 0400 0000 0400 0000
000000b0: 0400 0000 1aaa 5f3d 0400 0000 ee55 033e
000000c0: 0400 0000 0400 0000 3078 7a3e 0400 0000
000000d0: 0400 0000 0400 0000 0400 0000 0400 0000
000000e0: 0400 0000 0400 0000 0400 0000 5014 f3bb
000000f0: 0400 0000 0400 0000 0400 0000 0400 0000
0.004034686 6e-45 0.0 6e-45 -0.018663617 6e-45 6e-45 6e-45
0.0 6e-45 6e-45 6e-45 6e-45 6e-45 -0.043147676 -0.07097185
6e-45 6e-45 -0.004166602 6e-45 6e-45 0.0 6e-45 6e-45
6e-45 -0.09110125 -6e-45 6e-45 6e-45 6e-45 -0.058416184 6e-45
6e-45 6e-45 6e-45 6e-45 6e-45 6e-45 6e-45 6e-45
6e-45 6e-45 6e-45 6e-45 6e-45 0.05460558 6e-45 0.12825748
6e-45 6e-45 0.2445991 6e-45 6e-45 6e-45 6e-45 6e-45
6e-45 6e-45 6e-45 -0.007418193 6e-45 6e-45 6e-45 6e-45

exp_avg_sq f4 [64]
00000000: 7504 bf3a 3d1a fc2f 0000 0000 72d8 272d
00000010: 1dbd ad3b 36cc e02e c481 892c c145 102e
00000020: 0000 0000 d683 502a 5447 822d 1f4a 812b
00000030: 5f20 762e 33e5 0e2d fb6c 2c3d 9492 4f3d
00000040: 217f fa2d 0662 032b 5eac 703a c19f 8630
00000050: b3fa cd2b 0000 0000 4dc7 a62d bc23 cc22
00000060: d9e7 f92a 7ab2 fb3e 2601 ba29 97ea fa2a
00000070: b2ed 132b c3c6 622c f242 5e3d 5fdf 2e28
00000080: 20ad 5c2e 40dc c62a 857b ca2e ab36 3d2a
00000090: 2fba 002e 6d51 d622 eaeb 1c29 b4ae bc2c
000000a0: 435c 7a2e 725f 2429 cb95 c932 5576 742a
000000b0: 2d52 2930 a75c f93c 6679 842f 251a 553e
000000c0: 030d ff29 b777 e02e 030a b43e 9140 ce2e
000000d0: 743d c02a 01ce 1c2e c763 832c 8535 6f2b
000000e0: 7a04 6e2a 5ffb 6a2b cd09 392c 327e 8a3a
000000f0: 246c 712e 880d 1f2e 0ad3 0e32 52d8 f52e
0.0014573472 4.5857176e-10 0.0 9.5409115e-12 0.005302085 1.0222616e-10 3.908181e-12 3.2803763e-11
0.0 1.8519851e-13 1.4810965e-11 9.186574e-13 5.5962675e-11 8.122658e-12 0.04209612 0.050676897
2.8478166e-11 4.6676584e-13 0.0009180958 9.795188e-10 1.4635709e-12 0.0 1.8960522e-11 5.5332146e-18
4.4392162e-13 0.49159604 8.2602585e-14 4.45717e-13 5.255476e-13 3.2226867e-12 0.054263063 9.707376e-15
5.0175974e-11 3.5324695e-13 9.207838e-11 1.6805539e-13 2.9269195e-11 5.809103e-18 3.484358e-14 5.3626773e-12
5.6925364e-11 3.64981e-14 2.3467598e-08 2.1712608e-13 6.159862e-10 0.030439688 2.409692e-10 0.20810755
1.1326532e-13 1.0207606e-10 0.35163888 9.379265e-11 3.4148693e-13 3.565326e-11 3.7343214e-12 8.498413e-13
2.11402e-13 8.348235e-13 2.6295522e-12 0.0010566174 5.4893104e-11 3.6164433e-11 8.313473e-09 1.1179736e-10
