models/paddle_dqn_model_checkpoint_50000.pth (torch, 52785 bytes, 24 tensors)

network.0.weight f4 [64, 6]
00000000: c7b4 1fc0 64ec 37c0 211d dfbd d65a 8bbe
00000010: 681c ae3d 7e02 c3be 81f8 7f3e f6be a93c
00000020: a302 893c 68e2 183e 0fa0 d8bd eb72 2cbe
00000030: 1056 333e d2c1 113e d4f6 79be 6069 e5bb
00000040: 46ab 003e 7294 88be 6058 2abf dc5a e1bd
00000050: 513c 573e 6cfa de3d 2436 64be 941b 833d
00000060: 0b64 49c0 c6bc 76c0 e5aa 9b3d 5f26 eebf
00000070: db98 163e 30ba 823d d89b 2bbf e132 dcbe
00000080: bdc6 623e 5a7e d2bd 0ae1 cc3c 97d1 abbe
00000090: 5612 26bd 2231 3fbf b512 5cbd 6d18 f3bd
000000a0: 343f 253d 9968 49bf ec75 23bf 0b95 58bf
000000b0: 63c5 573e 68f9 69bd e856 7abe 66ae c8be
000000c0: f8bd b5be 2588 1d3d 12ef b1bd 588a 093d
000000d0: e907 523e 8578 61be 2871 51bf ee41 5bbf
000000e0: b3f9 cfbd ca42 22bd 4650 d0bd 4dc0 b0bd
000000f0: 0256 e73d 7d77 d9be 9b28 543e d00b 51be
00000100: 7b52 f0bc 0257 ebbe 8231 8abb e62c f03d
00000110: 160d 29bd c965 903d 7f8f 8d3d ad72 fd3d
00000120: ddcb ebbe a42d 00bd 3f71 dcbd 806b 2dbd
00000130: 4886 8b3d 2024 8abe 16e8 fdbc 8f9d c6be
00000140: 9486 f93d 2647 f23d 8415 543d cd30 efbe
00000150: dada 03c1 6762 02c0 55c0 5e3d 0029 d9bf
00000160: a92c 2b3e 3070 6f3f 1835 b9c0 73f1 bdbf
00000170: eebb f73e c944 f1bf c57d fa3e 5376 023f
00000180: d198 cd3d 3167 00bd 4c7d d23d 5519 673d
00000190: 0989 5abe 7455 033e e414 74be f5b9 2cbf
000001a0: f658 7b3e df63 383c 79e5 a93d 0032 02bf
000001b0: ecc9 74c0 1828 f73f 6b9f a0bc 6f60 1ebe
000001c0: e6e6 923d 158b 29bf 4f00 7cbf da94 99be
000001d0: 4fa6 abbd 4d9e afbd 453c 013e f74a 9bbe
000001e0: 29a3 44bf a788 fcbe c31e f43d f739 cbbd
000001f0: 856c cc3e b437 60bf e810 9cbe 25ef c93e
00000200: feab b03d 3a38 c33c 5a5a 4dbe 2d9e d0be
00000210: cced 01bf 786d 2dbe 4feb b13d 2f82 cbbd
00000220: f32b ab3d 4fe3 24bf 1a1a cebe b0bb ab3e
00000230: 6cdc db3d 4cbb 963d d1ad 19be 97d8 6abe
00000240: 318e 98be 5acf 983d 3d30 2c3e 0353 d7bd
00000250: 7f07 ce3d 34ba f5be 3fba a5c0 c8bd 0540
00000260: 9c74 083f a76d 14c0 1f0d 0d3f 826e 82be
00000270: 2a21 84bf f17f 03bf 2db5 ab3c 2659 b4bd
00000280: c651 543e 3efd 75bf 0cbe 123e 8d9a 53bd
00000290: 00d2 f83d 5d4d 733d 43be c8bd 2b2b 00bf
000002a0: cce6 7f3c 062b 39bd 61cf eebd 0529 d23d
000002b0: 41d5 953e 2086 1bba fd5d 85bd 17d5 eabd
000002c0: 1938 57bd a024 c03d db0a b2bd b0b7 d0be
000002d0: a260 00c1 2638 b13f 24cf 40bf 7460 17c0
000002e0: 1336 06bf 9c5c 233f a3c3 24be 8ed4 ecbe
000002f0: c0b1 193d a08e 6ebd 6c14 8f3e ac0c 8cbe
00000300: c06e 9f3e 50ae fdbe a161 d3bd 0737 d1bd
00000310: 64d7 743e b562 a5be fd9b 88bd 7127 af3d
00000320: cd5a 843e 9c8b 283d 324e 7dbe acc6 32be
00000330: 2af0 adbe 64fb 4bbe 3bfe 0b3e 3666 9c3d
00000340: 1739 043e 414c 02bf 49ee 503d ee25 0abd
00000350: 7697 583e 51c8 963c baba a9be 99f6 4dbc
00000360: d49b 17bf 2707 08bf 3927 cdbc f1bd 523e
00000370: 848f c43d b82c 02be c3ec b2be 4ec2 3e3d
00000380: 27d5 afbe f21d 4fbc 1072 893e 80c0 30be
00000390: cea4 3fbd 8888 8cbd d2ab 703e 64cb 103e
000003a0: 577d 90be 415a 5dbe d0a2 f83c 5221 51bf
000003b0: 45f2 bb3e 765a 37bd 0225 8dbd 53af 10bf
000003c0: 984a 6abe 32f3 83bf b71c 50be b99d 94bd
000003d0: 14fe 7c3e 5611 ffbe e907 dabe e984 fbbe
000003e0: bb7d d9bd b2a7 d23c dbee 823e b54a bfbe
000003f0: f9e4 2cbf 6f73 60bf 4404 593d da73 01be
-2.4954088 -2.8738031 -0.10894228 -0.2721774 0.08501512 -0.3808784 0.2499714 0.02072094
0.01672489 0.14930117 -0.10577404 -0.16840713 0.17513299 0.14234093 -0.24410564 -0.007001087
0.12565336 -0.26675755 -0.665411 -0.11003658 0.21019103 0.10887608 -0.22286278 0.064017445
-3.1467311 -3.8552718 0.07600955 -1.860546 0.14706747 0.06383169 -0.67034674 -0.43007568
0.22146125 -0.10278006 0.02500965 -0.33558342 -0.04054483 -0.74684346 -0.053728778 -0.11869893
0.04034348 -0.7867523 -0.6385181 -0.8460242 0.21071391 -0.057122618 -0.24447215 -0.39195555
-0.35496497 0.038459916 -0.08688177 0.0335792 0.2051083 -0.22018631 -0.8181329 -0.85647476
-0.10155048 -0.039614476 -0.10171561 -0.086304285 0.112957016 -0.42473975 0.20718615 -0.20414662
-0.029336205 -0.4596482 -0.0042173276 0.11727314 -0.041272245 0.07050664 0.06912135 0.12375388
-0.46053973 -0.031293526 -0.107637875 -0.042338848 0.068127215 -0.26980686 -0.030994456 -0.38792083
0.12183872 0.11829977 0.05177833 -0.4671692 -8.240931 -2.037256 0.05438264 -1.6965637
0.16716255 0.9353056 -5.787731 -1.483931 0.48385566 -1.8849117 0.4892408 0.509618
0.10038913 -0.03134841 0.10277805 0.056420643 -0.21341337 0.12825567 -0.23836094 -0.6747125
0.24545655 0.01125428 0.082957216 -0.50857544 -3.8248243 1.9309111 -0.019607266 -0.15466474
0.07172947 -0.6622785 -0.9843797 -0.29996377 -0.0838133 -0.08575115 0.12620647 -0.3033063
-0.7681146 -0.49323007 0.1191993 -0.09923165 0.39926544 -0.87584996 -0.30481648 0.39440265
0.08626555 0.023830522 -0.20053998 -0.4074568 -0.50753474 -0.1693629 0.0868746 -0.0993694
0.08357992 -0.64409345 -0.4025429 0.33541632 0.107354015 0.07359943 -0.15007712 -0.22934185
-0.29795983 0.07461424 0.16815276 -0.1051388 0.100600235 -0.47993624 -5.178985 2.0897083
0.5330293 -2.3191926 0.55098146 -0.25474936 -1.0322621 -0.513671 0.020960415 -0.08806066
0.20734319 -0.9608954 0.1433031 -0.051661063 0.12149429 0.05939995 -0.098019145 -0.5006587
0.015618991 -0.045207046 -0.11660648 0.1026173 0.29264262 -0.0005932767 -0.065120675 -0.11466425
-0.052543733 0.09381986 -0.08693477 -0.40765142 -8.023592 1.384526 -0.7531607 -2.365262
-0.5242626 0.63813186 -0.16090254 -0.46255916 0.03752303 -0.058241487 0.27945268 -0.27353418
0.31139183 -0.49547052 -0.103213556 -0.10215574 0.2391029 -0.3230187 -0.066703774 0.08552445
0.25850525 0.041148767 -0.2473686 -0.174586 -0.33972293 -0.19920117 0.136712 0.07636683
0.12912403 -0.50897604 0.051008496 -0.03372758 0.21151528 0.018406065 -0.33150274 -0.0125710005
-0.5922215 -0.53135914 -0.025043117 0.2058027 0.09597686 -0.12712371 -0.3494626 0.046572022
-0.3434231 -0.012641417 0.26844835 -0.17260933 -0.04678803 -0.06861979 0.23503044 0.14140087
-0.28220627 -0.2161646 0.030351073 -0.8169147 0.36708274 -0.044764005 -0.06891824 -0.56517524
-0.22880018 -1.0308592 -0.20323454 -0.07256646 0.24706298 -0.49817914 -0.4258416 -0.4912484
-0.10619684 0.025714729 0.25572857 -0.37361684 -0.67536885 -0.8767614 0.052982584 -0.1264185

network.0.bias f4 [64]
00000000: 72fd dfbe 3923 1abf 429a c3be a0bc f4be
00000010: 01e0 843e 3d62 b1be 11b5 62bf 7bab eabe
00000020: b3c5 103d 5dba 43bf f361 f6be eed0 02bf
00000030: c802 b1bd 3e3c f8bd a368 803f 101e 823f
00000040: 7e5a dbbe 5cf9 3cbf 9e4e 18bf 189a 28bf
00000050: dc20 88be ccdb 39be 88bd cebe 7712 8ebe
00000060: 7529 b3be 7a68 f7be 29ef 8dbe 352c 4dbe
00000070: b55e 27bf af9c 70be 1764 fe3e 3706 94be
00000080: 3adc 20be e30e e9be d3ca 43be c5d6 a4be
00000090: 153b b1be 3eb6 c3be 75a3 afbe 8587 dcbe
000000a0: edf2 38bf d408 bcbd cdcf 0fbf 1404 34bf
000000b0: ff90 75be 154b 9d3f a6f6 39bf e954 ad3e
000000c0: 5e76 9cbe ef1c 25bf ceab d9be 4da9 b2be
000000d0: 0948 cebe 1c66 a5be 316c 0fbe ae4f cebe
000000e0: fe72 cbbd 960d d6be 24e4 41be b681 ecbe
000000f0: ba38 21bf 9fa4 f3bd ccb3 58bf aa44 03bf
-0.4374805 -0.60209996 -0.38203627 -0.4780016 0.2595215 -0.34645262 -0.88557535 -0.45833954
0.03534479 -0.7645624 -0.48121604 -0.5110005 -0.086431086 -0.12120865 1.0031933 1.0165424
-0.42842478 -0.7381799 -0.5949496 -0.6586013 -0.2658757 -0.18150252 -0.40378976 -0.27748463
-0.34992567 -0.48321897 -0.27721527 -0.20036395 -0.65378886 -0.2349727 0.49685737 -0.28910992
-0.1570901 -0.4551917 -0.1912034 -0.32195106 -0.3461539 -0.38224977 -0.34304395 -0.43072143
-0.72245675 -0.09181371 -0.56176454 -0.7031872 -0.23981093 1.2288538 -0.7264198 0.33853844
-0.30559057 -0.64497274 -0.4251389 -0.3489479 -0.40289333 -0.32304466 -0.14006115 -0.40295166
-0.099340424 -0.4180724 -0.18934685 -0.46192712 -0.6297718 -0.11896633 -0.8464935 -0.5127665

network.2.weight f4 [32, 64]
00000000: 03ac 66be 9322 993b 92f5 96bd 078e b9bd
00000010: 0da9 fbbd 4215 6d3d 5465 07be 3402 e7bd
00000020: d4bb 623d 086b 6bbd d456 94bc 94d0 8b3d
00000030: 25ce 21bd 53a5 0e3d 2890 34be 4fd2 8abe
00000040: 1787 5b3b 0418 343d db30 bdbe aa2c 3c3c
00000050: 5f3d 4b3e 6ccc b5bd 6f05 18be f098 1c3c
00000060: 385d b23d 7cea 8a3d 3fba 863e b8bb 963c
00000070: c0bd 33bd d0d7 b6bc dbd1 86be 3474 1a3d
00000080: 1410 bbbd 44ff 17bd d325 1fbd 3800 fc3c
00000090: a8cb 0fbd 30a5 5b3c 4045 553d a3fb 2abe
000000a0: 95c2 3abe e68b bb3d 566f 25be 7c17 74bd
000000b0: 4273 cabd 9498 29be 936a 0c3e 0a44 58bd
000000c0: a8b9 92bd 31c5 8cbc adb0 b3be b4a1 c039
000000d0: 880a 813c b46d 77bd 1c49 f7bd aebc 82bd
000000e0: 90ec f63c ac07 013d 8096 6b3b e0e3 5fbd
000000f0: 9fbc c8bd 2c78 ddbd 1b7a 73bd ef1e 53be
00000100: 8307 8dbd 4b3f f6bd b087 a43d f0f8 1abe
00000110: 81ec 34be a663 05be 9772 e63d 1953 98bd
00000120: 544f 38bd 38ce d93c addf 363d 2b69 c43c
00000130: 28e4 98bd e0cc c9bd 22b3 c1be 86c2 463d
00000140: a50d 2fbe 633b 65bd 97c4 043d 41ad f83c
00000150: dd7b 22be 00b9 72ba 3aa4 85bc 9023 873d
00000160: 4ffc 313d 9dff b7bd a4bd 6d3d ca7d 003d
00000170: 0e1d a5bd bde0 96bc 4d3a c7bd 8a06 bcbd
00000180: 3329 2abe ae54 bb3d b21b 103d 4226 fcbd
00000190: 1ff8 633d 289c f2bd d43e b2bd 7d72 03bd
000001a0: 9767 fdbd 0e94 a0bd 3aa0 0ebe 62d4 97bd
000001b0: 7d46 4fbd ca51 33be dc51 81bc afeb b0bc
000001c0: 90bf 073d b9f5 7a3d 60b4 8ebe 4ff8 b83c
000001d0: 2612 f13d 4af5 25be 1a63 f6bd b47a 073d
000001e0: 72e3 2f3d c5cc 2c3e 73f4 c03c e5ec d4bd
000001f0: d781 2fbe eb4b a3bb 0c63 503d 9b5e abbd
00000200: 3059 cdbd d2df 80bd 101d 6dbd 82dc e33d
00000210: 9636 89bd a7ba ebbd 48a3 56be 2090 b6bb
00000220: 4420 be3d 50c9 033c dc88 a7bd 6b3c fdbd
00000230: 522b e4bd 184a bf3d 9bc5 4bbe 7c8d 82be
00000240: d445 f53d f17d 31bb c850 b03c 440d 35bd
00000250: 4a46 3dbd c0d9 0dbd 7a36 bdbd 7217 93bd
00000260: 7e9e 0ebe 1ea0 cebd a45f 333d 8a7c 06be
00000270: 40ab 75bb 2831 6abc 3d7e 2fbc aa0a 8abd
00000280: 70ea 8abc 709d 53bc 40fc 23bc 200f 483c
00000290: 00ff 703c 74f8 21bd 18a3 f6bd 0017 25bc
000002a0: 94c1 73be fea2 083d 54be 5cbe 4ace 553d
000002b0: a77d 87bd 06ea a1bd 9ae9 b3bd 57ca d3be
000002c0: fcbe 09bd 3768 11bc 6076 873c af70 ddbd
000002d0: 0059 cbbd 0cf3 563d 48e4 cfbd 78f2 e03c
000002e0: 5884 4bbe 6ad5 aabd 185f ea3d 2e1c 0dbd
000002f0: a4b3 59bd 044e 1ebd dc4f 5dbd cd26 853c
00000300: 5fa4 a8bd 27f5 353c c46b 49bd ed9f 62bd
00000310: 5022 40bd c626 22be fefe bfbd 38cd bfbc
00000320: 78fd fdbc 23e0 07bd 22c6 633d d842 cfbc
00000330: b866 43bd c0d7 edbd 90cf 01be b720 08be
00000340: 4dbc d8bd 248e 1b3d 8893 6bbe 0aed c93c
00000350: 941b 10bd f8f4 1d3d bd0d a8bc 2ce3 53bd
00000360: d2b2 f1bd 66ff a4be fafc b6bd 38cb e03d
00000370: 8a29 efbd 9c2c fdbd e68b 5b3d 3081 55bd
00000380: 3606 1cbe 0022 6bbd 3baf 90bc 4021 cfbb
00000390: eca6 483c 0804 2cbd 2a95 bebd 9204 09be
000003a0: f03b 28be d483 3f3d 9d28 20be a49e ad3d
000003b0: 19dd 05be b97f 363c cb41 88bd fa2f 70be
000003c0: 3484 b5bd 3c81 81be a59a 8abe b4a1 613b
000003d0: 8897 d9bc 9e91 74be b028 76bd b876 013d
000003e0: 26d8 ef3d 4c2f 3bbd 9a3d dfbd 029a 953a
000003f0: 43f8 bebd 0b08 2abd 76b5 0b3c 71bd 67be
-0.22526555 0.004673311 -0.073710576 -0.09060293 -0.12288103 0.0578816 -0.13222247 -0.11279717
0.055354908 -0.05747512 -0.01810781 0.068268925 -0.039503235 0.034825634 -0.17633116 -0.27113578
0.0033497268 0.043968216 -0.36951336 0.011485258 0.1984763 -0.08876881 -0.14845823 0.0095579475
0.08709186 0.067830056 0.2631397 0.018400058 -0.04388213 -0.022319704 -0.26331982 0.037708476
-0.09133926 -0.037108675 -0.03885443 0.030761823 -0.03510633 0.013406083 0.052067995 -0.16697554
-0.1823829 0.09157543 -0.16155753 -0.05959271 -0.09885265 -0.1656211 0.1371253 -0.052799262
-0.07164317 -0.017183872 -0.3509573 0.00036741572 0.015752092 -0.060407355 -0.120744914 -0.06383644
0.030142099 0.031501457 0.003594786 -0.054660678 -0.098016016 -0.108139366 -0.05944262 -0.20617269
-0.06886198 -0.12023791 0.08033693 -0.15134025 -0.17668344 -0.13026294 0.11252325 -0.074377246
-0.04499753 0.02658759 0.044646908 0.02397593 -0.07465392 -0.0985353 -0.3783198 0.048525356
-0.17095049 -0.05596484 0.032414045 0.030356051 -0.15867563 -0.00092591345 -0.01631366 0.0659858
0.04345351 -0.08984301 0.058042184 0.03136996 -0.08062182 -0.01841771 -0.09727917 -0.09180935
-0.16617279 0.09147011 0.035182662 -0.123119846 0.05565655 -0.11846191 -0.0870339 -0.032091606
-0.12373274 -0.07840739 -0.13928309 -0.07413556 -0.050604332 -0.17511669 -0.015786104 -0.021596758
0.033141673 0.061269496 -0.2787199 0.02257934 0.1177104 -0.16206852 -0.12030621 0.033076003
0.042941518 0.16874988 0.023554062 -0.103967465 -0.17139374 -0.0049834154 0.05087571 -0.08367654
-0.10026777 -0.0629269 -0.057889044 0.11126043 -0.066998646 -0.115102105 -0.20960724 -0.0055713803
0.09283498 0.008043602 -0.08180401 -0.123650394 -0.11141075 0.09340304 -0.19899599 -0.2549857
0.11976209 -0.0027083124 0.021522895 -0.044202104 -0.04620961 -0.03463149 -0.09238906 -0.07182206
-0.13927647 -0.10089134 0.043792382 -0.13133445 -0.0037486106 -0.014293946 -0.01071125 -0.06740315
-0.016957492 -0.012915954 -0.010008872 0.012210637 0.014709234 -0.039543584 -0.120428264 -0.010076284
-0.23804313 0.033358566 -0.2155698 0.052198686 -0.06615763 -0.079059646 -0.0878479 -0.4136531
-0.033629403 -0.008874944 0.016535938 -0.10812508 -0.09929085 0.05247788 -0.10150963 0.027459368
-0.19874704 -0.08341487 0.11443919 -0.034450702 -0.053149834 -0.03864862 -0.054031238 0.016253853
-0.08234476 0.011105812 -0.04917504 -0.0553283 -0.046907723 -0.15835103 -0.09374808 -0.023413286
-0.031004652 -0.033172738 0.055608876 -0.025300428 -0.047705382 -0.11613417 -0.12676835 -0.1329373
-0.105827905 0.037977353 -0.23005497 0.024649162 -0.03518255 0.0385637 -0.020514363 -0.05173032
-0.118016854 -0.32226104 -0.0893497 0.10976261 -0.11677845 -0.12362024 0.053600214 -0.052125156
-0.15236744 -0.05740547 -0.017661681 -0.0063211024 0.0122468285 -0.041996032 -0.093057945 -0.1338065
-0.16429114 0.04675658 -0.15640493 0.08477524 -0.13072623 0.01113885 -0.06653174 -0.23455802
-0.08863106 -0.2529391 -0.2707111 0.0034428658 -0.026561514 -0.23883674 -0.060097396 0.03160736
0.11711149 -0.045699403 -0.109004214 0.0011413696 -0.09324696 -0.041511577 0.00852715 -0.2263086

network.2.bias f4 [32]
00000000: 210a 95be 2d17 88be a9ee 12bf 87f0 dcbe
00000010: 80db 1abd 5fb0 e0be ebc4 06bf 1149 cebe
00000020: bd03 b3be 51bd fabe ab19 ff3f e749 e8be
00000030: 813b 0140 d6a9 0cbe 21e4 0abf 2cb7 98bd
00000040: 684e 01be 9833 d9bd 9a69 e7be 5fc9 ab3f
00000050: a86e a5be d393 253f 19cc 1abe 9235 4040
00000060: dd9c a2be c182 ecbe 3946 e0be 3bd6 a4be
00000070: 54e4 3ebe 532b 8abd 325c 24be 4b0f 9cbe
-0.2910929 -0.26580182 -0.57395416 -0.43152258 -0.037806988 -0.4388456 -0.5264422 -0.4029012
-0.3496379 -0.48972562 1.9929708 -0.45368883 2.0192568 -0.13736662 -0.5425435 -0.07456812
-0.12627566 -0.10605544 -0.45197755 1.3420829 -0.32310987 0.64678687 -0.1511692 3.0032697
-0.31760302 -0.46193507 -0.43803576 -0.32194695 -0.18641788 -0.06746545 -0.16050795 -0.30480418

network.4.weight f4 [3, 32]
00000000: b403 173e e40c 00bb 3e2b 8abe 99b6 923e
00000010: e132 a33c fdde 19be aa16 103e e660 53bd
00000020: 98fa 8ebe 19fb 2cbe 8155 9b40 37c7 823e
00000030: 4790 77c0 2b5f 11be ffdc cc3d dd69 553d
00000040: 28fa e43c 3f79 c23d 6f15 d03c 8639 b63f
00000050: bdbd a0bd df36 96bf f765 8c3d 94ec c13f
00000060: a003 0abe 2520 393e 99ad ef3b 5447 ef3c
00000070: bd8a eabc 2342 c43d f91a 4c3e 37e7 e1bb
00000080: bbcb f3bb 7587 66bc 33b8 c1bd 2d83 5bbc
00000090: 5e24 edbc 4d7b e83e a25e 8a3e 8652 463e
000000a0: af51 03bf c3ce 6fbc 9c01 9f40 ca79 da3d
000000b0: 63da 7cc0 8ea9 1a3d ec44 233e a7e4 ad3d
000000c0: bf02 3c3d 917a ab3d 0281 96be b8db b33f
000000d0: 1009 a33e 5010 35bd 191d f9bc 74c0 cc3f
000000e0: fd8c 53bc 20ef 393c cfaa d7bd b78a d23c
000000f0: ba06 8abb bc9f 26bc 3806 85bd e0b8 14bd
00000100: e7ef 3b3e b144 0a3d 0e2f ef3d cb3a af3d
00000110: c67b 4e3d 65f6 f93e 9800 c23d fe93 9bbe
00000120: 2d1c 133f a7f8 9d3d 5d38 9440 7d28 ebbc
00000130: 21fc 69c0 4fa3 a83d dc80 3f3e 4727 e0bc
00000140: 5263 8cbd ad98 4abe 4260 c93d ff4b 8d3f
00000150: bfca d6bd 6e5f 8f3f b5da 29be a9da a93f
00000160: 888d 393e f189 313e 9653 71be 46a2 1f3e
00000170: 8585 44bd f1ba f83c e34b cc3d 3b27 adbc
0.14747506 -0.0019538933 -0.26986116 0.28654936 0.019921722 -0.1502647 0.14071146 -0.05160608
-0.27925563 -0.16892661 4.8541875 0.25542614 -3.868181 -0.1419646 0.10003089 0.052102912
0.027951315 0.09495782 0.025400845 1.4236305 -0.0784869 -1.1735495 0.06855386 1.5150323
-0.13477945 0.18078668 0.0073143956 0.029208817 -0.028630609 0.09582927 0.19932164 -0.006894018
-0.007440058 -0.014070381 -0.09458961 -0.013397974 -0.028948005 0.4540657 0.27025324 0.19367418
-0.51296514 -0.014636698 4.9689465 0.10667761 -3.9508293 0.037759356 0.1594426 0.084908776
0.045901056 0.08372987 -0.293953 1.4051428 0.31842852 -0.04420501 -0.030409383 1.5996232
-0.012912032 0.011348516 -0.10530626 0.02570091 -0.0042122276 -0.01016992 -0.06495327 -0.036309123
0.18353234 0.033756915 0.11678897 0.08556136 0.05041101 0.48820797 0.094727695 -0.30386347
0.5746487 0.07713442 4.6318803 -0.02870583 -3.6560137 0.08234274 0.187015 -0.027362479
-0.06854881 -0.19784804 0.09832813 1.1038817 -0.104878895 1.1200998 -0.16587336 1.3269855
0.18120396 0.17337777 -0.23567042 0.15589246 -0.047978897 0.030362578 0.09975412 -0.02113687

network.4.bias f4 [3]
00000000: 101d 0041 06a6 fb40 5bf4 0141
8.007095 7.8640165 8.122157

network.0.weight f4 [64, 6]
00000000: c7b4 1fc0 64ec 37c0 211d dfbd d65a 8bbe
00000010: 681c ae3d 7e02 c3be 81f8 7f3e f6be a93c
00000020: a302 893c 68e2 183e 0fa0 d8bd eb72 2cbe
00000030: 1056 333e d2c1 113e d4f6 79be 6069 e5bb
00000040: 46ab 003e 7294 88be 6058 2abf dc5a e1bd
00000050: 513c 573e 6cfa de3d 2436 64be 941b 833d
00000060: 4188 48c0 a989 75c0 c9b9 8f3d f03c efbf
00000070: 4da0 103e c1c2 8d3d d89b 2bbf e132 dcbe
00000080: bdc6 623e 5a7e d2bd 0ae1 cc3c 97d1 abbe
00000090: 5612 26bd 2231 3fbf b512 5cbd 6d18 f3bd
000000a0: 343f 253d 9968 49bf ec75 23bf 0b95 58bf
000000b0: 63c5 573e 68f9 69bd e856 7abe 66ae c8be
000000c0: f8bd b5be 2588 1d3d 12ef b1bd 588a 093d
000000d0: e907 523e 8578 61be 2871 51bf ee41 5bbf
000000e0: b3f9 cfbd ca42 22bd 4650 d0bd 4dc0 b0bd
000000f0: 0256 e73d 7d77 d9be 9b28 543e d00b 51be
00000100: 7b52 f0bc 0257 ebbe 8231 8abb e62c f03d
00000110: 160d 29bd c965 903d 7f8f 8d3d ad72 fd3d
00000120: ddcb ebbe a42d 00bd 3f71 dcbd 806b 2dbd
00000130: 4886 8b3d 2024 8abe 16e8 fdbc 8f9d c6be
00000140: 9486 f93d 2647 f23d 8415 543d cd30 efbe
00000150: 4b93 03c1 970f 00c0 7156 c43d c330 d5bf
00000160: cda7 553e a1a7 7b3f f301 b9c0 14d8 bbbf
00000170: c111 fe3e ae14 efbf cd69 003f eae9 073f
00000180: d198 cd3d 3167 00bd 4c7d d23d 5519 673d
00000190: 0989 5abe 7455 033e e414 74be f5b9 2cbf
000001a0: f658 7b3e df63 383c 79e5 a93d 0032 02bf
000001b0: ecc9 74c0 1828 f73f 6b9f a0bc 6f60 1ebe
000001c0: e6e6 923d 158b 29bf 4f00 7cbf da94 99be
000001d0: 4fa6 abbd 4d9e afbd 453c 013e f74a 9bbe
000001e0: 29a3 44bf a788 fcbe c31e f43d f739 cbbd
000001f0: 856c cc3e b437 60bf e810 9cbe 25ef c93e
00000200: feab b03d 3a38 c33c 5a5a 4dbe 2d9e d0be
00000210: cced 01bf 786d 2dbe 4feb b13d 2f82 cbbd
00000220: f32b ab3d 4fe3 24bf 1a1a cebe b0bb ab3e
00000230: 6cdc db3d 4cbb 963d d1ad 19be 97d8 6abe
00000240: 318e 98be 5acf 983d 3d30 2c3e 0353 d7bd
00000250: 7f07 ce3d 34ba f5be 3674 a5c0 b14a 0640
00000260: 1ee3 053f 5a1e 15c0 a17b 0a3f 64c3 71be
00000270: 2a21 84bf f17f 03bf 2db5 ab3c 2659 b4bd
00000280: c651 543e 3efd 75bf 0cbe 123e 8d9a 53bd
00000290: 00d2 f83d 5d4d 733d 43be c8bd 2b2b 00bf
000002a0: cce6 7f3c 062b 39bd 61cf eebd 0529 d23d
000002b0: 41d5 953e 2086 1bba fd5d 85bd 17d5 eabd
000002c0: 1938 57bd a024 c03d db0a b2bd b0b7 d0be
000002d0: 1447 00c1 44cb b23f d280 40bf 0117 17c0
000002e0: bfe7 05bf f45a 253f a3c3 24be 8ed4 ecbe
000002f0: c0b1 193d a08e 6ebd 6c14 8f3e ac0c 8cbe
00000300: c06e 9f3e 50ae fdbe a161 d3bd 0737 d1bd
00000310: 64d7 743e b562 a5be fd9b 88bd 7127 af3d
00000320: cd5a 843e 9c8b 283d 324e 7dbe acc6 32be
00000330: 2af0 adbe 64fb 4bbe 3bfe 0b3e 3666 9c3d
00000340: 1739 043e 414c 02bf 49ee 503d ee25 0abd
00000350: 7697 583e 51c8 963c baba a9be 99f6 4dbc
00000360: d49b 17bf 2707 08bf 3927 cdbc f1bd 523e
00000370: 848f c43d b82c 02be c3ec b2be 4ec2 3e3d
00000380: 27d5 afbe f21d 4fbc 1072 893e 80c0 30be
00000390: cea4 3fbd 8888 8cbd d2ab 703e 64cb 103e
000003a0: 577d 90be 415a 5dbe d0a2 f83c 5221 51bf
000003b0: 45f2 bb3e 765a 37bd 0225 8dbd 53af 10bf
000003c0: 984a 6abe 32f3 83bf b71c 50be b99d 94bd
000003d0: 14fe 7c3e 5611 ffbe e907 dabe e984 fbbe
000003e0: bb7d d9bd b2a7 d23c dbee 823e b54a bfbe
000003f0: f9e4 2cbf 6f73 60bf 4404 593d da73 01be
-2.4954088 -2.8738031 -0.10894228 -0.2721774 0.08501512 -0.3808784 0.2499714 0.02072094
0.01672489 0.14930117 -0.10577404 -0.16840713 0.17513299 0.14234093 -0.24410564 -0.007001087
0.12565336 -0.26675755 -0.665411 -0.11003658 0.21019103 0.10887608 -0.22286278 0.064017445
-3.1333163 -3.836527 0.070178576 -1.8690472 0.1412365 0.06921912 -0.67034674 -0.43007568
0.22146125 -0.10278006 0.02500965 -0.33558342 -0.04054483 -0.74684346 -0.053728778 -0.11869893
0.04034348 -0.7867523 -0.6385181 -0.8460242 0.21071391 -0.057122618 -0.24447215 -0.39195555
-0.35496497 0.038459916 -0.08688177 0.0335792 0.2051083 -0.22018631 -0.8181329 -0.85647476
-0.10155048 -0.039614476 -0.10171561 -0.086304285 0.112957016 -0.42473975 0.20718615 -0.20414662
-0.029336205 -0.4596482 -0.0042173276 0.11727314 -0.041272245 0.07050664 0.06912135 0.12375388
-0.46053973 -0.031293526 -0.107637875 -0.042338848 0.068127215 -0.26980686 -0.030994456 -0.38792083
0.12183872 0.11829977 0.05177833 -0.4671692 -8.22346 -2.0009515 0.095868 -1.6655506
0.20864792 0.98302656 -5.781488 -1.4675317 0.4962292 -1.8678186 0.5016144 0.530913
0.10038913 -0.03134841 0.10277805 0.056420643 -0.21341337 0.12825567 -0.23836094 -0.6747125
0.24545655 0.01125428 0.082957216 -0.50857544 -3.8248243 1.9309111 -0.019607266 -0.15466474
0.07172947 -0.6622785 -0.9843797 -0.29996377 -0.0838133 -0.08575115 0.12620647 -0.3033063
-0.7681146 -0.49323007 0.1191993 -0.09923165 0.39926544 -0.87584996 -0.30481648 0.39440265
0.08626555 0.023830522 -0.20053998 -0.4074568 -0.50753474 -0.1693629 0.0868746 -0.0993694
0.08357992 -0.64409345 -0.4025429 0.33541632 0.107354015 0.07359943 -0.15007712 -0.22934185
-0.29795983 0.07461424 0.16815276 -0.1051388 0.100600235 -0.47993624 -5.170436 2.0983088
0.5229968 -2.3299775 0.5409489 -0.23609692 -1.0322621 -0.513671 0.020960415 -0.08806066
0.20734319 -0.9608954 0.1433031 -0.051661063 0.12149429 0.05939995 -0.098019145 -0.5006587
0.015618991 -0.045207046 -0.11660648 0.1026173 0.29264262 -0.0005932767 -0.065120675 -0.11466425
-0.052543733 0.09381986 -0.08693477 -0.40765142 -8.017353 1.3968282 -0.75196564 -2.360779
-0.5230674 0.6459191 -0.16090254 -0.46255916 0.03752303 -0.058241487 0.27945268 -0.27353418
0.31139183 -0.49547052 -0.103213556 -0.10215574 0.2391029 -0.3230187 -0.066703774 0.08552445
0.25850525 0.041148767 -0.2473686 -0.174586 -0.33972293 -0.19920117 0.136712 0.07636683
0.12912403 -0.50897604 0.051008496 -0.03372758 0.21151528 0.018406065 -0.33150274 -0.0125710005
-0.5922215 -0.53135914 -0.025043117 0.2058027 0.09597686 -0.12712371 -0.3494626 0.046572022
-0.3434231 -0.012641417 0.26844835 -0.17260933 -0.04678803 -0.06861979 0.23503044 0.14140087
-0.28220627 -0.2161646 0.030351073 -0.8169147 0.36708274 -0.044764005 -0.06891824 -0.56517524
-0.22880018 -1.0308592 -0.20323454 -0.07256646 0.24706298 -0.49817914 -0.4258416 -0.4912484
-0.10619684 0.025714729 0.25572857 -0.37361684 -0.67536885 -0.8767614 0.052982584 -0.1264185

network.0.bias f4 [64]
00000000: 72fd dfbe 3923 1abf 429a c3be a0bc f4be
00000010: 21a2 873e 3d62 b1be 11b5 62bf 7bab eabe
00000020: b3c5 103d 5dba 43bf f361 f6be eed0 02bf
00000030: c802 b1bd 3e3c f8bd 5b84 863f e0d7 843f
00000040: 7e5a dbbe 5cf9 3cbf 9e4e 18bf 189a 28bf
00000050: dc20 88be ccdb 39be 88bd cebe 7712 8ebe
00000060: 7529 b3be abdb edbe 29ef 8dbe 352c 4dbe
00000070: b55e 27bf af9c 70be 6630 013f 3706 94be
00000080: 3adc 20be e30e e9be d3ca 43be c5d6 a4be
00000090: 153b b1be 3eb6 c3be 75a3 afbe 8587 dcbe
000000a0: edf2 38bf d408 bcbd cdcf 0fbf 1404 34bf
000000b0: ff90 75be 66cb 9a3f a6f6 39bf fc91 b13e
000000c0: 5e76 9cbe ef1c 25bf d870 dabe 4da9 b2be
000000d0: 0948 cebe 1c66 a5be 316c 0fbe ae4f cebe
000000e0: fe72 cbbd 960d d6be 24e4 41be b681 ecbe
000000f0: ba38 21bf 9fa4 f3bd ccb3 58bf aa44 03bf
-0.4374805 -0.60209996 -0.38203627 -0.4780016 0.26490882 -0.34645262 -0.88557535 -0.45833954
0.03534479 -0.7645624 -0.48121604 -0.5110005 -0.086431086 -0.12120865 1.0509142 1.037838
-0.42842478 -0.7381799 -0.5949496 -0.6586013 -0.2658757 -0.18150252 -0.40378976 -0.27748463
-0.34992567 -0.46456656 -0.27721527 -0.20036395 -0.65378886 -0.2349727 0.50464475 -0.28910992
-0.1570901 -0.4551917 -0.1912034 -0.32195106 -0.3461539 -0.38224977 -0.34304395 -0.43072143
-0.72245675 -0.09181371 -0.56176454 -0.7031872 -0.23981093 1.2093322 -0.7264198 0.3468169
-0.30559057 -0.64497274 -0.42664218 -0.3489479 -0.40289333 -0.32304466 -0.14006115 -0.40295166
-0.099340424 -0.4180724 -0.18934685 -0.46192712 -0.6297718 -0.11896633 -0.8464935 -0.5127665

network.2.weight f4 [32, 64]
00000000: 03ac 66be 9322 993b 92f5 96bd 078e b9bd
00000010: 0da9 fbbd 4215 6d3d 5465 07be 3402 e7bd
00000020: d4bb 623d 086b 6bbd d456 94bc 94d0 8b3d
00000030: 25ce 21bd 53a5 0e3d 2890 34be 4fd2 8abe
00000040: 1787 5b3b 0418 343d db30 bdbe aa2c 3c3c
00000050: 5f3d 4b3e 6ccc b5bd 6f05 18be f098 1c3c
00000060: 385d b23d 7cea 8a3d 3fba 863e b8bb 963c
00000070: c0bd 33bd d0d7 b6bc dbd1 86be 3474 1a3d
00000080: 1410 bbbd 44ff 17bd d325 1fbd 3800 fc3c
00000090: a8cb 0fbd 30a5 5b3c 4045 553d a3fb 2abe
000000a0: 95c2 3abe e68b bb3d 566f 25be 7c17 74bd
000000b0: 4273 cabd 9498 29be 936a 0c3e 0a44 58bd
000000c0: a8b9 92bd 31c5 8cbc adb0 b3be b4a1 c039
000000d0: 880a 813c b46d 77bd 1c49 f7bd aebc 82bd
000000e0: 90ec f63c ac07 013d 8096 6b3b e0e3 5fbd
000000f0: 9fbc c8bd 2c78 ddbd 1b7a 73bd ef1e 53be
00000100: 8307 8dbd 4b3f f6bd b087 a43d f0f8 1abe
00000110: 81ec 34be a663 05be 9772 e63d 1953 98bd
00000120: 544f 38bd 38ce d93c addf 363d 2b69 c43c
00000130: 28e4 98bd e0cc c9bd 22b3 c1be 86c2 463d
00000140: a50d 2fbe 633b 65bd 97c4 043d 41ad f83c
00000150: dd7b 22be 00b9 72ba 3aa4 85bc 9023 873d
00000160: 4ffc 313d 9dff b7bd a4bd 6d3d ca7d 003d
00000170: 0e1d a5bd bde0 96bc 4d3a c7bd 8a06 bcbd
00000180: 3329 2abe ae54 bb3d b21b 103d 4226 fcbd
00000190: 1ff8 633d 289c f2bd d43e b2bd 7d72 03bd
000001a0: 9767 fdbd 0e94 a0bd 3aa0 0ebe 62d4 97bd
000001b0: 7d46 4fbd ca51 33be dc51 81bc afeb b0bc
000001c0: 90bf 073d b9f5 7a3d 60b4 8ebe 4ff8 b83c
000001d0: 2612 f13d 4af5 25be 1a63 f6bd b47a 073d
000001e0: 72e3 2f3d c5cc 2c3e 73f4 c03c e5ec d4bd
000001f0: d781 2fbe eb4b a3bb 0c63 503d 9b5e abbd
00000200: 3059 cdbd d2df 80bd 101d 6dbd 82dc e33d
00000210: 9636 89bd a7ba ebbd 48a3 56be 2090 b6bb
00000220: 4420 be3d 50c9 033c dc88 a7bd 6b3c fdbd
00000230: 522b e4bd 184a bf3d 9bc5 4bbe 7c8d 82be
00000240: d445 f53d f17d 31bb c850 b03c 440d 35bd
00000250: 4a46 3dbd c0d9 0dbd 7a36 bdbd 7217 93bd
00000260: 7e9e 0ebe 1ea0 cebd a45f 333d 8a7c 06be
00000270: 40ab 75bb 2831 6abc 3d7e 2fbc aa0a 8abd
00000280: 70ea 8abc 709d 53bc 40fc 23bc 200f 483c
00000290: 00ff 703c 74f8 21bd 18a3 f6bd 0017 25bc
000002a0: 94c1 73be fea2 083d 54be 5cbe 4ace 553d
000002b0: a77d 87bd 06ea a1bd 9ae9 b3bd 57ca d3be
000002c0: fcbe 09bd 3768 11bc 6076 873c af70 ddbd
000002d0: 0059 cbbd 0cf3 563d 48e4 cfbd 78f2 e03c
000002e0: 5884 4bbe 6ad5 aabd 185f ea3d 2e1c 0dbd
000002f0: a4b3 59bd 044e 1ebd dc4f 5dbd cd26 853c
00000300: 5fa4 a8bd 27f5 353c c46b 49bd ed9f 62bd
00000310: 5022 40bd c626 22be fefe bfbd 38cd bfbc
00000320: 78fd fdbc 23e0 07bd 22c6 633d d842 cfbc
00000330: b866 43bd c0d7 edbd 90cf 01be b720 08be
00000340: 4dbc d8bd 248e 1b3d 8893 6bbe 0aed c93c
00000350: 941b 10bd f8f4 1d3d bd0d a8bc 2ce3 53bd
00000360: d2b2 f1bd 66ff a4be fafc b6bd 38cb e03d
00000370: 8a29 efbd 9c2c fdbd e68b 5b3d 3081 55bd
00000380: 3606 1cbe 0022 6bbd 3baf 90bc 4021 cfbb
00000390: eca6 483c 0804 2cbd 2a95 bebd 9204 09be
000003a0: f03b 28be d483 3f3d 9d28 20be a49e ad3d
000003b0: 19dd 05be b97f 363c cb41 88bd fa2f 70be
000003c0: 3484 b5bd 3c81 81be a59a 8abe b4a1 613b
000003d0: 8897 d9bc 9e91 74be b028 76bd b876 013d
000003e0: 26d8 ef3d 4c2f 3bbd 9a3d dfbd 029a 953a
000003f0: 43f8 bebd 0b08 2abd 76b5 0b3c 71bd 67be
-0.22526555 0.004673311 -0.073710576 -0.09060293 -0.12288103 0.0578816 -0.13222247 -0.11279717
0.055354908 -0.05747512 -0.01810781 0.068268925 -0.039503235 0.034825634 -0.17633116 -0.27113578
0.0033497268 0.043968216 -0.36951336 0.011485258 0.1984763 -0.08876881 -0.14845823 0.0095579475
0.08709186 0.067830056 0.2631397 0.018400058 -0.04388213 -0.022319704 -0.26331982 0.037708476
-0.09133926 -0.037108675 -0.03885443 0.030761823 -0.03510633 0.013406083 0.052067995 -0.16697554
-0.1823829 0.09157543 -0.16155753 -0.05959271 -0.09885265 -0.1656211 0.1371253 -0.052799262
-0.07164317 -0.017183872 -0.3509573 0.00036741572 0.015752092 -0.060407355 -0.120744914 -0.06383644
0.030142099 0.031501457 0.003594786 -0.054660678 -0.098016016 -0.108139366 -0.05944262 -0.20617269
-0.06886198 -0.12023791 0.08033693 -0.15134025 -0.17668344 -0.13026294 0.11252325 -0.074377246
-0.04499753 0.02658759 0.044646908 0.02397593 -0.07465392 -0.0985353 -0.3783198 0.048525356
-0.17095049 -0.05596484 0.032414045 0.030356051 -0.15867563 -0.00092591345 -0.01631366 0.0659858
0.04345351 -0.08984301 0.058042184 0.03136996 -0.08062182 -0.01841771 -0.09727917 -0.09180935
-0.16617279 0.09147011 0.035182662 -0.123119846 0.05565655 -0.11846191 -0.0870339 -0.032091606
-0.12373274 -0.07840739 -0.13928309 -0.07413556 -0.050604332 -0.17511669 -0.015786104 -0.021596758
0.033141673 0.061269496 -0.2787199 0.02257934 0.1177104 -0.16206852 -0.12030621 0.033076003
0.042941518 0.16874988 0.023554062 -0.103967465 -0.17139374 -0.0049834154 0.05087571 -0.08367654
-0.10026777 -0.0629269 -0.057889044 0.11126043 -0.066998646 -0.115102105 -0.20960724 -0.0055713803
0.09283498 0.008043602 -0.08180401 -0.123650394 -0.11141075 0.09340304 -0.19899599 -0.2549857
0.11976209 -0.0027083124 0.021522895 -0.044202104 -0.04620961 -0.03463149 -0.09238906 -0.07182206
-0.13927647 -0.10089134 0.043792382 -0.13133445 -0.0037486106 -0.014293946 -0.01071125 -0.06740315
-0.016957492 -0.012915954 -0.010008872 0.012210637 0.014709234 -0.039543584 -0.120428264 -0.010076284
-0.23804313 0.033358566 -0.2155698 0.052198686 -0.06615763 -0.079059646 -0.0878479 -0.4136531
-0.033629403 -0.008874944 0.016535938 -0.10812508 -0.09929085 0.05247788 -0.10150963 0.027459368
-0.19874704 -0.08341487 0.11443919 -0.034450702 -0.053149834 -0.03864862 -0.054031238 0.016253853
-0.08234476 0.011105812 -0.04917504 -0.0553283 -0.046907723 -0.15835103 -0.09374808 -0.023413286
-0.031004652 -0.033172738 0.055608876 -0.025300428 -0.047705382 -0.11613417 -0.12676835 -0.1329373
-0.105827905 0.037977353 -0.23005497 0.024649162 -0.03518255 0.0385637 -0.020514363 -0.05173032
-0.118016854 -0.32226104 -0.0893497 0.10976261 -0.11677845 -0.12362024 0.053600214 -0.052125156
-0.15236744 -0.05740547 -0.017661681 -0.0063211024 0.0122468285 -0.041996032 -0.093057945 -0.1338065
-0.16429114 0.04675658 -0.15640493 0.08477524 -0.13072623 0.01113885 -0.06653174 -0.23455802
-0.08863106 -0.2529391 -0.2707111 0.0034428658 -0.026561514 -0.23883674 -0.060097396 0.03160736
0.11711149 -0.045699403 -0.109004214 0.0011413696 -0.09324696 -0.041511577 0.00852715 -0.2263086

network.2.bias f4 [32]
00000000: 210a 95be 2d17 88be a9ee 12bf 87f0 dcbe
00000010: 80db 1abd 5fb0 e0be ebc4 06bf 1149 cebe
00000020: bd03 b3be 51bd fabe 9b8d fd3f e749 e8be
00000030: aca6 0240 d6a9 0cbe 21e4 0abf 2cb7 98bd
00000040: 684e 01be 9833 d9bd 9a69 e7be 6865 ac3f
00000050: a86e a5be a83e 213f 19cc 1abe e3ed 3f40
00000060: dd9c a2be c182 ecbe 3946 e0be 3bd6 a4be
00000070: 54e4 3ebe 532b 8abd 325c 24be 4b0f 9cbe
-0.2910929 -0.26580182 -0.57395416 -0.43152258 -0.037806988 -0.4388456 -0.5264422 -0.4029012
-0.3496379 -0.48972562 1.980884 -0.45368883 2.0414228 -0.13736662 -0.5425435 -0.07456812
-0.12627566 -0.10605544 -0.45197755 1.3468447 -0.32310987 0.6298623 -0.1511692 2.9988945
-0.31760302 -0.46193507 -0.43803576 -0.32194695 -0.18641788 -0.06746545 -0.16050795 -0.30480418

network.4.weight f4 [3, 32]
00000000: b403 173e e40c 00bb 3e2b 8abe 99b6 923e
00000010: e132 a33c fdde 19be aa16 103e e660 53bd
00000020: 98fa 8ebe 19fb 2cbe 9d59 9c40 37c7 823e
00000030: fc9d 78c0 2b5f 11be ffdc cc3d dd69 553d
00000040: 28fa e43c 3f79 c23d 6f15 d03c 29ae b93f
00000050: bdbd a0bd dd12 90bf f765 8c3d 115f c73f
00000060: a003 0abe 2520 393e 99ad ef3b 5447 ef3c
00000070: bd8a eabc 2342 c43d f91a 4c3e 37e7 e1bb
00000080: bbcb f3bb 7587 66bc 33b8 c1bd 2d83 5bbc
00000090: 5e24 edbc 4d7b e83e a25e 8a3e 8652 463e
000000a0: af51 03bf c3ce 6fbc 6dad 9d40 ca79 da3d
000000b0: b73b 7dc0 8ea9 1a3d ec44 233e a7e4 ad3d
000000c0: bf02 3c3d 917a ab3d 0281 96be 97a6 b93f
000000d0: 1009 a33e ead5 ccbd 191d f9bc a928 cd3f
000000e0: fd8c 53bc 20ef 393c cfaa d7bd b78a d23c
000000f0: ba06 8abb bc9f 26bc 3806 85bd e0b8 14bd
00000100: e7ef 3b3e b144 0a3d 0e2f ef3d cb3a af3d
00000110: c67b 4e3d 65f6 f93e 9800 c23d fe93 9bbe
00000120: 2d1c 133f a7f8 9d3d 6e77 9340 7d28 ebbc
00000130: 7ebb 6ac0 4fa3 a83d dc80 3f3e 4727 e0bc
00000140: 5263 8cbd ad98 4abe 4260 c93d 01d8 953f
00000150: bfca d6bd 98b4 8c3f b5da 29be c719 ab3f
00000160: 888d 393e f189 313e 9653 71be 46a2 1f3e
00000170: 8585 44bd f1ba f83c e34b cc3d 3b27 adbc
0.14747506 -0.0019538933 -0.26986116 0.28654936 0.019921722 -0.1502647 0.14071146 -0.05160608
-0.27925563 -0.16892661 4.885939 0.25542614 -3.8846426 -0.1419646 0.10003089 0.052102912
0.027951315 0.09495782 0.025400845 1.4506274 -0.0784869 -1.1255757 0.06855386 1.5575887
-0.13477945 0.18078668 0.0073143956 0.029208817 -0.028630609 0.09582927 0.19932164 -0.006894018
-0.007440058 -0.014070381 -0.09458961 -0.013397974 -0.028948005 0.4540657 0.27025324 0.19367418
-0.51296514 -0.014636698 4.92742 0.10667761 -3.9567697 0.037759356 0.1594426 0.084908776
0.045901056 0.08372987 -0.293953 1.4503964 0.31842852 -0.10001738 -0.030409383 1.6028033
-0.012912032 0.011348516 -0.10530626 0.02570091 -0.0042122276 -0.01016992 -0.06495327 -0.036309123
0.18353234 0.033756915 0.11678897 0.08556136 0.05041101 0.48820797 0.094727695 -0.30386347
0.5746487 0.07713442 4.608329 -0.02870583 -3.6676936 0.08234274 0.187015 -0.027362479
-0.06854881 -0.19784804 0.09832813 1.1706544 -0.104878895 1.0992613 -0.16587336 1.3367242
0.18120396 0.17337777 -0.23567042 0.15589246 -0.047978897 0.030362578 0.09975412 -0.02113687

network.4.bias f4 [3]
00000000: da7d ff40 9818 fc40 3cf7 0141
7.9841127 7.878002 8.12286

exp_avg f4 [64, 6]
00000000: 0400 0000 0400 0000 0400 0080 0400 0080
00000010: 0400 0080 0400 0000 0400 0000 0400 0000
00000020: 0400 0080 0400 0000 0400 0080 0400 0000
00000030: 0000 0000 0000 0000 0000 0000 0000 0000
00000040: 0000 0000 0000 0000 0400 0000 0400 0000
00000050: 0400 0000 0400 0000 0400 0000 0400 0000
00000060: 4203 9c3b 4850 9f3b 49d2 a23c 68cb 883c
00000070: ba62 433c 622d b9bb 0400 0000 0400 0000
00000080: 0400 0000 0400 0080 0400 0000 0400 0000
00000090: 0400 0080 0400 0000 0400 0000 0400 0000
000000a0: 0400 0000 0400 0000 0400 0000 0400 0000
000000b0: 0400 0080 0400 0000 0400 0080 0400 0000
000000c0: 0000 0000 0000 0000 0000 0000 0000 0000
000000d0: 0000 0000 0000 0000 0400 0000 0400 0000
000000e0: 0400 0080 0400 0080 0400 0080 0400 0000
000000f0: 0400 0000 0400 0000 0400 0000 0400 0080
00000100: 0400 0000 0400 0000 0400 0000 0400 0000
00000110: 0400 0080 0400 0000 0400 0080 0400 0000
00000120: 0400 0000 0400 0000 0400 0000 0400 0080
00000130: 0400 0000 0400 0000 0400 0000 0400 0000
00000140: 0400 0000 0400 0000 0400 0000 0400 0000
00000150: c8b1 93ba 608a d73a acb8 5a3c 8ff1 943b
00000160: 983b 033c a800 28bb 0b80 0e3b d2ee a73b
00000170: 1ef3 7c3c 6960 ab3b 0dc5 173c 3a33 6cba
00000180: 0400 0000 0400 0000 0400 0000 0400 0000
00000190: 0400 0000 0400 0000 0400 0000 0400 0000
000001a0: 0400 0080 0400 0000 0400 0080 0400 0000
000001b0: 0400 0000 0400 0000 0400 0080 0400 0080
000001c0: 0400 0080 0400 0000 0400 0000 0400 0000
000001d0: 0400 0080 0400 0080 0400 0080 0400 0000
000001e0: 0400 0000 0400 0000 0400 0080 0400 0000
000001f0: 0400 0080 0400 0000 0000 0000 0000 0000
00000200: 0000 0000 0000 0000 0000 0000 0000 0000
00000210: 0400 0000 0400 0000 0400 0000 0400 0080
00000220: 0400 0000 0400 0000 0400 0000 0400 0000
00000230: 0400 0080 0400 0000 0400 0080 0400 0000
00000240: 0400 0000 0400 0000 0400 0080 0400 0000
00000250: 0400 0080 0400 0000 270b 59bc fd3a 8dbc
00000260: b879 783d b855 113e d515 153d 382a 9dbd
00000270: 0400 0000 0400 0000 0400 0000 0400 0080
00000280: 0400 0000 0400 0000 0400 0000 0400 0000
00000290: 0400 0080 0400 0080 0400 0080 0400 0000
000002a0: 0400 0000 0400 0000 0400 0000 0400 0000
000002b0: 0400 0000 0400 0000 0400 0000 0400 0000
000002c0: 0400 0080 0400 0080 0400 0080 0400 0000
000002d0: 92c8 09bc bfa9 233c b63b 913b 2c43 0c3d
000002e0: 6d48 2e3b 5998 d6bc 0400 0080 0400 0000
000002f0: 0400 0000 0400 0000 0400 0000 0400 0000
00000300: 0400 0000 0400 0000 0400 0000 0400 0080
00000310: 0400 0000 0400 0000 0400 0000 0400 0000
00000320: 0400 0000 0400 0000 0400 0000 0400 0000
00000330: 0400 0000 0400 0000 0400 0000 0400 0000
00000340: 0400 0000 0400 0000 0400 0000 0400 0000
00000350: 0400 0080 0400 0000 0400 0080 0400 0000
00000360: 0400 0000 0400 0000 0400 0000 0400 0000
00000370: 0400 0000 0400 0000 0400 0000 0400 0000
00000380: 0400 0080 0400 0000 0400 0080 0400 0000
00000390: 0400 0000 0400 0000 0400 0000 0400 0000
000003a0: 0400 0000 0400 0000 0400 0000 0400 0000
000003b0: 0400 0000 0400 0080 0400 0000 0400 0000
000003c0: 0400 0000 0400 0000 0400 0000 0400 0000
000003d0: 0400 0000 0400 0000 0400 0000 0400 0000
000003e0: 0400 0080 0400 0000 0400 0080 0400 0000
000003f0: 0400 0000 0400 0000 0400 0000 0400 0080
6e-45 6e-45 -6e-45 -6e-45 -6e-45 6e-45 6e-45 6e-45
-6e-45 6e-45 -6e-45 6e-45 0.0 0.0 0.0 0.0
0.0 0.0 6e-45 6e-45 6e-45 6e-45 6e-45 6e-45
0.0047611305 0.004861865 0.019875662 0.016698554 0.011925394 -0.005651162 6e-45 6e-45
6e-45 -6e-45 6e-45 6e-45 -6e-45 6e-45 6e-45 6e-45
6e-45 6e-45 6e-45 6e-45 -6e-45 6e-45 -6e-45 6e-45
0.0 0.0 0.0 0.0 0.0 0.0 6e-45 6e-45
-6e-45 -6e-45 -6e-45 6e-45 6e-45 6e-45 6e-45 -6e-45
6e-45 6e-45 6e-45 6e-45 -6e-45 6e-45 -6e-45 6e-45
6e-45 6e-45 6e-45 -6e-45 6e-45 6e-45 6e-45 6e-45
6e-45 6e-45 6e-45 6e-45 -0.0011268193 0.0016444437 0.013349693 0.0045453976
0.008009814 -0.0025635157 0.00217438 0.005124905 0.015438823 0.005229999 0.009263289 -0.0009010319
6e-45 6e-45 6e-45 6e-45 6e-45 6e-45 6e-45 6e-45
-6e-45 6e-45 -6e-45 6e-45 6e-45 6e-45 -6e-45 -6e-45
-6e-45 6e-45 6e-45 6e-45 -6e-45 -6e-45 -6e-45 6e-45
6e-45 6e-45 -6e-45 6e-45 -6e-45 6e-45 0.0 0.0
0.0 0.0 0.0 0.0 6e-45 6e-45 6e-45 -6e-45
6e-45 6e-45 6e-45 6e-45 -6e-45 6e-45 -6e-45 6e-45
6e-45 6e-45 -6e-45 6e-45 -6e-45 6e-45 -0.013247288 -0.017240042
0.060662955 0.14192855 0.036397774 -0.07674068 6e-45 6e-45 6e-45 -6e-45
6e-45 6e-45 6e-45 6e-45 -6e-45 -6e-45 -6e-45 6e-45
6e-45 6e-45 6e-45 6e-45 6e-45 6e-45 6e-45 6e-45
-6e-45 -6e-45 -6e-45 6e-45 -0.008409636 0.009989201 0.004432167 0.034243748
0.0026593462 -0.026195692 -6e-45 6e-45 6e-45 6e-45 6e-45 6e-45
6e-45 6e-45 6e-45 -6e-45 6e-45 6e-45 6e-45 6e-45
6e-45 6e-45 6e-45 6e-45 6e-45 6e-45 6e-45 6e-45
6e-45 6e-45 6e-45 6e-45 -6e-45 6e-45 -6e-45 6e-45
6e-45 6e-45 6e-45 6e-45 6e-45 6e-45 6e-45 6e-45
-6e-45 6e-45 -6e-45 6e-45 6e-45 6e-45 6e-45 6e-45
6e-45 6e-45 6e-45 6e-45 6e-45 -6e-45 6e-45 6e-45
6e-45 6e-45 6e-45 6e-45 6e-45 6e-45 6e-45 6e-45
-6e-45 6e-45 -6e-45 6e-45 6e-45 6e-45 6e-45 -6e-45

exp_avg_sq f4 [64, 6]
00000000: 10ed 4226 ddcb 5e25 13eb aa29 63ea aa29
00000010: 611f f628 01f7 ec28 2730 9412 d1ef 1312
00000020: 8b7c ce13 c72e b213 d5ab 1413 d65e 1713
00000030: 0000 0000 0000 0000 0000 0000 0000 0000
00000040: 0000 0000 0000 0000 810d cb0e 9352 200f
00000050: ab7d 2011 ab7d 2011 501a 6710 f88e 4910
00000060: dbdd bc3a edaa 833a ffef 933d 704c 983d
00000070: a607 d53c d423 e23c 7a6d 881d 12a2 541d
00000080: 54aa 8c1f 54aa 8c1f 528f ca1e d05a d71e
00000090: 6fef 3210 df0a 1710 5df2 f218 5df2 f218
000000a0: 40ec 2e18 c585 2618 b167 bf0f 93e5 d60f
000000b0: 7721 3712 7669 3512 3eda 8311 0ecb 9b11
000000c0: 0000 0000 0000 0000 0000 0000 0000 0000
000000d0: 0000 0000 0000 0000 1f10 8609 1d3c d70a
000000e0: 2678 180e 2678 180e ae8d 5b0d 4f65 7a0d
000000f0: 2d98 e50e 0ee9 710f 7fd5 8411 7fd5 8411
00000100: d747 bf10 7c72 9c10 5a80 a30c b70a fb0c
00000110: cda8 4e0f cda8 4e0f f9ca 940e 6142 9b0e
00000120: 58eb ae0f abcf 6510 550d 7b12 adc9 7e12
00000130: 21c2 b411 2bc8 9311 2a84 a40e 4a47 060f
00000140: c6a9 0f11 031c 1111 d6df 4e10 c498 2b10
00000150: ad9a e639 7329 283a 71e4 ef3c 72d8 003d
00000160: ebb8 2c3c e728 373c 7b94 313b 4d9e 2f3b
00000170: 56a8 cc3d 9ef9 e13d 7e5a 133d fd21 233d
00000180: 32d0 260f 4c98 f10f 77b8 fc11 4a26 0012
00000190: 0ff6 3511 ec67 1611 6bfd 8e1c 5b19 401c
000001a0: a364 e91d a364 e91d 5f0b 281d a437 1a1d
000001b0: 961b d41e c8ed 6d24 08de f826 08de f826
000001c0: f22e 3326 697b 6226 d918 5232 eef7 2132
000001d0: 93e9 7a33 e7c7 8532 37a8 b432 0a88 c532
000001e0: 4f24 4e18 384b 7a0d b8a1 c61c b8a1 c61c
000001f0: c103 0f1c d865 ce1b 0000 0000 0000 0000
00000200: 0000 0000 0000 0000 0000 0000 0000 0000
00000210: 0ff6 350f b62f 900f 1ecf ab11 1ecf ab11
00000220: 4968 f710 b146 c810 4a2b 4900 953e c504
00000230: e112 ac06 e112 ac06 edc8 f705 8a24 f505
00000240: 4325 100d 78c9 ea0c ccef f60e ccef f60e
00000250: 28cb 310e 3b0d 160e 2bb2 ae3c 9fe3 903c
00000260: 6787 423f 3eec 363f 9b0f 8c3e e171 863e
00000270: 4c4e ea16 105b 2216 9918 431b 9918 431b
00000280: 5378 8c1a 4971 4a1a 2411 d10c eb8f c80c
00000290: cd80 d30e cd80 d30e 4e48 180e 93a8 160e
000002a0: 25c6 c90b 7c75 d20c c8d9 060f 37a5 020f
000002b0: 4c2f 420e 64a4 310e ecae 5c0e f3e8 3e0e
000002c0: a377 3c10 d754 3610 12b2 870f 002a 880f
000002d0: 1f58 1340 61d9 fa3f 087d d040 1e33 d140
000002e0: 9d1c 1640 6176 3d40 47ea 1802 5474 300a
000002f0: 834d 320c 834d 320c 9760 800b 89ff 510b
00000300: faa2 fc0f 6814 5110 b5cd 5d12 b5cd 5d12
00000310: eeb2 9f11 4280 8411 937a c909 948f c40c
00000320: 0bc3 ca0e 0bc3 ca0e fcfc 110e 66cd ee0d
00000330: 35f1 6010 9683 bd10 86fe ca12 86fe ca12
00000340: 3728 1212 7527 f311 fe71 150b 017d eb0b
00000350: f068 2a0e aa52 4a0e 5c63 750d 5838 630d
00000360: 665e 900f cb24 ec0f f5c6 0112 858d 0112
00000370: 56e1 3a11 7a95 1a11 cb54 4c00 3902 cf04
00000380: 69a7 b406 69a7 b406 1212 0206 e6ae 0006
00000390: acbe f607 fee0 1a0b 6cff 1f0d 6cff 1f0d
000003a0: 0566 660c 1371 3c0c 8e6f 261c 2bb0 df1b
000003b0: 5bf3 891d 5bf3 891d 60a6 c61c 1b01 b61c
000003c0: c36e b517 68b8 0316 c2f2 d319 c2f2 d319
000003d0: bd9a 1819 c77c f818 3db6 a309 5c64 e90a
000003e0: 2cdf 0a0d 2cdf 0a0d 75f9 470c 0f63 450c
000003f0: e356 dd14 e62d 8c14 8f3d a616 95de ae16
6.762855e-16 1.9324502e-16 7.5902954e-14 7.590176e-14 2.7325095e-14 2.6308384e-14 9.351984e-28 4.668062e-28
5.212452e-27 4.4979643e-27 1.8764946e-27 1.9105637e-27 0.0 0.0 0.0 0.0
0.0 0.0 5.0056367e-30 7.904512e-30 1.2660499e-28 1.2660499e-28 4.5576988e-29 3.97504e-29
0.001440938 0.0010045447 0.0722351 0.07436454 0.026004624 0.027604975 3.6112096e-21 2.8141755e-21
5.957409e-20 5.957409e-20 2.1446858e-20 2.280157e-20 3.5288763e-29 2.9787874e-29 6.280026e-24 6.280026e-24
2.2608249e-24 2.1522533e-24 1.8873995e-29 2.1190458e-29 5.7785867e-28 5.724352e-28 2.0802658e-28 2.457983e-28
0.0 0.0 0.0 0.0 0.0 0.0 3.2274487e-33 2.0726359e-32
1.8793296e-30 1.8793296e-30 6.7655126e-31 7.7159144e-31 5.65994e-30 1.1927102e-29 2.0957505e-28 2.0957505e-28
7.5446903e-29 6.170754e-29 2.5191375e-31 3.8679122e-31 1.0189094e-29 1.0189094e-29 3.6680272e-30 3.827437e-30
1.7248376e-29 4.5322268e-29 7.921807e-28 8.0396853e-28 2.8518634e-28 2.3315874e-28 4.055639e-30 6.62044e-30
1.1333026e-28 1.1447115e-28 4.0798774e-29 3.384149e-29 0.0004398426 0.0006414868 0.029283734 0.03145642
0.010542135 0.0111791855 0.0027096558 0.0026797235 0.09993045 0.11033939 0.035974972 0.039827336
8.224529e-30 2.3823097e-29 3.9872275e-28 4.0436873e-28 1.4354205e-28 1.1864937e-28 9.462279e-22 6.356024e-22
6.1778642e-21 6.1778642e-21 2.2240494e-21 2.0410496e-21 2.2457782e-20 5.159259e-17 1.7268639e-15 1.7268639e-15
6.2166723e-16 7.8576753e-16 1.22292585e-08 9.427806e-09 5.8420095e-08 1.5574143e-08 2.1031253e-08 2.2995682e-08
2.6643207e-24 7.712774e-31 1.3144344e-21 1.3144344e-21 4.7319583e-22 3.4145656e-22 0.0 0.0
0.0 0.0 0.0 0.0 8.971378e-30 1.4217874e-29 2.7106689e-28 2.7106689e-28
9.7585e-29 7.899501e-29 6.71952e-39 4.637195e-36 6.472695e-35 6.472695e-35 2.3301577e-35 2.3053112e-35
4.441828e-31 3.6174663e-31 6.0874598e-30 6.0874598e-30 2.191475e-30 1.8495298e-30 0.021325191 0.017686663
0.7598786 0.71454227 0.27355656 0.26258758 3.785415e-25 1.311499e-25 1.613797e-22 1.613797e-22
5.809704e-23 4.1864132e-23 3.2211865e-31 3.0901497e-31 5.2139547e-30 5.2139547e-30 1.877026e-30 1.8570093e-30
7.772052e-32 3.2426331e-31 6.648653e-30 6.441314e-30 2.3935119e-30 2.1896086e-30 2.7201315e-30 2.353147e-30
3.7168627e-29 3.595853e-29 1.3380618e-29 1.3426813e-29 2.3022535 1.9597589 6.5152626 6.53749
2.3454964 2.9603503 1.1234431e-37 8.495971e-33 1.3735947e-31 1.3735947e-31 4.944914e-32 4.044418e-32
2.4911895e-29 4.1233703e-29 6.9988858e-28 6.9988858e-28 2.519605e-28 2.0904973e-28 4.8504258e-33 3.0284994e-31
4.9984664e-30 4.9984664e-30 1.7994437e-30 1.471733e-30 4.436203e-29 7.4750096e-29 1.2810737e-27 1.2810737e-27
4.6119045e-28 3.8362957e-28 2.8782114e-32 9.070679e-32 2.1004643e-30 2.4938224e-30 7.5616053e-31 7.0017597e-31
1.4235857e-29 2.3285569e-29 4.0950456e-28 4.087966e-28 1.474225e-28 1.2194519e-28 7.009916e-39 4.8667507e-36
6.795446e-35 6.795446e-35 2.4463558e-35 2.420262e-35 3.7126033e-34 2.9828586e-32 4.930311e-31 4.930311e-31
1.7749256e-31 1.451702e-31 5.5068974e-22 3.70061e-22 3.651522e-21 3.651522e-21 1.3145548e-21 1.2044035e-21
1.1724811e-24 1.0640284e-25 2.1914938e-23 2.1914938e-23 7.889465e-24 6.423249e-24 3.94122e-33 2.2474835e-32
4.2793167e-31 4.2793167e-31 1.5405471e-31 1.5206137e-31 2.2349568e-26 1.4154491e-26 2.6857595e-25 2.8251685e-25

exp_avg f4 [64]
00000000: 0400 0000 0400 0000 0000 0000 0400 0000
00000010: 682d b9bb 0400 0000 0400 0000 0400 0000
00000020: 0000 0000 0400 0000 0400 0000 0400 0000
00000030: 0400 0000 0400 0000 a000 28bb 1e33 6cba
00000040: 0400 0000 0400 0000 0400 0000 0400 0000
00000050: 0400 0000 0000 0000 0400 0000 0400 0000
00000060: 0400 0000 382a 9dbd 0400 0000 0400 0000
00000070: 0400 0000 0400 0000 6898 d6bc 0400 0000
00000080: 0400 0000 0400 0000 0400 0000 0400 0000
00000090: 0400 0000 0400 0000 0400 0000 0400 0000
000000a0: 0400 0000 0400 0000 0400 0000 0400 0000
000000b0: 0400 0000 50a0 4bbe 0400 0000 6c0c 1f3c
000000c0: 0400 0000 0400 0000 0ee9 203f 0400 0000
000000d0: 0400 0000 0400 0000 0400 0000 0400 0000
000000e0: 0400 0000 0400 0000 0400 0000 0400 0000
000000f0: 0400 0000 0400 0000 0400 0000 0400 0000
6e-45 6e-45 0.0 6e-45 -0.005651165 6e-45 6e-45 6e-45
0.0 6e-45 6e-45 6e-45 6e-45 6e-45 -0.0025635138 -0.00090103026
6e-45 6e-45 6e-45 6e-45 6e-45 0.0 6e-45 6e-45
6e-45 -0.07674068 6e-45 6e-45 6e-45 6e-45 -0.02619572 6e-45
6e-45 6e-45 6e-45 6e-45 6e-45 6e-45 6e-45 6e-45
6e-45 6e-45 6e-45 6e-45 6e-45 -0.19885373 6e-45 0.009707551
6e-45 6e-45 0.62855613 6e-45 6e-45 6e-45 6e-45 6e-45
6e-45 6e-45 6e-45 6e-45 6e-45 6e-45 6e-45 6e-45

exp_avg_sq f4 [64]
00000000: 01f7 ec28 d65e 1713 0000 0000 f88e 4910
00000010: d423 e23c d05a d71e c585 2618 0ecb 9b11
00000020: 0000 0000 4f65 7a0d 7c72 9c10 6142 9b0e
00000030: 2bc8 9311 c498 2b10 e728 373c fd21 233d
00000040: ec67 1611 a437 1a1d 697b 6226 0a88 c532
00000050: d865 ce1b 0000 0000 b146 c810 8a24 f505
00000060: 3b0d 160e e171 863e 4971 4a1a 93a8 160e
00000070: 64a4 310e 002a 880f 6176 3d40 89ff 510b
00000080: 4280 8411 66cd ee0d 7527 f311 5838 630d
00000090: 7a95 1a11 e6ae 0006 1371 3c0c 1b01 b61c
000000a0: c77c f818 0f63 450c 7213 f215 67c8 920d
000000b0: 0255 4b13 ce27 0641 5415 9f12 ea3b 743d
000000c0: fe23 190d 15c7 0612 de26 a841 729a df1a
000000d0: a2da e60d 4c3f e01c a2c7 9d0f 03a1 8f0e
000000e0: dee9 8e0d 2e17 8d0e 8634 5e0f 8080 3a22
000000f0: df61 821c 3000 3f11 2183 2b15 e19c 1312
2.6308384e-14 1.9105637e-27 0.0 3.97504e-29 0.027604975 2.280157e-20 2.1522533e-24 2.457983e-28
0.0 7.7159144e-31 6.170754e-29 3.827437e-30 2.3315874e-28 3.384149e-29 0.0111791855 0.039827336
1.1864937e-28 2.0410496e-21 7.8576753e-16 2.2995682e-08 3.4145656e-22 0.0 7.899501e-29 2.3053112e-35
1.8495298e-30 0.26258758 4.1864132e-23 1.8570093e-30 2.1896086e-30 1.3426813e-29 2.9603503 4.044418e-32
2.0904973e-28 1.471733e-30 3.8362957e-28 7.0017597e-31 1.2194519e-28 2.420262e-35 1.451702e-31 1.2044035e-21
6.423249e-24 1.5206137e-31 9.77737e-26 9.04619e-31 2.5664114e-27 8.384718 1.00395685e-27 0.05962745
4.719009e-31 4.252833e-28 21.018978 9.248016e-23 1.4227478e-30 1.4839438e-21 1.5558291e-29 3.540727e-30
8.807727e-31 3.4781505e-30 1.0955561e-29 2.5275728e-18 8.627977e-22 1.5067301e-28 3.4636617e-26 4.657839e-28
